3_6_7/last_model.pth (torch, 563947 bytes, 10 tensors)

conv1.0.weight f4 [16, 3, 5, 5]
000000 56 03 7a bd 5a 6b 2b 3c 55 fb 7b 3d c4 dc 8e bd
       -0.061038338 0.010462606 0.061518986 -0.069757015
000010 96 79 d9 bd bc 2b 22 3d 8d 21 68 3d 26 b8 d2 bc
       -0.10618894 0.03959249 0.05667262 -0.025722574
000020 fe 3f 29 3d b0 07 b0 bd 96 ea e4 ba f1 fa c5 bd
       0.041320793 -0.08595216 -0.0017464932 -0.09667004
000030 18 16 3c bd db 02 ec 3d ad 23 90 bd e2 e1 2c ba
       -0.045919508 0.11523982 -0.070380546 -0.00065949385
000040 88 52 e4 bd 3c c1 34 be b4 11 a3 3c df 13 cf 3d
       -0.11148554 -0.17651838 0.019905902 0.10111212
000050 a4 01 9f 3d 98 d9 a1 bc 86 51 a6 3c c9 c8 27 3d
       0.07763985 -0.019757077 0.020302545 0.040962968
000060 54 a4 aa 3d e8 bb dd bd 39 e3 1a bd 86 7d ad 3d
       0.08332124 -0.10826856 -0.037814353 0.08471207
000070 6d ba b5 3c b5 0d ba 3d 5e b9 b2 bd 0b 50 e5 3c
       0.022183621 0.09084646 -0.08726762 0.027992269
000080 06 40 9c bc f4 44 b2 bc ef 56 24 3d 42 3d 98 3d
       -0.019073498 -0.021761395 0.04012197 0.07433559
000090 64 23 97 3c e8 03 09 3d 14 a0 14 3e 2f f2 e3 bd
       0.018449493 0.03345099 0.1451419 -0.11130177
0000a0 fe 5b 25 3e 83 9c b1 bd 34 c2 ec bd 5c 39 0b bd
       0.16148373 -0.0867243 -0.11560479 -0.03399025
0000b0 09 39 ec bd c9 4e c2 3d 9a 6a 3e bc 87 4f b5 bd
       -0.11534316 0.09487683 -0.0116220955 -0.08853059
0000c0 39 de 3f bc e8 3a c8 3d 1a 07 8e 3d 55 eb 45 3d
       -0.011710697 0.097768605 0.06934948 0.048320133
0000d0 dc cc 7e 3d a5 c9 9f 3c e1 10 77 3d 9d a6 5a 3d
       0.062207088 0.019505331 0.06031883 0.05338155
0000e0 4b fc 35 3c fd 30 81 bc a0 90 ae bc c4 34 33 bc
       0.011107515 -0.01577043 -0.021309197 -0.010937873
0000f0 7a 5d 7e 3d b2 20 ac bd a7 28 b0 3d a2 65 6c 3d
       0.062100865 -0.08404674 0.08601504 0.057714112
000100 16 d0 8c bd c8 fc 9d 3d 32 b3 a8 3c 89 6d 85 3d
       -0.06875627 0.0771423 0.02059326 0.06515033
000110 c2 76 a7 bc 89 b3 90 3d c2 eb 0c 3c 72 f9 8b 3d
       -0.02044237 0.070654936 0.008601131 0.06834687
000120 f0 7e ff bd aa fc 5a bd 83 31 07 bd fd 92 3d 3d
       -0.12475383 -0.053463615 -0.033006202 0.046282757
000130 e0 c4 02 bc 1d 3c e0 bd c1 bc b7 bd 24 55 c5 3d
       -0.007981509 -0.10948966 -0.08971549 0.0963538
000140 a0 46 d7 3d 0f ee 59 bd 3b 43 d1 bb 69 97 c2 bb
       0.105115175 -0.053205546 -0.0063861883 -0.0059384597
000150 6d c4 da bd 03 55 7a 3c 15 9f 03 be eb 96 a1 3c
       -0.106819965 0.015279057 -0.12853654 0.019725284
000160 66 0f ed bd 17 cf 20 be 28 e9 91 3d 05 97 87 bd
       -0.11575203 -0.15703999 0.07124549 -0.066206016
000170 8e 85 92 bd fa ca 9d 3d 43 79 63 bd 97 06 86 3d
       -0.0715438 0.0770473 -0.055535566 0.06544226
000180 75 d7 a5 3d 44 e0 46 3d 0b f2 0c be f2 66 e3 bd
       0.08097736 0.04855372 -0.13764207 -0.1110362
000190 ec cf ec bd cc a9 a7 bd 78 2b 8a 3c 43 87 5d bd
       -0.115630955 -0.08186683 0.01686643 -0.054084074
0001a0 84 bf 72 bd a8 1a e8 bc ab 4c 8c 3c 84 c5 80 bb
       -0.059264675 -0.028333023 0.017126402 -0.0039297957
0001b0 c0 21 8f bd 2a 1c b3 3d 80 b5 b3 bc fe ca bc 3d
       -0.06988859 0.08745606 -0.021937132 0.09218405
0001c0 41 e2 7e bb b5 4f b1 3d df 29 f7 bd cb 8d 8c bd
       -0.0038892182 0.08657781 -0.12068533 -0.06862982
0001d0 58 62 9c bc 87 ec b1 3d 65 c1 b7 bd aa 96 95 bd
       -0.019089863 0.08687692 -0.08972434 -0.073041275
0001e0 a2 6d 0b be cd ed 69 3d b9 20 0c be 75 78 f4 bd
       -0.1361604 0.05711155 -0.13684358 -0.11937038
0001f0 0e c9 b4 3d 51 58 83 3c 3a 81 7d 3d 6e 4c e2 bd
       0.08827411 0.016033323 0.06189082 -0.11049734
000200 9e 42 15 3d ca bc ad bc 18 d6 6e 3d db fe ce 3d
       0.036440484 -0.021208186 0.058309644 0.101072036
000210 e2 4b bb bc 20 a0 c3 bd ca a1 fa bd 85 ea 89 bd
       -0.022863332 -0.09552026 -0.1223789 -0.06734184
000220 4d 85 e6 3d 38 01 88 3d c0 08 fd bc 44 bd 89 bd
       0.11255894 0.066408575 -0.030887961 -0.06725553
000230 7c ce ac bd 4e da c6 bd 3f 72 59 bc d2 73 a5 bd
       -0.08437821 -0.09709607 -0.013271867 -0.080787316
000240 3a 95 ab bd a0 fa cb 3d 5f 9a cf 3b 38 96 05 be
       -0.08378072 0.09959912 0.006335541 -0.13045585
000250 57 34 21 bd 33 81 b8 3c 56 a0 65 3c 64 b0 bf 3d
       -0.039356556 0.022522544 0.014015278 0.09359816
000260 c9 ef df 3d 14 f2 8f bd 3c 30 9e 3d 2d 5c 9f 3c
       0.10934407 -0.070285946 0.07724044 0.019453133
000270 de 20 8e 38 5c e5 93 bd e4 d9 bf bd 27 28 d6 3d
       6.77721e-05 -0.07221481 -0.09367731 0.10456877
000280 94 ba 71 3d 47 1b 96 bd 08 7f 9b bc 26 4e b8 3d
       0.059015825 -0.073294215 -0.018981472 0.08999281
000290 1b 6f a7 bc 33 3a 04 be c6 77 f6 3d d2 4a b5 3c
       -0.020438721 -0.12912826 0.12034564 0.022130404
0002a0 41 0e f0 bd b2 eb a1 3c ec a3 c5 bd b4 16 0a bd
       -0.11721469 0.019765709 -0.09650406 -0.033713058
0002b0 e7 00 99 bd 4e f8 d5 3d d2 3e 24 bd 69 70 82 3d
       -0.07470875 0.10447751 -0.040098973 0.06369097
0002c0 b3 d1 1b bd 41 e8 ae bd af 00 a1 3d 1b 67 ca bb
       -0.03804178 -0.08540393 0.078614585 -0.006176842
0002d0 7e d1 2f bd ba 21 45 3d 06 f2 42 bd 6d 03 cb bd
       -0.042924397 0.048127867 -0.047594093 -0.09912763
0002e0 1a 60 ea bc 72 36 aa 3d eb 32 9e bd 5b 8d 6c bd
       -0.028610278 0.08311166 -0.077245556 -0.057751995
0002f0 2a 50 1c bc 47 dc df bd cc e2 89 3c 20 be 31 bd
       -0.009540597 -0.109306864 0.016831778 -0.043394208
000300 39 77 cf 3d f6 2c 02 3e fe f7 f5 3d cc 20 83 bc
       0.10130162 0.12712464 0.120101914 -0.01600685
000310 87 00 a6 bd 35 c2 ac 3d 09 39 b6 3c 80 79 22 bc
       -0.08105569 0.084354796 0.022243993 -0.009916663
000320 9a 6e aa bc 49 00 2e 3d d2 63 40 3d b2 23 2f 3c
       -0.020804692 0.04248074 0.046970196 0.010689663
000330 04 d4 f2 3c f9 ea 52 bd 98 da a3 bd 31 6a 9d bc
       0.029642113 -0.05149362 -0.08000678 -0.019215675
000340 d5 25 8e bb b8 46 be bd aa 58 2f bd 68 b4 93 3d
       -0.004338006 -0.09290832 -0.042809166 0.07212144
000350 01 58 17 3d 36 84 13 3e 77 35 aa 3d 7f 7e e0 bb
       0.03694916 0.14405903 0.08310979 -0.006851017
000360 9e c3 46 3d dd fb c7 3d b2 02 aa bd bf 3c 73 bc
       0.0485264 0.09764836 -0.08301295 -0.014846026
000370 32 e4 08 be e8 80 fb 3d 90 4a 3e bc e4 54 06 3e
       -0.133683 0.12280446 -0.011614457 0.1311832
000380 c3 37 bd 3d ce 46 07 be 48 54 4b 3d 18 cd d8 3d
       0.09239151 -0.13210604 0.049640924 0.105859935
000390 9d 02 2c 3d 09 ce d0 bd 2e ce 35 3b 14 ea da 3d
       0.04199468 -0.10195548 0.00277413 0.10689178
0003a0 8a 02 b8 3d ac d5 a5 3d d8 9f 43 bd b5 90 2b bd
       0.08984859 0.08097395 -0.04775986 -0.04188605
0003b0 d9 df ba 3b 6e 31 0f bc 50 74 03 3d 5a b0 d4 bc
       0.0057029543 -0.008739812 0.032093346 -0.025962997
0003c0 00 e1 53 3c 68 cb ac 3c f7 22 26 3d 25 dd 7b bd
       0.012932062 0.021093085 0.04056069 -0.061490197
0003d0 a2 cb 81 3c d7 1f cc 3d fc 5f 95 bc c8 2a 3c bd
       0.01584417 0.099670105 -0.018234245 -0.045939237
0003e0 f2 61 bd ba e2 66 a4 3d 9a 17 fc bb 50 2f a6 bd
       -0.0014448746 0.08027436 -0.007693243 -0.08114493
0003f0 ad 98 6e bd 1e 7e 8b bd 62 85 e4 bd 06 33 20 bd
       -0.05825107 -0.06811164 -0.11158253 -0.03911116

conv1.0.bias f4 [16]
000000 ba c9 1b 3d 28 70 74 3c fa 35 bb 3d 90 b0 90 bc
       0.03803418 0.014919318 0.091411546 -0.017662317
000010 bc bb ca 3c ae de b6 3d 6a da 3c 3d 95 bd c2 3d
       0.024747722 0.089291915 0.046106733 0.09508816
000020 ec ec 4a bb 33 df 31 3c 04 1e bf 3b 68 94 92 bd
       -0.003096397 0.0108564375 0.0058324356 -0.071572125
000030 5f a8 7a bc 3b 5b f9 bc a6 68 d1 bd 6b b1 5a bd
       -0.015298932 -0.03043901 -0.10225038 -0.053391855

conv2.0.weight f4 [32, 16, 5, 5]
000000 56 4a c0 bc c3 89 04 bc 10 d5 6c bd 86 3c a0 bb
       -0.023472946 -0.008089486 -0.05782038 -0.0048900275
000010 0c 9d 7f 3d 15 f8 8c 3c d2 af 9a bb c7 f8 09 3d
       0.06240563 0.017208138 -0.0047206664 0.03368452
000020 65 f3 8b bb 5d 6a 72 3d d9 89 c0 3b 87 4f 15 bd
       -0.0042709582 0.059183467 0.0058758077 -0.036452796
000030 f6 06 84 bd 35 cb 48 bd cb 60 06 bd d1 12 64 bc
       -0.0644664 -0.04902192 -0.032807153 -0.013920502
000040 79 83 95 3c 4f 90 cd bc 7d a2 47 bd a7 87 18 3d
       0.018251168 -0.025093226 -0.048738945 0.037238743
000050 9f 1e b9 bc d1 18 55 3d bf cc 88 bd 98 16 c9 bc
       -0.02259761 0.05202562 -0.06679677 -0.024546906
000060 71 37 63 3d 1d 0c b2 bc 5e 5c 24 3d e3 79 b7 bc
       0.055472795 -0.021734292 0.04012715 -0.022396987
000070 91 48 dd bc 6c 50 21 3d 0c f1 d3 ba f3 e4 20 3d
       -0.027012141 0.039383337 -0.001616986 0.039280843
000080 b1 8b 5a bd 75 d7 3c 3d c9 7f 09 bd 26 09 8a bc
       -0.053355876 0.046103913 -0.03356913 -0.016850065
000090 fb 67 64 bc f1 e6 b4 ba bf d2 58 3c 29 2f 73 3d
       -0.0139408065 -0.0013801736 0.0132338395 0.059371147
0000a0 1c 2c 86 bc 02 a2 8b 3d bf 58 de bc 3a ec 84 bd
       -0.016378455 0.0681801 -0.027141927 -0.06490369
0000b0 41 44 82 3d 59 f7 30 3d 39 a4 be 3d ad 85 b1 bd
       0.06360675 0.04320464 0.09308667 -0.08668075
0000c0 87 5a 07 bd 33 95 93 bd 27 ee 81 bc 34 ce 55 3d
       -0.033045318 -0.07206192 -0.01586063 0.052198604
0000d0 61 dd f3 3c 37 5a 9b bc be e5 50 3c 47 27 88 3d
       0.029768648 -0.018963916 0.012750087 0.066481166
0000e0 f0 da ab b9 f8 f2 56 bb 7e 92 ae bc 30 d4 a0 3c
       -0.00032778783 -0.003279863 -0.021310087 0.019632429
0000f0 99 04 c8 bd 5b 7d f4 bc 79 a4 24 bd 8b 36 ee bc
       -0.09766502 -0.02984493 -0.040195916 -0.029078742
000100 b3 9b f4 3c 2b fe 90 3c ac 2c f7 3c ec 2b 3a 3d
       0.0298594 0.017699322 0.030172668 0.045452043
000110 93 8e b5 3c 7a f1 16 b9 06 08 2a 3d e5 0f b5 bd
       0.022162711 -0.00014395072 0.041511558 -0.08840922
000120 5d 2c 6c 3c 33 fe b5 bc 3c c4 30 bd 9a eb 2b bc
       0.014414874 -0.022215938 -0.043155894 -0.0104931835
000130 f0 2d 14 bb be d0 f0 bc 88 fd 88 bb 60 5a 9c bc
       -0.0022610389 -0.029396411 -0.004180614 -0.019086063
000140 cf 90 42 bd 82 63 18 bd a2 46 24 3c f6 4f 20 bd
       -0.04750138 -0.037204273 0.010026606 -0.039138757
000150 8a c1 5a 3c 9a 4a 24 bd 13 fc 71 bb 0e 0a f0 bc
       0.013351807 -0.040110208 -0.003692393 -0.02930167
000160 78 f3 9f 3b 5e 94 79 bc 24 1f f4 3c ee 6a aa bc
       0.0048813187 -0.015233127 0.029800005 -0.020802941
000170 35 17 1c 3d 5c 62 89 bd e2 f2 4b bd 8a 62 6d bd
       0.03810807 -0.06708214 -0.049792178 -0.057955302
000180 84 ec 43 bc 37 a0 13 bd 9c 03 c3 3c e5 67 3c bc
       -0.011958245 -0.036041465 0.023805432 -0.01149938
000190 30 ea 4c 3d 1d ff 77 3d 4d 82 18 bd e4 a8 ab 3c
       0.050028026 0.06054603 -0.03723364 0.020954557
0001a0 66 1c 28 3d 79 d2 83 bc 57 ff f6 3a fd f5 4a 3d
       0.041042708 -0.016091572 0.0018844408 0.049551
0001b0 33 b1 73 3c 54 2d c3 bc c3 31 2c bd de 5d ad bb
       0.014873791 -0.023825325 -0.042039644 -0.005290731
0001c0 c1 a9 c2 3c 4b eb c3 3c dd e8 68 3c 54 ca eb bc
       0.023762586 0.023915907 0.014215675 -0.028783001
0001d0 e4 b1 61 bc 5a 6f 2f 3d be 29 62 bd f5 5b 6c 3d
       -0.013775323 0.042830803 -0.05521559 0.057704885
0001e0 2b 8e be bb 61 78 54 bc 76 bf 9c 3d e6 11 c6 3c
       -0.0058152876 -0.012968154 0.07653706 0.024178457
0001f0 0e 31 54 3c df 7e 88 bd f0 62 d8 3b 65 95 ce bc
       0.012951149 -0.06664824 0.006603591 -0.025217721
000200 23 45 f0 bc 4d a4 22 bd fb 09 2b bd 1a 3a 33 bd
       -0.029329842 -0.03970747 -0.041757565 -0.04375658
000210 80 53 62 3c b5 5e 2f bc 00 96 fd 3b 12 bc 86 bd
       0.013813853 -0.010703732 0.0077388287 -0.0657884
000220 92 b8 7e bd 27 77 5b bd bc ea 42 3c 3b e8 33 3d
       -0.06218774 -0.05358043 0.011896785 0.043922644
000230 18 56 5d bd 19 80 bd bc f4 84 ea bc a3 8b 70 bd
       -0.054037184 -0.02313237 -0.02862785 -0.058726918
000240 e0 49 3a bd 03 86 09 3d ed 1f 31 bd 8a 99 47 3a
       -0.04548061 0.03357507 -0.043243337 0.00076141267
000250 15 eb 48 bd 81 10 82 bc 6f 2a 5d bd 1c 39 57 bd
       -0.049052317 -0.01587701 -0.053995546 -0.052544698
000260 0b eb c9 3c de 57 54 3c b9 e9 1e 3b 8c 4b 51 3c
       0.02464821 0.012960402 0.0024248196 0.012774359
000270 2e b1 d4 3c cd 0b 74 3c 9f c0 c9 bc 20 60 0c bd
       0.025963392 0.014895392 -0.024627982 -0.03427136
000280 d3 4e a0 3c b3 79 b6 3c 3b 1b b6 bc 78 76 61 3d
       0.019568836 0.022274828 -0.022229781 0.05504462
000290 d1 09 6a 3d 0d 88 8b bd 43 0e 1b bd 10 0d 85 bc
       0.057138268 -0.06813059 -0.037855398 -0.01624158
0002a0 79 d1 79 bd 91 0e 28 3d 53 2d a8 bc 90 64 6e bd
       -0.060990784 0.041029517 -0.020529425 -0.058201373
0002b0 dc 51 29 3b ce e6 8d bc 58 f3 50 3d 06 be fc bc
       0.0025836146 -0.01732197 0.05101332 -0.030852329
0002c0 e7 31 84 3d ff 8d 29 bd d1 51 3b 3c 32 4c 38 3c
       0.064548306 -0.041395184 0.011433081 0.011248635
0002d0 18 4a 55 3b 34 2e 62 bd ad 5c 4a bc 97 42 23 3d
       0.0032545384 -0.055219844 -0.012351197 0.039858427
0002e0 88 6f 24 3d 97 f9 96 bd 6d 06 63 bd 13 05 94 3b
       0.040145427 -0.07371824 -0.05542605 0.0045172065
0002f0 eb d8 a4 bc 33 90 0a 3c 7f 66 fc bb 99 16 19 3d
       -0.020122966 0.008457231 -0.007702648 0.037375066
000300 16 e6 06 bd ff 34 1b bd 86 5a 50 3d c6 7d 8d bd
       -0.03293427 -0.037892338 0.05086758 -0.06908755
000310 56 ed 80 3b f8 de 37 bd e6 24 26 bc 0b 61 c1 ba
       0.0039345426 -0.044890374 -0.010140633 -0.0014753653
000320 89 be 64 bc 2b fd 80 3c 37 da 3d bc a7 aa 46 3d
       -0.013961443 0.01574572 -0.011587671 0.04850259
000330 38 e3 40 3d ec de 1c 3a c6 71 17 3b b8 2e 09 3c
       0.047091693 0.00059841457 0.0023108586 0.008372955
000340 f5 e8 9d 3d af 62 8f 3b 93 95 5e 3d ef 83 55 bc
       0.07710449 0.0043757777 0.054341864 -0.013031944
000350 c8 59 88 bd 36 a5 05 3d 56 80 9f 3c c8 69 38 bd
       -0.066577494 0.03262826 0.019470375 -0.045022756
000360 ec 11 9c 3c 63 ef 71 3d ed 29 f3 3c 57 eb dc bb
       0.019051515 0.059066188 0.029683078 -0.006741922
000370 dc 19 1e ba bc 8f 88 3d 07 41 8a 3c 55 08 4c bd
       -0.0006031075 0.0666804 0.01687671 -0.049812634
000380 3d 73 f7 3c 52 b2 3b bd e3 17 78 bc fe a0 30 bd
       0.030206317 -0.045824356 -0.015142414 -0.043122284
000390 47 c4 54 3c 06 cd 03 bd 50 4d f6 bc 7e 60 68 3d
       0.012986249 -0.032177947 -0.030066162 0.056732647
0003a0 3a 88 1a bd df 64 f1 3b fe 6f b3 bc 85 1e c5 3b
       -0.037727572 0.007366761 -0.021903988 0.006015601
0003b0 bc a7 74 bd 4f 95 ff 3c 56 07 ca 3c 00 66 0c 3d
       -0.059730276 0.031199126 0.024661701 0.034276962
0003c0 48 a8 b8 bc b1 8a 10 3d 62 e0 17 bd 44 6a 47 bd
       -0.02254118 0.035288516 -0.037079223 -0.048685327
0003d0 45 9b 23 bd d0 03 0b 3b aa bd d2 3b a2 93 68 bd
       -0.039943 0.002121199 0.006431301 -0.05678142
0003e0 55 8a c1 3c 32 2b cc bc 26 6f 43 bb 91 79 86 bd
       0.023625532 -0.02492294 -0.0029820888 -0.06566156
0003f0 93 94 7d 3d 1e b3 92 3d 5f 83 2a bc 94 f2 19 bd
       0.06190927 0.0716307 -0.010407298 -0.037584856

conv2.0.bias f4 [32]
000000 23 e9 19 3d a4 c4 ed 3c 70 df 12 3c 30 fc cf bc
       0.037575852 0.02902443 0.008964404 -0.025388807
000010 ff c0 42 bc c3 ac 25 bc b0 fd 58 3c d5 e9 c8 bc
       -0.011886834 -0.01011199 0.013244078 -0.024525562
000020 40 88 c5 bb 0b 5d 0f bd af b1 a5 3a cb 08 84 bd
       -0.006028205 -0.035000842 0.0012641455 -0.064469896
000030 f2 7f 18 bd 20 da 02 bd 9b 9d b5 3a 77 84 e6 3b
       -0.037231393 -0.0319463 0.0013856174 0.007034834
000040 18 41 00 bd 23 e4 f9 bc 14 27 a1 bc b4 a6 f5 bc
       -0.03131208 -0.030504292 -0.019671954 -0.029986717
000050 5a 73 a7 bc 26 56 c1 bc 27 04 d2 bb 5d 3b 68 bd
       -0.020440746 -0.02360065 -0.0064091864 -0.05669724
000060 af d9 6a 3b d9 f0 f3 3a c4 47 1e bd 6f 38 1f 3c
       0.0035835316 0.0018611207 -0.03864266 0.009718045
000070 ca 64 ab 3c a0 39 59 3c df 65 d2 3b 7f 59 86 bd
       0.020922083 0.013258368 0.0064208354 -0.06560039

conv3.0.weight f4 [64, 32, 5, 5]
000000 28 ba da bc d1 39 24 bd 9f 9b 87 bc 9d 60 18 3a
       -0.026700094 -0.0400942 -0.016553698 0.00058127363
000010 a9 2b cf 3c e7 da 27 bb 85 ab b6 3b cb 81 f3 bc
       0.025289373 -0.0025612654 0.005574646 -0.029724976
000020 15 13 24 bc a1 b5 bc 3c da d4 a8 bc b0 53 e2 bc
       -0.010014315 0.023035826 -0.020609308 -0.027627796
000030 e0 db 2d 3d 69 90 50 bb bd 7a a2 ba 26 e0 81 bc
       0.042446017 -0.0031824356 -0.0012396198 -0.015853953
000040 88 5e f2 bc 73 46 ee 3b c9 cc df bb d7 62 30 bc
       -0.029586092 0.007271582 -0.006829832 -0.010765753
000050 ce e7 87 bc 83 97 bb 3b 6b 80 d9 bc 5e 6b dc 3c
       -0.016590025 0.0057248487 -0.026550492 0.026906665
000060 7d 85 0f bd 2a b9 63 bc 75 bc 72 3c 5c 4a 21 bd
       -0.035039414 -0.013899127 0.0148154395 -0.039377555
000070 aa 98 19 bd 07 85 23 bd 3a ff a9 3c 1c 4c 93 bc
       -0.037499107 -0.039921787 0.020751584 -0.017980628
000080 dd 11 b1 bb 21 f4 e2 bc 59 1e fa b8 08 f4 58 3c
       -0.005403741 -0.0277043 -0.00011926582 0.013241775
000090 1a ed c5 bb 4f ba 27 bd 05 67 83 bc 55 0c 18 3b
       -0.0060402276 -0.040949162 -0.016040334 0.002320071
0000a0 bf 6e d5 bc fa 6b 6e 3c 70 a1 25 39 c4 62 13 bd
       -0.026053784 0.014552111 0.00015795766 -0.035982862
0000b0 54 84 af bb 94 c5 e8 bc a0 aa 8e bc d8 ab 29 bd
       -0.005356351 -0.028414525 -0.017415345 -0.04142365
0000c0 22 98 2f bd 1c 38 2f bd a6 b1 d5 3c 38 37 39 3c
       -0.042869695 -0.04277812 0.026085686 0.011304669
0000d0 51 76 1f bd 50 4a 83 bc b0 82 87 3b 4b a1 f4 bc
       -0.038931195 -0.016026646 0.004135452 -0.029862067
0000e0 0c 6a 6c 3c 34 68 ca 3a 71 4f 24 bc e9 5b 4c bb
       0.01442958 0.0015442432 -0.010028706 -0.0031182712
0000f0 bf 84 6c 3c dd b9 87 bc af 54 67 bc 85 b5 07 bd
       0.014435946 -0.016568119 -0.014119311 -0.033132095
000100 ee 25 c8 3c d6 52 1f 3b 52 40 50 3c c9 b6 27 bd
       0.024432149 0.0024310849 0.012710648 -0.040945802
000110 57 51 3f 3c e0 41 f2 3c c1 c2 98 bc 4c 0b 0b bd
       0.011677108 0.029572427 -0.018647553 -0.03394632
000120 d7 47 69 bb 16 3b 1e 3d ac a1 ad 3c da 27 93 3c
       -0.0035595798 0.038630567 0.021195255 0.017963339
000130 32 31 fd bc a4 5f 1f bd 71 38 08 bd 22 50 b9 bb
       -0.030907247 -0.03890957 -0.03325695 -0.0056553045
000140 7d 07 f2 bc 06 d6 1a bc 6d a2 53 bc 1b 92 b3 3b
       -0.029544586 -0.009450441 -0.012917143 0.0054800636
000150 c6 3c b4 3b 17 cd f3 bb 5a e1 c5 bc 2a a1 a7 bb
       0.005500409 -0.00744022 -0.024155308 -0.005115648
000160 c9 46 b1 bc 92 50 d4 bc 3a b4 b6 3c 42 79 5d bc
       -0.021640198 -0.025917325 0.022302736 -0.01351768
000170 18 6e fd bb ad 6d e0 bc bb 20 d4 bc 7c 8b d4 bb
       -0.0077340715 -0.027396047 -0.025894513 -0.0064863544
000180 fa 0c e5 bc ee d0 a2 3c 47 be 02 bc 62 85 85 bc
       -0.02796029 0.019875016 -0.007979936 -0.016298953
000190 96 2b a3 3b 19 a9 09 bc 31 9c 00 3d a8 84 5d 3c
       0.004979561 -0.008402132 0.031398956 0.013520397
0001a0 8e 9e 98 3b 87 72 1d bc 20 3b 9b 3c 8d 9e 12 bd
       0.004657573 -0.009609825 0.018949091 -0.035795737
0001b0 f9 ed b4 3c 2f af 71 bb dc f0 ac 3c a3 8b 3f 3b
       0.02208613 -0.00368781 0.021110944 0.0029227517
0001c0 05 fb 93 bc 7d d8 47 3c 72 d4 92 bc bf ca 09 3d
       -0.018064031 0.012197611 -0.017923567 0.03364062
0001d0 7e 92 dd ba af cd be 3b 42 b5 12 3c 26 f9 24 bd
       -0.001690462 0.0058228592 0.008954348 -0.04027667
0001e0 ee b1 61 3a 85 ae 03 3c f0 ad 56 bc 8d 35 34 3c
       0.00086095824 0.008037214 -0.013102993 0.010999096
0001f0 9f 99 b4 3c ed 86 f5 3b fa d4 44 3c 88 d1 94 3c
       0.022045908 0.007492891 0.012013668 0.018166319
000200 b0 ef 8d ba 1f 96 a7 3c f3 d5 04 bd 20 01 e2 3c
       -0.0010828879 0.020457326 -0.0324306 0.027588427
000210 cb a7 2e bb 34 6a 4d bc 58 16 f4 3c d7 87 ef 3c
       -0.0026650305 -0.012537528 0.02979581 0.029239578
000220 e0 42 9d bc ac 2a 1d bd 35 de 1f bc 78 d8 5e bc
       -0.019196928 -0.038370773 -0.009757568 -0.013601415
000230 bc 8e 79 bb c5 f2 7c bc 3e 3d 8a 3c ea 47 e2 bc
       -0.003807946 -0.01543874 0.016874906 -0.027622182
000240 05 d8 c4 bc d2 dc 87 3c 28 b0 ad 3c d4 06 14 bc
       -0.024028787 0.016584788 0.021202162 -0.009034831
000250 19 b2 b8 bc 16 26 99 3c 73 62 ff 3b 0a ab c3 bc
       -0.022545861 0.018694919 0.0077937185 -0.023885269
000260 d7 e2 22 bd 44 0c c0 bc a5 07 96 3c 74 6b 0a bd
       -0.039767113 -0.023443349 0.018314192 -0.03379388
000270 16 df a3 3a 23 c0 9c bb 81 fe 31 3d 65 27 a9 bc
       0.0012502398 -0.0047836467 0.043455604 -0.020648668
000280 42 84 1b bc e0 9d a1 bc 52 e1 b1 3c 0e 09 9f 3c
       -0.009491982 -0.019728601 0.021713886 0.019413497
000290 3a fa 17 bd 70 24 dc 3c 3b d0 b7 3c 74 3c eb bb
       -0.03710387 0.026872844 0.02243816 -0.0071788374
0002a0 48 cc 1b 3d 5e 10 68 bc 29 f4 bd 3c 7a 12 e5 3c
       0.038036615 -0.0141640585 0.023187714 0.027962912
0002b0 68 a5 23 bc b2 40 1a 3d bb 0d 05 bd ab c3 49 bc
       -0.009988166 0.037659355 -0.032483798 -0.012314717
0002c0 30 a0 2d bd f1 e1 87 bc 67 4a 33 bc ae 69 10 bd
       -0.042389095 -0.01658723 -0.010943032 -0.035257034
0002d0 22 2a c1 bc 5f a1 ab bc b4 20 a7 3a 84 8c 99 bc
       -0.02357966 -0.020950971 0.0012750835 -0.01874376
0002e0 d7 aa c0 39 e5 0f de 3c 45 af b9 3c 94 33 d8 ba
       0.0003674838 0.027107188 0.022666583 -0.0016494864
0002f0 08 8d 0a bd 05 ba a1 3b 60 d0 33 bc 11 72 00 3c
       -0.033825904 0.0049355053 -0.010974973 0.007839696
000300 60 be c2 3c 76 00 f6 3b 3f 1a 00 3c 32 77 2c bd
       0.023772418 0.007507379 0.007818758 -0.04210586
000310 26 88 bf bb 66 b5 f1 bc 9a a8 89 bc 8f 4d 48 bb
       -0.0058450876 -0.029505443 -0.016804028 -0.0030563807
000320 1b 07 a5 3c 8f 36 5a 3a 27 49 68 3c 12 ae 06 bd
       0.02014499 0.000832417 0.014177597 -0.03288085
000330 61 08 85 3b 46 45 a2 3c 40 4a 2d bc e0 2e c3 3b
       0.0040598367 0.019808423 -0.010576785 0.0059565157
000340 8f ac de 3a 35 36 75 3b 70 91 da bb 87 2d 14 bd
       0.0016988682 0.0037416343 -0.0066701695 -0.03617623
000350 22 89 96 bc 83 f2 d8 bc b5 53 eb bc 88 10 82 3c
       -0.018375937 -0.026482826 -0.028726438 0.015877023
000360 a7 81 02 bd e8 0a 2c bd 08 b8 a9 bb 3f aa b0 3c
       -0.031861927 -0.04200259 -0.005179409 0.021565555
000370 33 4c 96 3c 93 ed b0 3c ee 75 71 3c 6e 80 d8 bc
       0.018346881 0.02159766 0.014737589 -0.026428428
000380 e2 b3 8a bb 1f 02 cd 3c 94 7f 84 3c e7 c2 c8 3c
       -0.0042328695 0.025025425 0.016174115 0.024507
000390 e3 e4 db 3c 87 b2 b3 3c e4 b5 93 bc 53 dd 92 bb
       0.02684254 0.021935714 -0.018031068 -0.0044819503
0003a0 c0 13 cc 3c 26 76 5a 3b cc 6b 32 bc 0d 39 ed 3b
       0.024911761 0.0033334582 -0.010889959 0.007239467
0003b0 76 87 70 bc bb eb 38 bc a1 ce 11 bb 97 3d 0c bd
       -0.014680734 -0.011286671 -0.0022248405 -0.034238424
0003c0 cf 87 bf 3c f6 84 33 3c ae 6a 05 3b e2 2f 8a bc
       0.023380188 0.010956993 0.0020357776 -0.016868535
0003d0 90 47 cb bb 3e 91 a4 bc 96 71 6f bb 29 a2 bb 3c
       -0.0062035993 -0.020088788 -0.0036536208 0.022904472
0003e0 3e 2c b9 bc ec 1f bc 3b 99 64 ea 3c d0 ac ee bb
       -0.022604104 0.00574111 0.028612422 -0.0072837844
0003f0 97 4a aa 3b 13 1f df bb bf d2 24 3c ff a4 7d bc
       0.00519688 -0.0068091243 0.010060011 -0.015481233

conv3.0.bias f4 [64]
000000 c4 36 ee 3b 98 4c 91 bc f4 c6 5c 3c 5a 6c 16 3d
       0.007269712 -0.017736718 0.0134751685 0.036724426
000010 90 45 85 bc ca 46 4c bc a7 c8 2e 3b 54 a7 af 3c
       -0.016268522 -0.012468049 0.002666989 0.021442093
000020 c1 13 a9 bc cf 8f 4a 3c 11 95 38 3c f8 70 27 bc
       -0.020639302 0.012363388 0.011266009 -0.010219805
000030 e4 a0 2d 3a 39 ab 98 3b bf f6 dc bc b9 86 05 bd
       0.0006623401 0.004659083 -0.026973126 -0.032599185
000040 cf de 06 bd 79 6d a6 ba 90 14 27 3b 40 24 d8 39
       -0.03292733 -0.001269742 0.0025494434 0.0004122574
000050 a5 77 05 bd 38 c3 ba bc 6d f4 d5 bc 73 72 29 bc
       -0.032584805 -0.022798166 -0.026117528 -0.010342228
000060 3d 07 4d 3c ec bb 5b 3d 98 43 cd bc aa fa fb 3c
       0.012513933 0.053646013 -0.025056645 0.030759174
000070 e0 4f c9 3c 36 ea e8 3c 24 fa 08 3c a5 9c d4 bb
       0.02457422 0.028431993 0.008360419 -0.0064884
000080 0f 69 c3 bc a5 39 5f bb 4e a8 40 3c 2b 77 39 3c
       -0.023853807 -0.0034061458 0.011758877 0.011319916
000090 48 80 5c bc 6a 31 d0 3c 93 31 a3 3c 50 91 8b bc
       -0.013458319 0.025414187 0.0199211 -0.017037064
0000a0 23 11 0e 3c 66 d6 95 bc 4b 4a 14 3d ff c2 ba 3a
       0.008671078 -0.01829071 0.036203664 0.0014248787
0000b0 b0 2b ba bc af 85 09 bd 38 47 9e bb 3d 7e be bc
       -0.02272591 -0.033574756 -0.0048302673 -0.023253554
0000c0 6d 21 85 bb 72 97 88 bc ac d9 09 3d e4 09 c5 3b
       -0.0040628226 -0.016673777 0.033654854 0.006013142
0000d0 73 71 80 3c e0 2c 93 bc 89 6e 3b bb c9 53 cd 3c
       0.015679097 -0.017965734 -0.002859982 0.025064366
0000e0 1c cb 1f 3d 05 7a c9 3c 09 f5 af 3c 40 00 bb 3c
       0.03901206 0.024594316 0.021479147 0.022827268
0000f0 a4 88 11 3b 71 24 3a 3b 98 ab 28 bd 5d df a4 3b
       0.0022206688 0.0028403068 -0.04117927 0.00503151

fc_out.0.weight f4 [1024, 64]
000000 15 e5 e7 3d 09 eb cf 3d e8 bd b6 bd 22 60 ba bd
       0.11322991 0.10152251 -0.089229405 -0.09100367
000010 ea 6e e3 bd 96 49 5a 3d fc 89 a5 3d c2 da c2 3d
       -0.111051396 0.053292833 0.08082959 0.09514381
000020 1a 25 61 3d b4 9f d8 3b f1 c3 0b 3d e9 8c c9 3d
       0.054967023 0.006610835 0.03412241 0.098413296
000030 2f 4d 05 3e af 8f 9b bd 58 3d 72 3d 57 e4 87 bc
       0.13017724 -0.07595765 0.059140533 -0.016588373
000040 b2 1f b4 bc e7 49 b6 3d 2c 88 d6 3d 4f 35 63 3d
       -0.02198777 0.089008145 0.104751915 0.05547076
000050 4d 32 a9 3d 91 f4 f2 3d 30 96 c2 bc 35 5c cf bc
       0.08261547 0.118630536 -0.023753256 -0.025312522
000060 86 0c 9e 3d 89 a3 ce 3d d0 b5 c7 3d 9a 01 6e 3d
       0.077172324 0.100897856 0.09751475 0.058106996
000070 80 de 81 3d 3e 2b 24 bd d2 c8 e2 3d e1 26 82 3d
       0.06341267 -0.0400803 0.1107346 0.06355072
000080 99 ef c4 3d 06 86 48 bd 9e 8a 32 bd 95 76 b2 3c
       0.09616012 -0.04895594 -0.043589227 0.02178506
000090 e4 6b c7 bd fa f7 a6 bb 96 0b 4d 3d 1e bd 59 3d
       -0.097373754 -0.005095479 0.050059877 0.05315887
0000a0 f5 ad d8 3a c9 e1 de bd 4b 15 cf bd e7 dc 77 3b
       0.0016531335 -0.10882909 -0.10111483 0.0037820877
0000b0 91 4d 26 bd 58 81 1a 3d ca 5c d2 3d 71 04 51 3c
       -0.040601317 0.037721008 0.10271604 0.012757407
0000c0 1f 1a 01 bd fe 2d f7 bc 9a e8 24 3e bf e8 15 bd
       -0.03151905 -0.030173298 0.16104355 -0.036598917
0000d0 83 b7 07 be 39 9a ea bc 8e 91 f7 bd 4c c9 71 bd
       -0.13253598 -0.028637992 -0.12088309 -0.059029862
0000e0 d1 09 6c 3d d3 37 e7 3d 8c 64 95 3d e0 fe 81 3d
       0.05762655 0.112899445 0.072945684 0.06347442
0000f0 b9 bb 81 3c e9 c7 4f bd 0b c9 9f 3d ed 97 c0 bc
       0.015836583 -0.05072776 0.07802018 -0.023509944
000100 0e ef ec 3d 36 ac b3 3c 13 d7 84 3d a0 fe c4 bd
       0.115690336 0.021932703 0.06486335 -0.09618878
000110 5f e6 80 bd 3b cb 28 3c 5d cc 19 be d3 78 29 3c
       -0.0629394 0.01030236 -0.15019365 0.010343748
000120 96 d3 0a be cf 9c 02 be cd ce b1 bd 0b d4 2e bd
       -0.13557276 -0.1275513 -0.08682022 -0.04268269
000130 99 09 19 be 64 66 bf bc ef df c7 bb b7 73 aa bd
       -0.14945067 -0.023364253 -0.006099693 -0.08322852
000140 0a 6a 23 3c 95 ea d9 bc 08 d0 d8 3d 80 33 42 bd
       0.009974012 -0.026601115 0.10586554 -0.047412395
000150 7c 01 81 bd 8f e9 50 bd d4 91 4d bd d3 8a a5 bb
       -0.06299111 -0.05100399 -0.0501879 -0.0050519495
000160 30 71 f3 3d b5 46 c1 bd b1 ca dd bd 43 66 f1 3d
       0.11886823 -0.094373144 -0.10829676 0.11787083
000170 60 e5 b8 bd be d2 35 3c 04 74 9c 3d e5 fe 48 3d
       -0.09028125 0.011097608 0.07639316 0.04907121
000180 ef 7e b0 3d d8 09 c0 bc bd 4f ce 3d 75 86 b3 bd
       0.08617961 -0.023442194 0.100738026 -0.0876588
000190 71 1f 00 bd 04 93 9d 3c 36 0f f9 3d 7e b5 db 3d
       -0.031279985 0.019235142 0.121611044 0.10727976
0001a0 49 f1 db 3d 3f 18 c5 bd 17 6a ae bd ef 91 ee 3d
       0.10739381 -0.09623765 -0.08516329 0.116489284
0001b0 e2 44 8b 3d 50 8f b5 3c a2 e4 e7 bd b0 a6 07 be
       0.06800248 0.022163063 -0.11322905 -0.1324718
0001c0 28 a4 f8 3c a4 e8 82 bd cd 89 84 bd fc 9f ce 3d
       0.030351713 -0.06392029 -0.06471596 0.10089108
0001d0 9b 4f 16 3e 01 93 3f 3d b8 2f 6e 3d da 9e ea 3d
       0.14678805 0.046771053 0.058150977 0.1145608
0001e0 74 34 b7 3d 26 e8 5a bc a9 95 88 3d 8a 76 8f 3c
       0.089455515 -0.013361013 0.066691704 0.017512579
0001f0 4f e2 db bc af 09 ac bd eb 63 85 3d 72 43 7c bc
       -0.02684131 -0.084002845 0.065131985 -0.01539694
000200 09 57 0a 3d e7 cc d0 3d 93 9d 81 3d f6 7b 31 bc
       0.03377441 0.10195332 0.06328883 -0.010832777
000210 5a bc 03 3e 88 81 e7 bd 60 04 a5 bd 31 c7 dd 3d
       0.12864819 -0.11304003 -0.08057475 0.10829008
000220 d1 6d 23 3d 96 7c 7a 3c 1c 9d e6 bd a1 8b b4 bd
       0.03989965 0.015288493 -0.11260435 -0.088156946
000230 50 e8 ab 3c 49 ef a2 bd 13 bd 5d bd 5f 5f e8 3d
       0.020984799 -0.07955796 -0.054135393 0.113463156
000240 17 1e 18 bd 2b df be bd 0b aa 33 bd 1e 8d f9 bd
       -0.03713807 -0.0931991 -0.043863337 -0.12185119
000250 fb c6 f3 bc 8c 58 ed 3d 88 76 3b bd 83 df e2 bd
       -0.029757967 0.115891546 -0.045767337 -0.11077788
000260 62 2b 96 bc 1c 72 0a 3d c0 d9 99 bd 3d 60 b2 bd
       -0.018331233 0.03380023 -0.07512236 -0.08709762
000270 ad 17 bf bc 99 8d 5c bd 14 9f f3 bd a4 df b9 bd
       -0.02332672 -0.053845976 -0.11895576 -0.09075859
000280 0a ba 6d bd c5 82 ce bd c4 34 9f bd 19 b0 cc 3c
       -0.05803875 -0.10083536 -0.07773736 0.024986314
000290 23 84 2f bd 28 65 db bd 86 1a cd 3d 84 fc c2 bd
       -0.042850625 -0.107126534 0.100148246 -0.0952082
0002a0 bd 56 16 3d c8 bc 8b bd 0d 73 10 3e f1 b3 13 bc
       0.036703814 -0.068231165 0.14106388 -0.009015069
0002b0 20 08 af 3d af bc b7 3d 2f 36 d3 3d 28 7c 8b 3c
       0.085464716 0.089715354 0.10313069 0.017026976
0002c0 74 7c c1 bd 29 e4 41 3d 75 d9 c1 bd ae ca bc 3d
       -0.09447566 0.04733673 -0.09465305 0.092183456
0002d0 75 61 b9 bc 16 5f 8c 3d 69 1f 8b bd f4 73 98 3c
       -0.022629479 0.06854074 -0.067931004 0.018609978
0002e0 3c 12 8c bd 3d 14 42 bc af e0 33 bd 49 2c f5 3c
       -0.068394154 -0.0118456455 -0.043915447 0.029928343
0002f0 24 6a b5 bd cd 6b d6 bc 1f 8a 87 bd e1 a6 ca bd
       -0.08858135 -0.02617445 -0.066181414 -0.09895111
000300 85 dd b2 3d 58 66 05 bd 75 b0 25 3d 39 50 ab bc
       0.08733658 -0.032568306 0.040451486 -0.020912277
000310 d0 b5 d2 bc 49 50 e5 bd a0 e1 41 bd 70 21 3f 3d
       -0.02572146 -0.11196954 -0.047334313 0.046662748
000320 30 bb 17 3b 44 85 aa 3b fb 17 64 3d a7 10 95 bd
       0.0023152344 0.005203875 0.055686932 -0.07278567
000330 73 43 de bd a4 7a 66 bd d7 e2 a8 3d 31 58 ec 3d
       -0.10852709 -0.056269303 0.08246391 0.11540259
000340 db 61 d6 bd b9 6d ee 3d 42 af bd bc 05 37 9a 3c
       -0.10467883 0.11642022 -0.023154858 0.018825063
000350 1b 41 03 be cc b4 d4 3c 14 5c db bd db 75 ef 3c
       -0.12817805 0.025965117 -0.10710922 0.029231003
000360 10 78 39 3d ef 74 d7 bc 86 be a7 bd b8 36 ee bc
       0.045280516 -0.026300875 -0.08190636 -0.029078826
000370 6c 49 85 bd 17 2f a5 bd f9 ff 58 bd 55 3a 60 3d
       -0.06508145 -0.08065622 -0.05297849 0.05474313
000380 5a 07 a1 bc bc aa b9 bd a3 5a d7 bd 4c 95 68 3d
       -0.019656826 -0.09065768 -0.105153345 0.056783006
000390 c2 96 99 3d b3 48 f1 3d 07 b3 8f 3d 7f 56 a6 3d
       0.07499458 0.117814444 0.07016569 0.081219666
0003a0 02 f1 a1 bc 15 c3 a9 3d 72 9b 9c bb e6 0d 09 bc
       -0.019768242 0.08289162 -0.0047792727 -0.00836513
0003b0 06 ca ea 3d 93 f5 32 bb a8 df 8a bd 76 2a 8a bd
       0.11464314 -0.0027307018 -0.0678094 -0.0674638
0003c0 87 82 99 bd e6 11 f1 3d 5a b0 b2 3b 07 51 89 bd
       -0.07495599 0.11770992 0.0054531517 -0.06704908
0003d0 5b 71 57 3c a0 f8 65 3d 0a 9a a1 3d 1a 01 63 3d
       0.013149585 0.05614531 0.07890709 0.055420972
0003e0 0f d3 b7 bd 7e 15 c4 3d b5 d6 ec bc 58 c7 dd bc
       -0.08975803 0.09574412 -0.028910974 -0.027072594
0003f0 cf 7a 3e bd 15 38 00 3d 65 46 81 bd 63 6a b5 bd
       -0.04650384 0.031303484 -0.06312255 -0.08858182

fc_out.0.bias f4 [1024]
000000 37 7f c3 3b 2c 57 f4 3d d0 9b 24 3d b8 9e 8f 3d
       0.005966093 0.11930689 0.040187657 0.07012695
000010 10 48 54 3d f9 bf 8d bd 5f f0 3a bd bc b8 8d 3d
       0.051826537 -0.069213815 -0.045639392 0.06920001
000020 5f ef a9 3d 6f 0a 07 bd 57 e1 ca 3d 4f e5 61 3d
       0.082976095 -0.032968935 0.099062614 0.055150326
000030 e0 f9 9e 3d a1 b0 89 bd 9f 13 a9 3d 39 48 90 3d
       0.077625036 -0.067231424 0.082556956 0.070450254
000040 99 fe 2f bd 89 7c d0 3d e8 ff ea 3c 61 88 b0 3d
       -0.042967413 0.10180003 0.028686479 0.08619762
000050 ea 1f de ba b9 88 fa 3d 62 55 81 3b b1 d0 d9 3d
       -0.0016946767 0.12233109 0.003946946 0.10635508
000060 fe 50 fa 3d 90 56 c5 3c 4f 4f e7 bd f0 6b 28 bb
       0.12222479 0.024089128 -0.11294424 -0.0025699101
000070 ee b9 80 3d a5 cc e1 bd 9e 34 b1 bd 06 d8 c4 bd
       0.06285463 -0.11025361 -0.08652614 -0.09611516
000080 91 6c d1 3d 1f e5 80 bd 8f 39 b3 bd 11 7d a8 bd
       0.102257855 -0.062937014 -0.08751213 -0.082269795
000090 45 c1 8d 3d 1e ec fc 3d f8 af fd 3b e7 54 a2 3d
       0.06921629 0.12349723 0.0077419244 0.0792635
0000a0 42 5c ce 3d 1f fa dd 3d df 7f 32 3d 63 ac 43 3d
       0.100761905 0.108387224 0.04357898 0.047771823
0000b0 45 3e 2a bd 7f f9 6b bd 32 dd 97 3d b0 5a 5b 3d
       -0.04156329 -0.057610985 0.074152365 0.053553283
0000c0 5e 2b 1a 3e c8 ed 77 3d bb 07 d3 bd 64 7e 35 3c
       0.15055606 0.0605295 -0.10304209 0.011077497
0000d0 6f 31 b6 3d 10 6c 7a 3c bb 55 fa 3c d0 aa a0 3d
       0.088961475 0.015284553 0.030558458 0.0784508
0000e0 c0 e5 a3 3d 6b 9d ca 3d 09 26 25 3d ac 59 47 bc
       0.08002806 0.09893306 0.040319476 -0.012167376
0000f0 9b db 01 3c f3 4a c3 3d dc 5a c3 3d 32 19 12 bd
       0.007925893 0.0953578 0.095388144 -0.03566856
000100 55 6b 8b bc bb 1f c7 3b 23 60 98 3c a9 a0 9a bd
       -0.017018953 0.0060767806 0.018600529 -0.07550175
000110 64 bc ee bc 4a c6 9e bd 26 bc 6b bd be c0 ac 3d
       -0.029142566 -0.077526644 -0.05755248 0.084352
000120 73 dc 92 bc c7 b5 e9 bd d4 1c 7c 3d 78 66 a8 bd
       -0.017927384 -0.114116244 0.06155093 -0.08222669
000130 e2 fc d9 3d d4 a9 a9 bc 24 6e e6 3d b6 74 a1 bd
       0.10643937 -0.020710863 0.112514764 -0.07883589
000140 62 8f 49 bc 82 2e d6 3c 03 52 85 3d c5 37 e4 bd
       -0.0123022515 0.026145224 0.06509783 -0.1114345
000150 de 67 ae 3d 88 8f 4c 3d 19 1f a7 bc 5d d7 a6 3d
       0.08515905 0.04994157 -0.02040057 0.08146546
000160 25 02 bd bd 26 74 90 3d 61 df f5 bd 85 e4 76 3d
       -0.09228925 0.070534036 -0.12005497 0.060276527
000170 48 12 a3 3d 26 31 8e 3c 0e 2b c4 bd 78 59 5e 3d
       0.07962471 0.01735742 -0.095785245 0.054284543
000180 db 1b b5 bd c0 97 06 bd b2 43 fb 3d 77 3e eb 3c
       -0.08843204 -0.032859564 0.12268771 0.028716309
000190 e9 a4 a4 bd 68 05 26 3d d8 d0 ef 3d 21 ac a8 bd
       -0.080392666 0.0405325 0.11709756 -0.08235956
0001a0 e1 7a bd 3d 88 d0 bc 3d a0 9b 34 bd 13 8a c9 3d
       0.09251953 0.09219462 -0.044093728 0.09840789
0001b0 26 7e 36 bd e2 71 1c 38 22 53 c9 3d b9 ee 09 be
       -0.0445539 3.729936e-05 0.098303095 -0.13469972
0001c0 e4 c4 0c be 59 3c b5 3c b2 6a 41 3d ae 38 fa 3d
       -0.13746983 0.022123503 0.047220893 0.12217842
0001d0 18 b3 41 bd 6d 4c d1 3c 34 18 e7 bd a0 7d 3e bc
       -0.047289938 0.025549138 -0.11283913 -0.011626631
0001e0 34 40 80 3c e9 c8 5b bc bf bf cb bd c2 ce 8e bc
       0.015655614 -0.0134146 -0.09948682 -0.017432574
0001f0 0a 90 c6 3b 55 a2 98 3d d7 21 c9 3d b5 0f ca 3d
       0.0060596513 0.074528374 0.098209076 0.09866277
000200 24 e9 dd 3d e9 3d 7e bd dd aa 0a bd 97 b5 f1 3d
       0.10835484 -0.06207076 -0.033854354 0.11802214
000210 53 5c eb 3d 6c ab 4a 3d c0 df ee 3d 6e 5b f8 bd
       0.11492219 0.049479887 0.11663771 -0.12126814
000220 51 20 37 bd ab 76 b3 3d 28 88 a7 bd ef 6f 9f bc
       -0.044708554 0.087628685 -0.081802666 -0.019462554
000230 ba 74 d2 3d b7 20 33 bc 09 58 e7 3d 68 b7 39 bd
       0.1027617 -0.010933093 0.11296088 -0.045340925
000240 c1 9f ec 3d d3 ae 10 bd dc 18 75 3c 9b d8 e5 3d
       0.11553908 -0.035322975 0.01495954 0.11222955
000250 09 12 59 bd 99 ab 16 3c 43 96 83 bd 63 ed b9 bd
       -0.052995715 0.0091961855 -0.064251445 -0.09078481
000260 28 c9 9f 3d 59 cd 0c 3e f5 41 c3 bd 40 0c 7b 3d
       0.078020394 0.13750209 -0.09534065 0.06129098
000270 81 bf 19 bc f6 0a 0b 3e 6e f0 06 bd 58 d4 58 bd
       -0.009384037 0.135784 -0.032944135 -0.05293688
000280 8d 02 27 bd 6f b1 0f 3d 58 48 d9 3d 0a 1b c3 bd
       -0.040773917 0.035081323 0.106095016 -0.09526642
000290 71 95 a6 3d 22 db 54 3d 9a 24 94 bd 20 07 76 3d
       0.081339724 0.051966794 -0.07233544 0.06006539
0002a0 b4 93 37 3c 16 59 b7 bd 1e db 97 bd 91 95 2e bc
       0.011204649 -0.08952539 -0.0741484 -0.010655777
0002b0 07 e7 ee bd 84 07 bd 3d 28 2b b5 bd 8d 13 e3 3c
       -0.11665159 0.09229949 -0.08846122 0.027719283
0002c0 9b 34 9c 3d 54 98 38 3d ef f2 81 3d 47 d6 ed bd
       0.07627221 0.045067146 0.06345164 -0.11613136
0002d0 45 98 ec 3d 8a b6 1f 3d 4a 6e bf 3d 0c c2 98 3d
       0.115524806 0.038992442 0.09347208 0.074588865
0002e0 c5 80 8e bd 48 52 3b bd 2f 8a f4 bd e4 4b 64 bc
       -0.069581546 -0.045732766 -0.11940419 -0.013934109
0002f0 a4 d4 03 be 3f 6b 91 bc 12 49 e8 bc b5 08 a3 bc
       -0.12874085 -0.017751334 -0.028355155 -0.019901613
000300 6e 4e b7 3d 2f 95 eb 3c 09 e2 ae bc 99 96 36 bd
       0.08950506 0.02875766 -0.021348016 -0.044577215
000310 88 7c e7 3d f9 e8 bb 3d 8f 2d 2a 3d 4b 85 b6 3c
       0.11303049 0.091752954 0.041547354 0.022280356
000320 5d df d4 3b 5e fb 44 3d 4f d5 2a bd 2a 02 bd bd
       0.0064963535 0.048091285 -0.041707333 -0.092289284
000330 dd 96 fa bd da 9d 05 3e 1f aa 04 3e f6 de c4 bd
       -0.12235806 0.13048497 0.12955521 -0.09612839
000340 70 e5 a8 bd d4 eb f4 3c 09 fb 0d bd aa ec ca 3d
       -0.08246887 0.029897608 -0.034663234 0.09908421
000350 4e 10 47 3d 5c 66 b9 bd f0 c3 c3 bd ef 53 20 3d
       0.048599534 -0.090527266 -0.095588565 0.039142545
000360 c7 da cf 3d 93 6a ba bb 65 af a5 bd a8 5b d1 3d
       0.1014915 -0.005688974 -0.080900945 0.1022256
000370 cb 84 c8 3d f6 0b ba 3d a8 c1 18 3d 44 a2 21 bc
       0.09790953 0.090843126 0.03729406 -0.009865347
000380 77 a4 04 3e 71 c6 ce bd 51 a7 dd 3d 52 f4 bf bd
       0.12953363 -0.100964434 0.10822929 -0.09372772
000390 ce 32 88 3d 74 22 c4 bb b4 37 fe 3c 7a 56 88 3d
       0.06650315 -0.0059855524 0.03103242 0.06657119
0003a0 05 66 bb bd 42 71 96 3c 69 50 62 3c a5 f1 40 3d
       -0.09150318 0.018364552 0.013813117 0.04710545
0003b0 9f f3 88 3d a1 f5 d4 3d 40 f2 be 3d 9a 02 7b bd
       0.06687092 0.103984125 0.09323549 -0.061281778
0003c0 ec 9a 4a bd 30 51 9e bc b4 11 1d 3d 13 36 ae 3d
       -0.04946415 -0.019325823 0.03834696 0.085064076
0003d0 be c4 e6 bd 04 24 54 3d e9 6a 7b bd 61 b2 7d bd
       -0.11267994 0.05179216 -0.061381254 -0.061937694
0003e0 ac a4 bc bd f4 6f e5 3d 82 f5 94 3d e5 55 ac bb
       -0.09211096 0.11202994 0.072733894 -0.005259263
0003f0 fb be 84 bd eb 7a 9b 3d 32 73 37 3d 35 86 de 3d
       -0.06481739 0.07591804 0.044787593 0.10865442

fc_out.3.weight f4 [8, 1024]
000000 41 8f 2b ba fd 0f aa 3c df de f8 3b 29 7d 8a 3c
       -0.0006544479 0.020759577 0.0075949277 0.016905384
000010 ac cf 8c bd 1f 94 1f bd 8b 60 06 3c fb 59 9c 3c
       -0.06875548 -0.03895962 0.008201729 0.019085875
000020 33 d5 4c 3c dd 06 03 3d 4d 4f 29 3b 3d c3 eb bc
       0.0125020025 0.031988967 0.002583462 -0.02877962
000030 a7 b3 16 3c db fc e1 bc 77 aa ab bc 86 f9 bf 3c
       0.009198106 -0.027586391 -0.020955307 0.023434412
000040 a6 a5 4a bc bc 07 00 bd ad 8e 8b 3c fb bf 81 bc
       -0.012368595 -0.031257376 0.017035807 -0.015838614
000050 1e 1b 35 bc f2 93 21 bd 6b 33 23 bc ff df 1b 3c
       -0.0110538285 -0.039447732 -0.0099609895 0.009513854
000060 30 f4 a1 3a 19 b6 da 3c 98 12 db 3c 68 d2 d9 3c
       0.0012356099 0.026698159 0.026742265 0.026589587
000070 11 e6 dc 3c d8 fd 26 3c e2 15 49 bc 73 f7 9d bc
       0.026965173 0.010192357 -0.012273284 -0.019283032
000080 fd de 55 bd 26 bb a9 3c 38 ba 97 ba 1d 6d 5e 3c
       -0.05221461 0.020719122 -0.0011575883 0.013575819
000090 ef e0 6a 3c fe 13 6a bc e4 3a c1 3a be 5f 5b 3c
       0.014335855 -0.014286993 0.0014742282 0.013389526
0000a0 f7 c0 04 bd 85 7b fd 3c 21 6d 70 3c 6b ef 8d 3c
       -0.032410588 0.030942688 0.014674456 0.017326077
0000b0 2a 22 12 bd b8 df 59 3c f2 a6 0a 3b dd 46 2a bd
       -0.035677113 0.013297968 0.0021156636 -0.041571487
0000c0 23 96 f2 bb 52 90 a4 bb 2f e8 ac 3b e5 1b f2 3b
       -0.0074031516 -0.005022087 0.005276702 0.007388579
0000d0 20 32 32 bc 15 d4 66 bc 4d 2d cb 3b 85 7c 27 bc
       -0.010876209 -0.01408865 0.0062004686 -0.010222559
0000e0 2b 94 71 bb f2 76 d0 3c ae a4 86 bc d1 30 4c bc
       -0.0036861997 0.025447343 -0.016435947 -0.012462811
0000f0 a7 73 fc bc 0b 2f a0 3c a3 7a e4 bc 0f 9d ac 3c
       -0.030816866 0.019553682 -0.027890509 0.021070985
000100 03 ac 13 bd fa a9 2f bd d2 77 8f ba 72 5f 04 3c
       -0.036052715 -0.04288671 -0.0010945743 0.008079397
000110 ca 84 eb ba 6b 0f 09 bd 29 0b a4 3c 0f 25 03 3d
       -0.0017968651 -0.03346197 0.020024853 0.032017764
000120 e5 d1 15 bd 49 b6 9a bc b8 cc 59 3b 4b cb b1 bc
       -0.036577124 -0.018885748 0.0033233594 -0.021703383
000130 ce 0f 07 bd 38 4b f9 3c b1 06 cc 3c 7b 85 2b bc
       -0.032974057 0.030431375 0.024905534 -0.010468836
000140 22 22 c3 bc 44 bc b3 3c a7 2e 2c bd 4c 2f e9 bc
       -0.023819987 0.021940358 -0.04203668 -0.028464936
000150 45 39 e8 bb 11 71 12 bd bb 21 17 bc b0 67 f6 3b
       -0.007086905 -0.03575236 -0.009224351 0.0075196847
000160 a8 7d 07 bd 5c 67 04 bc c8 9c 47 bd 6f bc 4f 3c
       -0.03307882 -0.008081283 -0.048733503 0.012679203
000170 d8 cf 02 bc 09 1c ab bc 35 29 0b bd f3 48 02 3d
       -0.007984124 -0.020887392 -0.033974845 0.03180785
000180 fa f9 78 bc bd a5 6c 3b e9 23 f7 bc 60 b9 ae 3c
       -0.015196318 0.003610953 -0.03016849 0.021328628
000190 be 8b 60 bc 77 34 1e 3c 92 6f 93 3c 00 e8 10 bd
       -0.013705192 0.009656063 0.017997537 -0.035377502
0001a0 dd 3e d5 3c b3 bb 12 3d 6e 98 3d 3d d7 7c 20 3d
       0.026030952 0.035823535 0.046287946 0.039181557
0001b0 b0 c8 3b 3c 8a 6b 23 bd d8 1a da 3c 2e 79 d6 bc
       0.011461422 -0.03989748 0.026624128 -0.02618083
0001c0 cd 1c f9 bb 3e 64 57 bc c3 93 c0 bc 10 ba 63 bb
       -0.0076023103 -0.013146458 -0.023507958 -0.0034748353
0001d0 20 9e 60 3c f8 fb 58 bb 56 b8 de 3c c2 e7 b7 bc
       0.013709575 -0.003310917 0.027187508 -0.022449378
0001e0 7e 38 06 3c 86 99 31 bd 8b a6 7e 3c 46 05 f8 3b
       0.00819218 -0.043359302 0.015542637 0.007568988
0001f0 bb 2b b1 3c 85 5f ac bc 3a 60 1a bd ee 07 20 3d
       0.021627298 -0.021041641 -0.037689425 0.039070062
000200 75 c5 a3 bc a5 44 48 bc 1c 46 48 bd c1 4f 15 bd
       -0.019991616 -0.012223397 -0.048894987 -0.036453012
000210 ed fd a4 3b 42 85 67 bc cb b2 0e bd 71 80 03 bc
       0.005035153 -0.014130892 -0.03483848 -0.008026228
000220 62 8c 63 3b e9 46 86 bc 27 ae 86 bc 0a b1 36 bd
       0.0034721126 -0.016391234 -0.016440464 -0.04460243
000230 9f 4b 27 bd 2f e0 b1 bc 67 15 32 bd 7b 00 2b 3a
       -0.040843602 -0.021713344 -0.043477442 0.0006523204
000240 2e 5f a1 3c 57 89 43 bd 47 4d 38 bd ca 76 86 bc
       0.019698706 -0.0477384 -0.044995572 -0.016414065
000250 bb b2 f9 bc 1e f1 ea bc 05 3e 57 bd f6 c0 1e bd
       -0.030480733 -0.028679427 -0.05254938 -0.03875824
000260 ea 05 a3 3a 2f fe 65 3c 63 e5 ce bc e7 be e5 3c
       0.0012437676 0.014037653 -0.025255864 0.02804513
000270 99 b1 25 bd 30 e3 d9 bb 71 46 5a bc 68 cc 1f 3c
       -0.040452573 -0.0066493973 -0.013322459 0.009753324
000280 00 20 b4 3c d5 c1 8c bc 28 b5 93 bc 11 18 15 bc
       0.021987915 -0.01718227 -0.018030718 -0.009099976
000290 00 36 fb bc a6 34 98 bb ad 3c fe bb 19 11 4f bd
       -0.030665398 -0.004644948 -0.007758698 -0.050553415
0002a0 be 4a 2f 3c d9 c8 d9 3b d1 68 bf bb b0 59 cf 3c
       0.010698972 0.0066462574 -0.0058413525 0.025311321
0002b0 1e 3c a1 3c 9a 2b 5c 3b e1 f5 a8 bc aa fb a8 bc
       0.019681986 0.0033595324 -0.020625057 -0.020627815
0002c0 10 12 21 bd d7 40 0e 3a e5 1e 9e ba 32 19 03 bd
       -0.039323866 0.0005426532 -0.0012063651 -0.03200645
0002d0 cd d7 77 bc 4f d7 8b 3c 97 85 eb 3b b3 4d 07 bd
       -0.0151271345 0.01707044 0.007187556 -0.033033084
0002e0 79 d8 b7 3c c4 52 8d 39 26 ca 20 3c 47 ca f3 bc
       0.02244209 0.0002695528 0.009813821 -0.02975954
0002f0 96 45 a8 bc 68 f7 b4 3c 77 e2 05 bb 48 7b 92 3c
       -0.020540994 0.022090629 -0.0020429173 0.01788105
000300 f4 3d 0b bd 65 10 dc bb 7a 9c 47 3c f2 1a 69 3b
       -0.03399463 -0.0067158216 0.012183303 0.003556904
000310 17 13 2d bd 96 62 84 bd de a3 0f 3d 37 bf ce bc
       -0.042254534 -0.06464116 0.035068385 -0.025237663
000320 10 01 3c 3c 36 2a c6 3c 41 24 10 bd 6e 20 88 bc
       0.011474863 0.02419005 -0.035190824 -0.016617026
000330 63 29 16 3c e5 96 de bb b0 08 9c bb 6c e8 69 bd
       0.009165141 -0.0067928904 -0.004761778 -0.05710642
000340 5e 5c a2 ba 3c b3 cc 3c dd 88 8b 3c 0b 58 09 3c
       -0.0012387147 0.02498781 0.017033035 0.0083828075
000350 1a f0 b9 3c 25 31 ef 3c ce 5a 51 bb ec 2d 59 bb
       0.022697497 0.029198239 -0.0031944993 -0.0033138944
000360 47 35 70 3c 81 33 a5 bc 6b 25 1f bd d6 67 9d 3c
       0.01466114 -0.02016616 -0.038854044 0.019214552
000370 4c 5c eb 3c 27 01 a0 3c 95 01 d0 bc 4d 0c df 3c
       0.028730534 0.0195318 -0.02539138 0.027227545
000380 f3 98 32 bc 60 b4 bf 3b e6 98 1b bc 1c 29 16 3d
       -0.010900724 0.00585036 -0.009496903 0.0366603
000390 c8 a4 3d 3c 80 cd 8d 3c f9 c9 72 3c 07 4f 2e 3d
       0.011574931 0.017309904 0.014818662 0.042555835
0003a0 7f 4d 4a bd 0e 45 2c bb 81 b1 ef bc 1c b7 1b bc
       -0.049390312 -0.0026286277 -0.029259445 -0.009504106
0003b0 7c 80 08 3c e9 65 83 3c df 24 d2 bc 46 b3 13 3d
       0.008331414 0.016039805 -0.025652347 0.03605964
0003c0 c3 ed 5e 3c bd ea 00 bb 30 b2 11 bb dd e9 df bc
       0.0136064915 -0.0019671165 -0.0022231452 -0.027333194
0003d0 90 0e c3 3c ff bc 5b 3c c8 29 e1 3c 36 91 0e 3d
       0.023810655 0.013411759 0.027485743 0.034806453
0003e0 a1 59 d9 bc f6 70 84 3c 24 41 09 bd 4b fb 9a 3b
       -0.026531996 0.016167145 -0.03350939 0.0047296635
0003f0 14 70 c3 bb 45 ea 90 bc e4 93 9e 3b ff fe 26 bb
       -0.0059642885 -0.017689833 0.0048394073 -0.002548158

fc_out.3.bias f4 [8]
000000 7f 19 48 3c 4e 60 88 3a b4 1c ab 3b f2 e1 23 3d
       0.01221311 0.0010404678 0.0052219275 0.0400104
000010 dc af 81 3b 9f 04 88 39 d5 05 43 bc 65 9e ca 3c
       0.0039577316 0.00025943384 -0.011903246 0.024733732
