2_6_9/last_model.pth (torch, 568043 bytes, 10 tensors)

conv1.0.weight f4 [16, 3, 5, 5]
0	0xbda56cc2	-0.080773845
1	0x3c7827d0	0.015146211
2	0xbdd44461	-0.10364605
3	0x3db4cda0	0.08828282
4	0xbd55f408	-0.05223468
5	0xbc1578b8	-0.00912302
6	0xbdbc22c6	-0.0918632
7	0x3c977491	0.0184882
8	0x3d17712f	0.036973175
9	0x3c952345	0.018205294
10	0xbd75321f	-0.059862252
11	0x3dab19aa	0.083545044
12	0xbcedf89b	-0.029049208
13	0x3c7cf148	0.015438385
14	0x3bff5723	0.00779237
15	0xbd9758e4	-0.073900014
16	0xbd9981c6	-0.074954554
17	0x3d456351	0.04819042
18	0xbd765716	-0.060141645
19	0x3d974691	0.07386506
20	0x3d0e466a	0.03473512
21	0x3da10c5f	0.07863688
22	0x3d2e7d65	0.042600054
23	0x3d681da1	0.05666888
24	0xbc6d8089	-0.014495977
25	0x3da0ce6b	0.07851871
26	0xbdbc6ddc	-0.092006415
27	0x3d163e17	0.036680307
28	0xbadd8a8f	-0.0016902256
29	0x3dcd5b62	0.100271955
30	0xbd38799d	-0.045037854
31	0x3b096789	0.0020966253
32	0xbda75269	-0.08170015
33	0x3df1825b	0.117924415
34	0x3d78b1ac	0.060716316
35	0x3d359f02	0.044341095
36	0x3d8548be	0.06508015
37	0xbcca4198	-0.02468948
38	0x3d9705a1	0.073741205
39	0xbdb379d6	-0.08763473
40	0x3d993ce5	0.07482318
41	0x3d70880c	0.058723494
42	0xbd9f549e	-0.07779811
43	0xbde6bf4a	-0.11266954
44	0xbdd54f7b	-0.1041555
45	0xbbb7b08e	-0.0056057638
46	0x3d9f34e6	0.077737615
47	0x3ddddd44	0.10833219
48	0xbcd75964	-0.026287742
49	0x3c694b44	0.014239136
50	0xbd9160b8	-0.07098526
51	0x3ddbb1fb	0.107273065
52	0x3d0a6ac3	0.033793222
53	0x3d92e3fc	0.07172391
54	0xbdb37455	-0.08762423
55	0x3de48747	0.111586146
56	0x3da146c0	0.078748226
57	0x3dc02711	0.09382451
58	0x3bb26c17	0.005445014
59	0x3db8d945	0.09025816
60	0x3de818ba	0.11332841
61	0xbdf7e07f	-0.12103366
62	0x3cf78a7c	0.030217402
63	0xbdc8c1be	-0.098025784
64	0xbd17bd4b	-0.03704576
65	0x3dc0792a	0.0939811
66	0xbb8c76f9	-0.0042866436
67	0x3d8c0235	0.068363585
68	0x3cab5036	0.020912271
69	0x3d401e5b	0.04690395
70	0xbc9b9943	-0.01899398
71	0x39ee2424	0.00045421824
72	0xbcedd013	-0.029029882
73	0x3dc95319	0.09830303
74	0xbdbb0d75	-0.09133426
75	0x3d705cb6	0.058682166
76	0x3caade3e	0.020857926
77	0xbdeec201	-0.11658097
78	0xbd977568	-0.0739544
79	0x3d05842c	0.032596752
80	0xbd89ce1d	-0.06728766
81	0x3d8a6b2e	0.06758724
82	0xbcefe224	-0.029282637
83	0xbdeca5db	-0.11555072
84	0x3ddfaaca	0.10921247
85	0x3dd3ea7a	0.10347457
86	0xbc1eee25	-0.009700333
87	0xbe073f30	-0.13207698
88	0xbd0aefb5	-0.03392001
89	0xbda62153	-0.08111825
90	0x3db7ffca	0.08984335
91	0x3c25d0f3	0.010120618
92	0x3d154272	0.03644032
93	0x3b641e19	0.0034807979
94	0xbdab4ea6	-0.083646104
95	0x3d9d546e	0.07682119
96	0x3d037ac4	0.0320995
97	0xbd552252	-0.052034684
98	0x3d30e932	0.043191142
99	0x3d2e6e2c	0.042585537
100	0xbc8ecd08	-0.01743175
101	0xbdcf183f	-0.101120465
102	0xbcaf851c	-0.021425776
103	0xbdc6ca93	-0.09706607
104	0x3da61768	0.08109933
105	0xbc677886	-0.014127856
106	0xbcd692a7	-0.026192976
107	0x3d7a591c	0.061120138
108	0x3d6d3fbc	0.05792211
109	0x3ddbd7a0	0.107344866
110	0xbc564e5a	-0.013080204
111	0xbdd82ec0	-0.10555792
112	0x3dafd1d3	0.08584943
113	0xbd98dc17	-0.07463854
114	0xbd32cdb8	-0.04365322
115	0x3d9395de	0.07206319
116	0xbda0f541	-0.078592785
117	0x3daadbb2	0.08342685
118	0xbd624be8	-0.05524817
119	0xbdc5a989	-0.09651477
120	0xbaedac05	-0.0018132931
121	0xbcd9131d	-0.026498372
122	0xbcb94241	-0.0226146
123	0xbd765cb3	-0.060147
124	0x3d4f85ff	0.050664898
125	0xbd6a12fd	-0.057147015
126	0x3db8ebbb	0.09029337
127	0x39864ca4	0.00025615573
128	0x3c16cc04	0.009203915
129	0xbdc24915	-0.094865955
130	0x3dc671f2	0.09689702
131	0xbc19e82a	-0.009393731
132	0x3c1b87cd	0.009492827
133	0xbc3d67e3	-0.011560413
134	0x3dbb1865	0.09135512
135	0x3d78eeef	0.06077474
136	0x3daaab89	0.08333499
137	0xbadfe6cb	-0.0017082331
138	0x3c5e1864	0.01355562
139	0xbd134a6a	-0.03595964
140	0x3dc5cdea	0.096584156
141	0xbc2eeecb	-0.01067705
142	0x3c8070f8	0.015678868
143	0xbd5e74e9	-0.054310713
144	0x3d8099f8	0.06279367
145	0xbd33a75b	-0.043860774
146	0xbdb96041	-0.09051562
147	0x3d690303	0.056887638
148	0xbde60ca1	-0.112328775
149	0xbda80e3e	-0.082058415
150	0x3d732ef4	0.05937095
151	0xbd5f3868	-0.054497153
152	0xbcf1c3eb	-0.029512366
153	0xbde162b3	-0.110051535
154	0x3c647933	0.013944912
155	0xbd09dd2a	-0.033658184
156	0x3dc67637	0.096905164
157	0x3d751c92	0.0598417
158	0xbe034587	-0.12819491
159	0xbcc470a2	-0.023979489
160	0xbba5cfa0	-0.005060151
161	0xbd4d79fa	-0.050165154
162	0xbdefd094	-0.11709705
163	0xbde7aa94	-0.11311832
164	0xbde6cb27	-0.11269217
165	0x3d75e000	0.060028076
166	0x3d0f8368	0.03503743
167	0xbd975f4a	-0.07391222
168	0xbda18cf4	-0.07888213
169	0xbe01f748	-0.12691987
170	0x3dc24483	0.09485724
171	0x3d19441b	0.037418466
172	0xbd7b536b	-0.06135885
173	0x3ded6ef0	0.11593425
174	0xbc5a83e1	-0.013337106
175	0xbceb72da	-0.028741289
176	0x3c3b03ec	0.011414509
177	0x3d0c63c2	0.034274824
178	0xbd52128e	-0.051287226
179	0x3cbc08e0	0.02295345
180	0x3d97d911	0.07414449
181	0xbd952193	-0.072817944
182	0x3da0da6d	0.078541614
183	0xbdf9e8a3	-0.12202575
184	0x3d242a3b	0.040079337
185	0x3cc58f9c	0.02411633
186	0xbc5852ed	-0.013203365
187	0xbd8d0a7d	-0.06886766
188	0xbcc539d3	-0.024075424
189	0xbd14132e	-0.036151104
190	0xbdca8b11	-0.09889806
191	0x3d75a643	0.059973013
192	0xbdbdc5ee	-0.09266268
193	0xbb8d1eba	-0.0043066414
194	0x3d5cbb55	0.05388959
195	0x3d0c5408	0.034259826
196	0x3cc47666	0.023982238
197	0xbd9a0759	-0.07520933
198	0x3e050d22	0.12993291
199	0xbd9781a9	-0.073977776
200	0x3d86d55b	0.06583663
201	0xbce81b76	-0.028333407
202	0x3dfcb64f	0.1233946
203	0x3d539fa2	0.05166591
204	0x3d979db2	0.07403125
205	0x3dafc149	0.08581788
206	0x3d436fdf	0.04771411
207	0x3c3c98ae	0.011511011
208	0xbbd89ea4	-0.0066107083
209	0x3d1b6339	0.037936423
210	0x3cbe9d5a	0.02326839
211	0x3d8069aa	0.06270154
212	0xbde4e113	-0.11175742
213	0xbd226d97	-0.039655294
214	0xbc07f941	-0.008299173
215	0xbdcacb2d	-0.09902034
216	0xbc79020d	-0.015198243
217	0xbd35486b	-0.044258516
218	0xbd8e9ba0	-0.06963277
219	0xbd966303	-0.07343104
220	0x3d7e67d4	0.062110737
221	0x3b35b3dd	0.0027725615
222	0xbdaae4fc	-0.083444566
223	0xbc9f4f09	-0.019446867
224	0x3d9c29bf	0.0762515
225	0x3dda158e	0.106486425
226	0xbd84c3d0	-0.06482661
227	0x3d32ca22	0.0436498
228	0x3dd2b501	0.1028843
229	0x3cbbd1fa	0.022927273
230	0xbddc07c1	-0.107436664
231	0xbdae6c3a	-0.08516736
232	0x3dc248f1	0.09486569
233	0x3d285ee5	0.041106123
234	0xbbf4b8ee	-0.0074683344
235	0xbdad39b2	-0.0845827
236	0xbd549765	-0.051902194
237	0xbd83d79c	-0.064376086
238	0x3a1eb1c5	0.00060537114
239	0xbdb80f8d	-0.08987341
240	0x3d9e6917	0.07734888
241	0x3d859277	0.065220766
242	0x3d5e59cb	0.054284852
243	0xbdf70ed6	-0.120633766
244	0x3ce680cb	0.028137585
245	0x3cff4e35	0.031165222
246	0x3d431cd4	0.047634915
247	0xbcf18f9a	-0.02948742
248	0x3d6e880c	0.058235213
249	0x3dc49f7a	0.0960073
250	0x3da34939	0.079729505
251	0x3d9d783d	0.07688949
252	0x3d250d20	0.04029572
253	0xbd70bbbb	-0.058772784
254	0x3d9d2f77	0.07675069
255	0x3d457d14	0.048214987

conv1.0.bias f4 [16]
0	0xbc13c41c	-0.009018924
1	0x3c1513a5	0.009098922
2	0x3d0f6b59	0.035014484
3	0x3d8e2dd3	0.06942334
4	0xbdf65930	-0.1202873
5	0x3d0cc89a	0.034370996
6	0x3d823e7f	0.063595764
7	0xbc150c55	-0.0090971785
8	0xbd538387	-0.051639106
9	0xbdafac49	-0.08577783
10	0x3d99957e	0.074992165
11	0xbe15a52c	-0.1461379
12	0xbda34773	-0.07972612
13	0xbdaca6f2	-0.0843028
14	0xbcb11a7b	-0.021619072
15	0x3ddcb9e5	0.10777644

conv2.0.weight f4 [32, 16, 5, 5]
0	0xbd3a6a39	-0.045511458
1	0xbcffa06b	-0.031204423
2	0x3cadcc5e	0.021215614
3	0xbc7b14e5	-0.015324806
4	0xbd70badf	-0.058771964
5	0xbcd6d90d	-0.026226545
6	0x3d31696b	0.043313425
7	0xbd3bbae1	-0.04583252
8	0xbca7f8ae	-0.020504322
9	0x3c98a9e1	0.018635692
10	0xbd22c947	-0.039742734
11	0xbcbd7d98	-0.023131177
12	0x3a698438	0.0008907947
13	0x3cea894c	0.028629921
14	0x3b8ea947	0.0043536755
15	0x3d8f5874	0.06999293
16	0xbb722e51	-0.0036953876
17	0x3d46fa22	0.04857839
18	0x3d445222	0.04792989
19	0xbd93d6df	-0.07218718
20	0xbd0bcf6c	-0.03413336
21	0xbd22ec47	-0.039776113
22	0x3d00f5e2	0.031484492
23	0x3d3612a9	0.04445139
24	0xbd1a5059	-0.03767428
25	0xbd44b77b	-0.048026543
26	0x3c1af59e	0.009457974
27	0x3d269a8e	0.04067474
28	0x3cf4b54f	0.02987161
29	0x399a3945	0.00029415838
30	0xbc6cd0ce	-0.01445408
31	0xbd1e121f	-0.0385915
32	0xbb337371	-0.002738204
33	0x3bb98d9e	0.005662634
34	0xbc81bcd3	-0.015837109
35	0xbd37c7b3	-0.044868182
36	0xbbfbf1bd	-0.0076887296
37	0x3ac40fb2	0.0014958291
38	0x3cf92f7e	0.030418154
39	0x3d8dfa7a	0.0693254
40	0x3c5d7703	0.013517144
41	0xbc702be5	-0.014658903
42	0xbba941f5	-0.0051653334
43	0xbd421299	-0.047381017
44	0x3ceea7d0	0.029132754
45	0x3d33ee2c	0.04392831
46	0xbc45d0e6	-0.012073731
47	0xb9f89ef9	-0.0004742069
48	0x3c441734	0.011968423
49	0xbca8b932	-0.02059612
50	0x3c3b8295	0.011444707
51	0xbc702e9f	-0.014659553
52	0xbcaa18e1	-0.020763816
53	0xbc8d8ff4	-0.017280556
54	0xbb5d1e24	-0.003373989
55	0x3c031ddd	0.008002725
56	0xbc0e988a	-0.00870336
57	0x3c692ad1	0.0142314
58	0x3c9e0eff	0.01929426
59	0x3cbd829e	0.023133572
60	0xbd71a936	-0.058999263
61	0x3c9f133c	0.019418351
62	0x3d1825f6	0.037145577
63	0x3b0739ea	0.0020633885
64	0x3d4fdad9	0.05074582
65	0x3d8e8c64	0.06960371
66	0x3c4bb9c6	0.012434429
67	0x3d481ffc	0.048858628
68	0xbd27264c	-0.040808007
69	0x3cece0f8	0.028915867
70	0xbca92bf9	-0.02065085
71	0xbd1789b3	-0.036996555
72	0xbd5259fc	-0.051355347
73	0xbd01fe72	-0.0317368
74	0x3d04662a	0.032323994
75	0xbd7cb7d2	-0.061698742
76	0xbd0b44bd	-0.0340011
77	0xbc76374a	-0.01502783
78	0xbd57e6ff	-0.05271053
79	0xbd2e22a1	-0.042513493
80	0xbbe3e47d	-0.006954728
81	0x3d82369c	0.06358072
82	0xbd3a72d2	-0.045519657
83	0x3cc58b43	0.024114257
84	0xbcd7e119	-0.026352452
85	0x3cb05fdf	0.02153009
86	0x3cab8824	0.02093894
87	0x3d86e49a	0.06586571
88	0x3c848428	0.016176298
89	0x3c4734d0	0.012158588
90	0x3cc5a3c2	0.024125937
91	0xbbb8fa3a	-0.0056450637
92	0xbb3fa561	-0.002924286
93	0x3cec98c8	0.028881446
94	0x3a32125e	0.0006792898
95	0xbdab0fc7	-0.08352619
96	0xbd38bdaa	-0.045102753
97	0x3d0d9471	0.034565393
98	0x3cc52a8b	0.024068138
99	0x3c90e29c	0.01768618
100	0x3d5d770f	0.05406862
101	0x3a862b3e	0.0010236276
102	0xbcbc3893	-0.022976195
103	0x3d18c122	0.03729356
104	0x3d146c32	0.036235996
105	0xbd8579ac	-0.06517348
106	0xbce1b27b	-0.027550926
107	0xbbf6ee13	-0.007535705
108	0xbc9df7a1	-0.019283118
109	0xb9fd2dda	-0.00048290082
110	0xbd613ef3	-0.054991674
111	0xbcfa7d5d	-0.030577356
112	0x3d824845	0.063614406
113	0x3c7f1b1c	0.015570428
114	0xbbf80706	-0.0075691966
115	0xbd2f6b71	-0.042827073
116	0x3cd344ba	0.025789607
117	0x3d02729d	0.031847585
118	0xbd3b3876	-0.045708142
119	0xbc34359c	-0.01099911
120	0x3d37b825	0.04485335
121	0xbd211de6	-0.039335154
122	0x3ca865cd	0.020556355
123	0xbd59b4d8	-0.05315098
124	0x3c85398c	0.016262792
125	0x3d8ff545	0.07029203
126	0x3c06a572	0.008218156
127	0x3c46c893	0.012132782
128	0x3caa4b33	0.02078781
129	0xbcfb0b37	-0.030644996
130	0x3d2390a8	0.039932877
131	0xbca17ac2	-0.019711856
132	0xbcd5f646	-0.026118409
133	0x3d020933	0.031747054
134	0x3d61dcca	0.0551422
135	0x3cefbab1	0.029263826
136	0xbce15037	-0.02750407
137	0xbb684b01	-0.0035445096
138	0xbd0fe29d	-0.035128225
139	0x3bd46065	0.0064812177
140	0xbd32349c	-0.043507203
141	0xbd37cb08	-0.04487136
142	0x3c77bb1c	0.015120294
143	0xbd3af150	-0.04564029
144	0x3c970cea	0.018438775
145	0xba5306f2	-0.0008050046
146	0xbc047331	-0.008084104
147	0xbc79556f	-0.015218123
148	0xbcc58910	-0.024113208
149	0x3d97a863	0.07405164
150	0xbd5368e0	-0.05161369
151	0x3cc13e22	0.023589198
152	0x3ccaea09	0.0247698
153	0xbcbcfb9e	-0.0230692
154	0x3cfbbfd1	0.030731114
155	0xbb9cccc4	-0.004785152
156	0xbd332a93	-0.043741774
157	0xb96cdff2	-0.0002259014
158	0x3caed5a1	0.0213421
159	0x3c2b9e59	0.010474765
160	0x3be7d202	0.0070745954
161	0x3cf952e2	0.03043503
162	0x3d5f7c4b	0.054561894
163	0xbd03a3df	-0.0321387
164	0x3cefd5c4	0.029276736
165	0xbcf96de1	-0.030447902
166	0x3b84cd3a	0.004052785
167	0x3c3a5c64	0.011374567
168	0x3c4e4200	0.012588978
169	0xbcd2e214	-0.025742568
170	0xbd669d13	-0.05630214
171	0xbc273b56	-0.010207018
172	0x3cfb6506	0.03068782
173	0xbcc2b1b3	-0.023766374
174	0x3c13faec	0.009031992
175	0x3ce4cf8a	0.027930994
176	0xbcabde5b	-0.02098005
177	0xbcfa1d54	-0.030531563
178	0x3d76c2e8	0.06024447
179	0x3c6f786e	0.014616115
180	0xbd52e07c	-0.051483616
181	0x3cbe2453	0.02321068
182	0x3d0d4805	0.03449251
183	0x3c0c97e9	0.00858114
184	0xbca6035f	-0.02026528
185	0xbaa3eef3	-0.0012507126
186	0x3b9edc38	0.0048480295
187	0x3d227169	0.039658938
188	0x3c35a691	0.011087076
189	0xbcd034a4	-0.025415726
190	0xbd2038eb	-0.03911678
191	0x3ce12d0d	0.027487302
192	0x3d32a2e0	0.04361236
193	0xbc61618f	-0.01375617
194	0xbc150e92	-0.009097712
195	0xbcdb1d8c	-0.026747487
196	0xbd0e2e32	-0.034712024
197	0xbd180ebe	-0.037123434
198	0xbd1097be	-0.035300963
199	0xbd4b42f1	-0.049624387
200	0x3d5b6be0	0.053569674
201	0xbd561725	-0.052268166
202	0xbc69fc0e	-0.014281286
203	0x3caa6e95	0.020804683
204	0xbcf0ca36	-0.029393297
205	0x3d85b0e9	0.065278836
206	0xbcbb46ff	-0.022861002
207	0xbccb0588	-0.024782911
208	0xbc53c141	-0.012924493
209	0xbd2dcfc2	-0.04243446
210	0x3c998c10	0.018743545
211	0xbcf6d366	-0.0301301
212	0xbd4ae105	-0.049531
213	0xbd06447a	-0.032780148
214	0xbd801466	-0.06253891
215	0x3c39d98d	0.011343372
216	0x3bdba285	0.0067027234
217	0x3c3bddea	0.011466483
218	0x3c46ab0d	0.012125743
219	0xbcf59d79	-0.029982315
220	0x3bb155ff	0.005411863
221	0xbd64db33	-0.055873107
222	0x3cb327f0	0.02186963
223	0xbcb4881c	-0.022037558
224	0x3d5aa745	0.053382177
225	0x3d442a80	0.047892094
226	0x3d15e7a1	0.03659785
227	0xbd0d5f8c	-0.03451495
228	0xbb906188	-0.004406158
229	0x3d243b2f	0.040095504
230	0x3d0a7f75	0.03381296
231	0x3c553fe6	0.013015723
232	0x3c9cbe36	0.019133668
233	0x3cd9a2bb	0.026566854
234	0xbbd8ca90	-0.006615944
235	0xbd46ba74	-0.04851766
236	0x3d8092b1	0.06277979
237	0x3d5584e2	0.05212868
238	0x3ce9d287	0.02854277
239	0xbd006710	-0.031348288
240	0x3cdb4927	0.02676828
241	0x3d498625	0.049200196
242	0x3c61f227	0.013790644
243	0xbd968a54	-0.07350603
244	0x3d175def	0.036954816
245	0xbc3a9682	-0.011388423
246	0xbc58f85e	-0.013242809
247	0xbca5f932	-0.020260427
248	0xbc78874d	-0.015168977
249	0xbc50743c	-0.012723025
250	0x3d3e7c2e	0.046505146
251	0x3c38c52c	0.011277478
252	0x3d5eb980	0.054376125
253	0xbb97d7b3	-0.0046338676
254	0x3c56faac	0.013121288
255	0xbcc71f85	-0.024307022

conv2.0.bias f4 [32]
0	0x3d13f590	0.03612286
1	0xbcc07680	-0.023494005
2	0xbb14ec75	-0.0022723947
3	0xbd2d0a6b	-0.042246263
4	0x3c600e7e	0.01367533
5	0xbc7cf49d	-0.01543918
6	0x3c97f8aa	0.01855119
7	0x3d194157	0.03741583
8	0xbd1f9458	-0.03895983
9	0xbcd2d3cc	-0.025735758
10	0x3b9f565c	0.0048625898
11	0x3c538e9e	0.012912421
12	0xbc622dc3	-0.013804856
13	0xbbc66ca7	-0.006055433
14	0xbd388ede	-0.045058124
15	0xbd7af365	-0.061267275
16	0xb96554c2	-0.00021870717
17	0x3d36551b	0.044514757
18	0xbc9103b7	-0.017701967
19	0xba8d71ab	-0.0010791322
20	0xbc93209d	-0.017959887
21	0x3ce4519f	0.027870951
22	0x3d214a64	0.039377585
23	0x3bc70a7d	0.0060742483
24	0xbd257e2f	-0.04040354
25	0xbd18cdda	-0.03730569
26	0x3b0160e9	0.00197416
27	0xbac3bcc3	-0.0014933575
28	0x3cc8e048	0.024521008
29	0xbd0bcd7a	-0.034131505
30	0xbb2939ab	-0.0025821726
31	0xbd3e6bf8	-0.046489686

conv3.0.weight f4 [64, 32, 5, 5]
0	0x3cc4bf59	0.024017023
1	0xbcf511f4	-0.029915787
2	0x3ca49ff2	0.0200958
3	0xbd0cf632	-0.034414478
4	0xbcc250c3	-0.02372015
5	0x3c3bda2d	0.011465591
6	0xbca553b7	-0.02018152
7	0x3c59001b	0.013244654
8	0xbbb5cdde	-0.005548223
9	0xbce3a9b8	-0.02779089
10	0x3be85710	0.007090457
11	0x3d151b63	0.03640307
12	0x3cf844c5	0.03030623
13	0xbcc749dc	-0.024327211
14	0x3d2c49c2	0.04206253
15	0xbbf9bbd1	-0.0076212664
16	0x3aead8f5	0.0017917441
17	0xbb8b80c4	-0.0042572934
18	0xbce4ac04	-0.027914055
19	0x3d72097f	0.059091087
20	0xbccbdd3f	-0.024885772
21	0x3bba264b	0.0056808344
22	0x3d06feea	0.03295795
23	0xbd0a151b	-0.033711534
24	0x3d007dff	0.03137016
25	0x3c438867	0.011934376
26	0xbd21be2c	-0.039488003
27	0xbca93e03	-0.020659452
28	0x3c288afc	0.010287043
29	0x3c2e25ec	0.0106291585
30	0x3be56101	0.007000089
31	0xbcb15e24	-0.021651335
32	0x3d0fca24	0.035104886
33	0x3ca5ab10	0.02022317
34	0x3c1de917	0.0096380925
35	0xbd0c9a0c	-0.034326598
36	0xbcd795b2	-0.026316497
37	0x3c015484	0.007893685
38	0xbc5b3b0d	-0.013380778
39	0x3bb1048e	0.0054021543
40	0x3ced17eb	0.028942069
41	0x3b6fbe12	0.0036581797
42	0x3c228b5e	0.009920923
43	0x3c8ee379	0.017442452
44	0xba269949	-0.0006355239
45	0xbd020c68	-0.031750113
46	0x3a864fc3	0.001024716
47	0x3d0e4bab	0.03474013
48	0x3cb137be	0.021633025
49	0xbd1bae32	-0.038007922
50	0x3c9aa8d1	0.018879326
51	0xbba50136	-0.0050355447
52	0x3c0e266f	0.0086761555
53	0xbcd1a54c	-0.025591515
54	0x3bcc4cf8	0.0062347613
55	0x3cd561a4	0.026047535
56	0xbcc2b9f2	-0.023770306
57	0x3c10cfa5	0.008838569
58	0xbce9a6ca	-0.028521914
59	0x3ccc883c	0.024967305
60	0x3c9a9244	0.018868573
61	0x3c937e74	0.018004633
62	0xbc28a5d9	-0.010293447
63	0x3c171298	0.009220742
64	0xbc79fe7a	-0.015258426
65	0x3cfc9f4c	0.030837677
66	0x3c819ccd	0.015821839
67	0x3c347902	0.011015179
68	0x3ca1a410	0.019731551
69	0xbd1e9e4f	-0.038725194
70	0xbceb48c8	-0.028721228
71	0x3b958938	0.004563477
72	0xbb75784f	-0.0037455743
73	0xbd095de4	-0.033536807
74	0xbc05761f	-0.008145838
75	0xbbd7455e	-0.0065695485
76	0xbc9d2cb5	-0.019186357
77	0x3cd0f2a4	0.025506325
78	0x3c84955f	0.016184507
79	0xbcf49c91	-0.029859813
80	0xbc936c17	-0.017995877
81	0x3c330c38	0.010928206
82	0x3cd63c07	0.02615167
83	0xbcbed7ba	-0.023296226
84	0x3cb6d827	0.022319866
85	0x3c84e2e3	0.01622147
86	0xbd06fe14	-0.03295715
87	0xbd0f626b	-0.035005968
88	0x3c705a18	0.0146699175
89	0x3ba64f55	0.005075375
90	0xbcbda2c0	-0.023148894
91	0x3c51c701	0.012803794
92	0xbc50a1fd	-0.0127339335
93	0x3c898ea0	0.016791642
94	0x3d240d74	0.040051892
95	0x3c9e6c42	0.01933873
96	0x3c51505e	0.012775509
97	0xbcb4ee9f	-0.02208644
98	0x3d1c6802	0.038185127
99	0x3cb24be5	0.021764705
100	0x3c51309b	0.012767936
101	0xb9c7d616	-0.00038115744
102	0x3c55ccaa	0.013049284
103	0xbbda57b2	-0.006663286
104	0x3c3d7103	0.011562589
105	0x3c28a778	0.010293834
106	0xbc8fa738	-0.01753579
107	0xba6be71b	-0.0008998976
108	0x3c676935	0.014124204
109	0xbcbb98bd	-0.02289998
110	0xbd281e1e	-0.041044347
111	0x3b1c7908	0.0023875851
112	0xbd18541b	-0.037189584
113	0x3cb413a6	0.021982025
114	0xbc91b4e5	-0.017786453
115	0x3cb30e65	0.02185745
116	0x3c263f7a	0.01014697
117	0x3ce698a7	0.028148962
118	0x3ce89d82	0.028395418
119	0x3cbd5f54	0.023116745
120	0x3cd615eb	0.026133498
121	0x3a343173	0.00068738236
122	0x3c82cb9e	0.015966233
123	0x3b73cddc	0.003720156
124	0xbd42e87e	-0.047585003
125	0xbcfcf73b	-0.030879607
126	0x3cb6b36e	0.022302356
127	0xbd107375	-0.03526636
128	0xbcf7bac5	-0.030240426
129	0xbbd0a09a	-0.0063668014
130	0x3c812e09	0.015769022
131	0x3c8502da	0.016236711
132	0xbd0ee3e4	-0.034885302
133	0xbd230f22	-0.039809354
134	0x395af027	0.00020879564
135	0x3bb9b403	0.005667211
136	0xbcd4ff47	-0.026000632
137	0xbbcada13	-0.0061905473
138	0xbd1fa47f	-0.038975235
139	0x3c19387a	0.009351844
140	0xbac2dde5	-0.0014867155
141	0x3cd2c1fd	0.025727266
142	0xbc22906a	-0.009922126
143	0x3c0e1da7	0.008674062
144	0xbc4c338b	-0.012463461
145	0x3d152762	0.03641451
146	0x3c8812ee	0.016610589
147	0xbd0d2c3d	-0.034466017
148	0xbb8c8dae	-0.0042893505
149	0xbd1849c4	-0.037179723
150	0xbc828d10	-0.015936404
151	0xbc5d8e5b	-0.01352271
152	0x3ba0d96b	0.0049087307
153	0xbd2b132a	-0.041766323
154	0x3cc83b25	0.024442265
155	0xbced15c2	-0.028941039
156	0x3c504b91	0.012713329
157	0x3d17701c	0.03697215
158	0xbcae1ae6	-0.02125306
159	0xbc26c11c	-0.010177877
160	0xbb890551	-0.004181542
161	0xbca9e9f8	-0.020741448
162	0x3b0c7482	0.0021431749
163	0xbca60c40	-0.020269513
164	0x3b130ea1	0.002243914
165	0xbcb63e71	-0.022246571
166	0xbcb36fbd	-0.021903867
167	0xbd148d89	-0.03626779
168	0xbbcf15b6	-0.006319727
169	0xbc7bb3dc	-0.015362706
170	0xbcea7aff	-0.028623102
171	0xbc77f813	-0.015134829
172	0xbc0e998d	-0.008703602
173	0x3c57e14d	0.0131762745
174	0xbcecd838	-0.028911695
175	0x3cc92571	0.024553986
176	0xbc57f6c9	-0.013181397
177	0xbd2b4a94	-0.04181917
178	0xbb43f626	-0.0029901355
179	0xbc6c5ef9	-0.01442694
180	0x3b42d4ce	0.0029728892
181	0xbc2ad0b7	-0.010425738
182	0xbcf55fcd	-0.029952908
183	0x3d081bd3	0.03322966
184	0xbc914757	-0.017734213
185	0x3c994ad6	0.018712442
186	0xbc4643c3	-0.012101117
187	0x3b699b15	0.0035645415
188	0x3d3761d8	0.044771045
189	0xbd0a3d8b	-0.0337501
190	0x3be3fcab	0.0069576106
191	0x3d2a061a	0.041509725
192	0xbc38e20a	-0.011284361
193	0xbcae7491	-0.021295818
194	0x3b7a6a38	0.0038210284
195	0x3cd63fa0	0.026153386
196	0xbd4fc79c	-0.05072747
197	0xbb42098d	-0.0029607743
198	0xbd55477d	-0.05207013
199	0xbc94b3cb	-0.018152138
200	0x3ad502bc	0.0016251425
201	0xbcbaa323	-0.022782868
202	0xbcdff267	-0.027337266
203	0x3c859b5f	0.016309438
204	0x3bbaebae	0.0057043647
205	0xbcdf3bf7	-0.027250273
206	0x3c9bb402	0.019006733
207	0x3b38d05b	0.0028200361
208	0xbcc791b5	-0.02436147
209	0xbcc3b5c6	-0.023890387
210	0xba8b65f1	-0.0010635239
211	0xbcdb0f21	-0.026740612
212	0xbcd412d6	-0.025887888
213	0x3d1dcbc7	0.038524415
214	0xbcf34c0f	-0.029699354
215	0x3cc66346	0.02421726
216	0xbc5b4efb	-0.01338553
217	0xbd10a108	-0.03530982
218	0xbc3800ec	-0.011230689
219	0xbca087ac	-0.019595943
220	0x3bb1ed50	0.005429901
221	0xbc471d8e	-0.0121530425
222	0xbbd5a248	-0.0065195896
223	0xbc85cad7	-0.016332073
224	0xbcf5be94	-0.029998101
225	0x3cb29534	0.021799661
226	0x3cab0833	0.020877933
227	0x3c93188f	0.017956046
228	0xbd1326ab	-0.03592555
229	0xbd660a99	-0.05616245
230	0xbc17e1ed	-0.0092701735
231	0x3c9e80ff	0.01934862
232	0x3cc06a6b	0.023488244
233	0xbb431c6d	-0.0029771582
234	0x3d129afd	0.03579234
235	0x3b40b2ae	0.0029403376
236	0x3ceb93e5	0.028757045
237	0xbca17d9e	-0.01971322
238	0xbd229328	-0.03969112
239	0x3cacd606	0.021098148
240	0x3ce9739f	0.028497515
241	0xbb27ccef	-0.0025604328
242	0x3c7a8b21	0.01529196
243	0x3cefe57f	0.029284237
244	0xbc92514c	-0.017861031
245	0x3b85509f	0.0040684487
246	0xbcac07b8	-0.020999774
247	0x3d1fd2db	0.039019447
248	0xbc291d03	-0.010321858
249	0x3b76733d	0.0037605308
250	0x3bb38364	0.0054783095
251	0xbd377cb3	-0.044796657
252	0xbd1a0e97	-0.03761157
253	0xbd3150a1	-0.043289784
254	0xbb42e9c3	-0.0029741384
255	0x3a9ae265	0.0011816738

conv3.0.bias f4 [64]
0	0x3cc94ea4	0.024573632
1	0xbd0e5ff2	-0.03475947
2	0xbd1bc44d	-0.038029004
3	0xbc776fc7	-0.015102333
4	0xbb99f037	-0.0046978253
5	0xbcff69d0	-0.031178385
6	0x3cea18d4	0.028576292
7	0xbd0d85be	-0.034551375
8	0x3b911952	0.0044280672
9	0x3ccaef10	0.024772197
10	0x3ccb5f42	0.024825696
11	0xbca3cd7b	-0.019995442
12	0x3c964f5f	0.018348394
13	0x3cc96f9d	0.024589354
14	0xbc991ea5	-0.01869137
15	0x3c5046cc	0.012712192
16	0xbcd4abab	-0.025960764
17	0xbd00e4ba	-0.03146813
18	0x3c65b3ac	0.014019888
19	0x3c7d58a6	0.01546303
20	0xbc29cb94	-0.010363478
21	0x3ceffb2f	0.029294578
22	0xbd037515	-0.03209408
23	0xbbc5b087	-0.0060330066
24	0xbc01b82b	-0.007917444
25	0xba98338e	-0.0011612044
26	0x3c8bb2bc	0.017053
27	0xbc032731	-0.008004949
28	0xbc48a5c9	-0.0122465575
29	0xbc86b2db	-0.016442707
30	0x3c8839fa	0.016629208
31	0x3cc05780	0.023479223
32	0xbcc6ab28	-0.024251536
33	0xbc85b31b	-0.016320756
34	0xbb98064a	-0.0046394216
35	0xbc29ca1e	-0.01036313
36	0x3c3d5b35	0.01155739
37	0xbc978ed9	-0.018500732
38	0xb9a2572f	-0.00030964005
39	0x3cadd1ca	0.0212182
40	0xbd012b11	-0.031535212
41	0xbc19bc5e	-0.009383289
42	0x3c88e6fe	0.016711708
43	0xbd128b43	-0.03577734
44	0x3c4f8052	0.012664871
45	0xbccd49d3	-0.025059616
46	0xbd0153c7	-0.031574037
47	0x3cc05e97	0.023482604
48	0xbc7db057	-0.015483937
49	0x3cedb3e2	0.029016439
50	0x3ca7b519	0.020472096
51	0xbbc62c72	-0.0060477788
52	0x3ce06d4a	0.027395863
53	0xbc14f362	-0.00909123
54	0xbad02311	-0.0015879591
55	0x3d06573b	0.032798033
56	0xbd022750	-0.031775773
57	0x3ca5da93	0.020245826
58	0xbc56ad60	-0.013102859
59	0xbab36685	-0.0013687169
60	0x3cd0b2e2	0.025475923
61	0xbcf2628b	-0.029588005
62	0xbc147061	-0.009059996
63	0x3ba431bf	0.005010813

fc_out.0.weight f4 [1024, 64]
0	0x3c93e302	0.018052582
1	0x3d205371	0.039142076
2	0xbdbaf65c	-0.091290206
3	0x3d52e4f3	0.051487874
4	0xbe08c8ef	-0.133579
5	0xbc152ada	-0.009104455
6	0x3b28e007	0.0025768296
7	0x3d111007	0.035415675
8	0x3d8fa987	0.07014757
9	0x3d85c6bc	0.06532046
10	0x3bcea0ed	0.006305805
11	0x3c1541b2	0.009109901
12	0xbdc28e72	-0.094998255
13	0x3d906926	0.070513055
14	0x3d92c4ce	0.07166444
15	0xbd580ec3	-0.052748453
16	0xbde283fc	-0.1106033
17	0xbdbb039d	-0.091315486
18	0x3de1309c	0.109956
19	0xbd6fd6b9	-0.058554385
20	0xbd949ff0	-0.07257068
21	0x3daaa190	0.08331597
22	0x3d765365	0.060138125
23	0xbcd17ce0	-0.02557224
24	0xbda28106	-0.079347655
25	0x3da1b3a0	0.07895589
26	0xbdc1a1e5	-0.09454707
27	0x3d80d29f	0.06290173
28	0x3d27730c	0.0408812
29	0x3da76a64	0.08174589
30	0x3d816fec	0.063201755
31	0x3d5f8a93	0.054575514
32	0x3d6d4ab0	0.057932556
33	0xbd2ca2af	-0.042147335
34	0x3da7a451	0.08185638
35	0x3d14054e	0.03613787
36	0xbdec298d	-0.11531363
37	0x3d067132	0.032822795
38	0x3dbac1c8	0.09118992
39	0xbd994950	-0.074846864
40	0x3dba4866	0.0909584
41	0x3d1d22c1	0.038363222
42	0x3d5454d2	0.051838703
43	0xbdb9780f	-0.090561025
44	0xbd48b6d4	-0.049002483
45	0xbd9ea3e6	-0.07746105
46	0x3c2988a0	0.010347515
47	0xbdc9124e	-0.098179445
48	0xbd653cc6	-0.05596616
49	0x3ddd4548	0.1080423
50	0xbddc86e9	-0.107679196
51	0x3cc4ed9f	0.024039088
52	0xbd493537	-0.049123015
53	0x3cbb2580	0.02284503
54	0xbdcc330d	-0.09970675
55	0x3d866827	0.06562834
56	0xbdf9af61	-0.12191654
57	0x3dc4b38d	0.09604559
58	0x3dd56d47	0.104212336
59	0x3df11880	0.11772251
60	0xbbc47fc2	-0.005996675
61	0xbb7051cd	-0.003666985
62	0x3dbaa5ce	0.09113656
63	0x3c34075b	0.010988082
64	0x3c948d75	0.018133858
65	0x3e044e81	0.12920572
66	0xbe0937f0	-0.13400245
67	0x3d90ecb0	0.070763946
68	0xbd1c7dcf	-0.038205918
69	0xbdd9097f	-0.10597514
70	0xbd22a597	-0.0397087
71	0x3d5b3dca	0.053525724
72	0xbd8087a4	-0.062758714
73	0xbd456f8d	-0.048202086
74	0xbe0db2e2	-0.1383777
75	0xbd5037a7	-0.050834324
76	0xbbbab1ed	-0.00569748
77	0xbbca7fe8	-0.0061797984
78	0x3d3906b9	0.045172427
79	0xbd787675	-0.060659844
80	0xbd188bbd	-0.03724264
81	0xbcdb334b	-0.026757857
82	0x3caddc39	0.021223174
83	0x3d7f5b85	0.06234314
84	0xbdc12cb5	-0.09432355
85	0x3d820e3f	0.063503735
86	0x3de5e51e	0.11225341
87	0x3da865e2	0.082225576
88	0xbd2f8038	-0.04284689
89	0xbdfbc4f3	-0.122934245
90	0xbc9493a0	-0.0181368
91	0x3d1dd02a	0.0385286
92	0xbd02c950	-0.031930268
93	0xbd14cb4c	-0.03632669
94	0xbd8d8d41	-0.06911708
95	0xbd7449c9	-0.05964068
96	0xbdb9ff0c	-0.090818495
97	0xbd8faf6e	-0.070158824
98	0x3d8fb1d7	0.07016342
99	0x3c4b67e2	0.012414904
100	0x3ce84e9d	0.028357798
101	0xbdf4f556	-0.119608566
102	0x3dedaae0	0.116048574
103	0x3c6d0ad7	0.014467916
104	0x3dd25797	0.10270613
105	0x3c7b2864	0.015329454
106	0x3cba53bf	0.022745011
107	0xbd463066	-0.048386
108	0xbe07ffe5	-0.1328121
109	0x3c81dddd	0.015852863
110	0xbbeff88c	-0.0073233303
111	0x3cf46581	0.029833557
112	0x3e015866	0.12631378
113	0xbda7ab7a	-0.081870034
114	0xbdcab38f	-0.09897529
115	0x3c184ea6	0.009296095
116	0x3bbcd0f2	0.005762213
117	0x3b61b187	0.003443809
118	0xbc440c7d	-0.011965868
119	0xbd654742	-0.05597616
120	0x3d9eef35	0.07760469
121	0xbc3d372e	-0.0115488
122	0xbddf92de	-0.109166846
123	0x3dab4235	0.08362237
124	0xbd99d73b	-0.07511755
125	0x3d9b68e6	0.07588367
126	0xbda469be	-0.08027981
127	0xbd4a4727	-0.049384262
128	0xbc639d1f	-0.013892441
129	0xbc81bf46	-0.015838277
130	0xbc3cb4a9	-0.011517682
131	0xbd1fd161	-0.03901804
132	0x3ccb4735	0.024814228
133	0x3d94dcb3	0.072686575
134	0xbdbaabbc	-0.09114787
135	0xbdd1ed82	-0.10250379
136	0x3d2b29e9	0.041788016
137	0xbcc29a08	-0.023755088
138	0x3d527793	0.051383566
139	0x3d27b73b	0.040946227
140	0x3ca14cbf	0.019689916
141	0x3c936a26	0.017994951
142	0xbd8cc17d	-0.068728425
143	0xbcc01587	-0.023447765
144	0x3c738560	0.014863342
145	0xbdeb5ff6	-0.114929125
146	0x3d247e1d	0.040159333
147	0xbdd31efb	-0.103086434
148	0xbd871aea	-0.0659693
149	0x3dcb4490	0.09925187
150	0xbd36aeef	-0.044600423
151	0x3d8223f8	0.06354517
152	0xbdb08092	-0.08618273
153	0x3dde0c62	0.108422056
154	0xbb94bd94	-0.004539201
155	0xbd201278	-0.039080113
156	0xbca382a3	-0.019959753
157	0x3dc172b5	0.09445707
158	0xbc499d7b	-0.012305613
159	0x3c9a9c2c	0.018873297
160	0x3d8885cf	0.06666147
161	0x3c889e4b	0.016677042
162	0xbd1e40ba	-0.038635947
163	0x3ddf393c	0.108995885
164	0x3dc7ef3e	0.09762429
165	0xbd236e62	-0.03990019
166	0x3bf985b8	0.0076148175
167	0x3e09d165	0.13458784
168	0xbd3362a8	-0.043795258
169	0x3df3e8e3	0.11909654
170	0x3d8b9107	0.06814771
171	0xbb2608e3	-0.0025334887
172	0x3d990c46	0.07473044
173	0x3d911f10	0.07086003
174	0x3dc0b601	0.094097145
175	0x3db26b75	0.08711902
176	0x3d8d1ae7	0.06889897
177	0xbd302294	-0.043001726
178	0xbdb2eede	-0.087369666
179	0xbd1865fe	-0.037206642
180	0xbd4bea9b	-0.049784284
181	0x3cf6e6f5	0.030139426
182	0xbdb8f580	-0.090312004
183	0x3d18d1ba	0.037309386
184	0xbd58a63a	-0.0528929
185	0xbda1b43a	-0.078957036
186	0x3bf5d449	0.007502113
187	0x3c82d0d3	0.015968716
188	0xbc868ddc	-0.016425066
189	0x3d76b3b2	0.060229965
190	0x3d4d27aa	0.050086655
191	0x3dbddee6	0.0927103
192	0x3d22fe54	0.039793327
193	0xbe00db6d	-0.12583704
194	0x3db54af4	0.08852187
195	0xbdd34767	-0.10316353
196	0x3e02a6d4	0.12758952
197	0xbd08ee19	-0.033430193
198	0xbd2eca85	-0.042673606
199	0x3d178a44	0.036997095
200	0xbda7c498	-0.08191794
201	0x3d2c3b4f	0.04204875
202	0x3d8d0557	0.06885784
203	0x3c4933b6	0.012280395
204	0x3d62507d	0.05525254
205	0xbe018f74	-0.1265238
206	0xbc71e24b	-0.014763425
207	0xbdb2acf4	-0.087243944
208	0xbd10c818	-0.035347074
209	0xbe02ca8d	-0.1277258
210	0x3c52494b	0.012834857
211	0xbbcbe007	-0.0062217745
212	0x3d3ec689	0.046576057
213	0xbb4095db	-0.0029386196
214	0x3d124301	0.03570843
215	0xbddc0f36	-0.10745089
216	0x3d25dd88	0.04049447
217	0x3d532a52	0.05155403
218	0x3c7a6b38	0.015284352
219	0xbe0620e6	-0.13098487
220	0xbdf43c56	-0.11925571
221	0x3c64f497	0.01397433
222	0x3b6e6009	0.003637316
223	0x3d7fd7b5	0.062461574
224	0x3c481e64	0.012214277
225	0x3a6e1447	0.0009082001
226	0x3ddaa8b5	0.106767096
227	0x3d29bfd9	0.041442726
228	0xbc9b9d23	-0.018995827
229	0x3cddbcd0	0.027067572
230	0xbd48b288	-0.048998386
231	0xbdf6adfd	-0.120449044
232	0xbdcaff91	-0.09912027
233	0xbc62cee3	-0.013843271
234	0x3dc99aeb	0.098440014
235	0xbdafe902	-0.085893646
236	0xbd8b23bd	-0.06793926
237	0x3d3e7dee	0.046506815
238	0x3d70e5d4	0.05881293
239	0x3cea29c3	0.028584367
240	0xbd829a1c	-0.0637705
241	0x3da569b7	0.08076804
242	0x3ca8d0fe	0.020607468
243	0x3d4d0a7f	0.050058838
244	0xbd8d477f	-0.068984024
245	0xbda3bf18	-0.079954326
246	0x3b3d4e3f	0.002888575
247	0xbcef9d99	-0.029249953
248	0x3dd9c2b0	0.10632837
249	0xbdbb52c3	-0.09146645
250	0x3b1aea5d	0.0023638227
251	0xbc0463f7	-0.008080474
252	0x3e02eb9e	0.12785193
253	0x3d665b18	0.056239218
254	0x3dea2be9	0.114341564
255	0xbe058672	-0.13039568

fc_out.0.bias f4 [1024]
0	0xbcd428d6	-0.025898378
1	0x3cc2b833	0.023769474
2	0x3dde5c70	0.10857475
3	0xbd8d8c5b	-0.06911536
4	0xbdd62b87	-0.10457521
5	0x3deca9c8	0.11555821
6	0xbdfee3c0	-0.124457836
7	0x3ce4edfb	0.02794551
8	0x3dacbaa9	0.0843404
9	0xbd0d17ea	-0.034446634
10	0x3dd27040	0.10275316
11	0xbdd97489	-0.106179304
12	0xbde38278	-0.11108869
13	0xbdf0e855	-0.11763064
14	0x3dbc5bca	0.09197195
15	0x3d9f6dde	0.077846274
16	0x3d7bd2eb	0.061480444
17	0x3d64d270	0.05586475
18	0x3d19267e	0.037390225
19	0xbcd28527	-0.025698258
20	0x3d7cbcc5	0.061703462
21	0x3dca7e8c	0.09887418
22	0x3dd7a17a	0.10528846
23	0xbcf0e8f7	-0.029407961
24	0x3d9d9b87	0.0769568
25	0x3d4db92d	0.050225426
26	0x3db90a72	0.090351954
27	0x3cd87b0c	0.02642586
28	0x3dc3b7bd	0.0955653
29	0xbd3c5b7f	-0.045985695
30	0xbc2e0dbe	-0.010623394
31	0x3d1f4001	0.0388794
32	0x3dc168d7	0.09443825
33	0x3ca88a90	0.020573884
34	0xbd0e5d4d	-0.034756947
35	0xbaa5ca07	-0.001264871
36	0xbd6f7cc8	-0.05846861
37	0x3dbbfbec	0.0917891
38	0xbc82e714	-0.015979327
39	0x3cef13ac	0.029184185
40	0xbd835e6a	-0.064144924
41	0xbcc19713	-0.023631608
42	0xbd39c336	-0.045352183
43	0x3d6f1863	0.058372866
44	0x3df763bb	0.12079569
45	0xbde94344	-0.11389783
46	0x3daafdfc	0.08349225
47	0x3a271120	0.0006373096
48	0x3d0ac436	0.033878528
49	0x3d9b842d	0.0759357
50	0x3daef95d	0.08543656
51	0x3d7b0258	0.061281532
52	0xbd200e38	-0.03907606
53	0xbd1f711e	-0.038926236
54	0xba34efc4	-0.0006902183
55	0xbd9ae9ac	-0.075641006
56	0xbd92d110	-0.07168782
57	0x3d0a57af	0.033775028
58	0x3cfc6b45	0.030812869
59	0xbb304ee9	-0.0026902503
60	0x3df42560	0.11921191
61	0xbde0b8fa	-0.109727815
62	0x3d49164d	0.049093533
63	0x3ca2c6aa	0.019870121
64	0x3d838c35	0.06423227
65	0x3dfab57a	0.12241645
66	0x3be47954	0.0069724713
67	0xbd1f57ba	-0.038902022
68	0xbdd8f4dc	-0.10593578
69	0x3dc96c6f	0.09835135
70	0xbd8b179c	-0.067916125
71	0xbdb05abf	-0.086110584
72	0xbd81951e	-0.0632727
73	0x3d297ce1	0.04137886
74	0x3d9b6a4c	0.07588634
75	0x3d2e6c97	0.042584028
76	0xbdf506f5	-0.119642176
77	0x3bac4d7b	0.00525826
78	0x3dc341b3	0.095340155
79	0xbbe52aa4	-0.0069936085
80	0x3dd9abad	0.10628448
81	0x3d7d23f7	0.061801877
82	0x3da855d9	0.08219499
83	0x3de01454	0.10941377
84	0xba7fe2cc	-0.00097612734
85	0x3e006fe8	0.12542689
86	0xbd32be66	-0.04363861
87	0x3dad5152	0.08462776
88	0x3c4dfe8e	0.012572898
89	0x3d8d407a	0.068970636
90	0x3c4c1061	0.012455077
91	0xbd3ae272	-0.04562611
92	0xbd7ac290	-0.061220706
93	0xbca8314b	-0.020531317
94	0x3dc3ac77	0.095543794
95	0xbda203c7	-0.07910877
96	0x3dedde39	0.11614651
97	0xbd4c1fb3	-0.04983492
98	0x3dc794d1	0.09745181
99	0xbcf952cf	-0.030434994
100	0x3dd5e196	0.10443418
101	0x3e02baf6	0.12766632
102	0xbd2dded1	-0.042448822
103	0xbd09c711	-0.03363711
104	0x3c8029c9	0.015644925
105	0xbdc50e36	-0.09621851
106	0x3db09b4c	0.086233705
107	0xbd306b17	-0.04307088
108	0x3cbc2e48	0.022971287
109	0xbda95228	-0.08267623
110	0x3cf19dbe	0.029494163
111	0xbd108b70	-0.035289228
112	0xbd22ae9f	-0.039717313
113	0xbdbd7b6b	-0.09252056
114	0x3e00826d	0.12549753
115	0xbce938a6	-0.028469395
116	0xbddff5c4	-0.10935548
117	0x3dfbd8db	0.12297221
118	0xbde40831	-0.11134375
119	0xbd632312	-0.055453368
120	0x3d4ab8aa	0.049492516
121	0x3d4c1af7	0.049830403
122	0x3d0034f5	0.031300504
123	0x3c322e55	0.010875304
124	0xbce05752	-0.027385388
125	0xbcd9bbd6	-0.026578825
126	0x3d6a20e1	0.057160262
127	0xbd915456	-0.07096164
128	0xbdf2ea20	-0.11861062
129	0x3e06ee58	0.13176858
130	0xbde4df5f	-0.11175417
131	0x3df69be5	0.12041453
132	0x3da74e3f	0.08169221
133	0xbd036e5d	-0.032087673
134	0x3df3486c	0.11879048
135	0xbd92e730	-0.07173002
136	0x3d4c54b8	0.04988548
137	0x3cd6e95d	0.026234323
138	0xbddb2d89	-0.107020445
139	0x3deaa837	0.11457866
140	0xbd519a3d	-0.051172484
141	0xbcf11479	-0.029428707
142	0x3c769f7a	0.015052671
143	0x3dd31481	0.10306645
144	0xbd1b218f	-0.0378738
145	0xbdc55a8c	-0.09636411
146	0x3d67b75a	0.056571342
147	0xbcf42661	-0.029803457
148	0x3d8aa851	0.06770385
149	0x3ae4313e	0.0017409695
150	0x3da42f8d	0.08016882
151	0xbd946c14	-0.07247177
152	0x3cfc2618	0.030779883
153	0xbdc73732	-0.097273245
154	0xbc0cf5d7	-0.008603535
155	0xbd32bd29	-0.04363743
156	0x3d122ddc	0.035688266
157	0x3d065506	0.03279593
158	0xbd8d7d92	-0.06908716
159	0x3d2a9777	0.041648354
160	0xbde4da23	-0.11174419
161	0x3db37df8	0.08764261
162	0x3caae72e	0.020862188
163	0x3c218760	0.009858936
164	0x3e08a21d	0.13343091
165	0xbd202b16	-0.03910359
166	0xbc727add	-0.014799801
167	0x3d2f484c	0.042793557
168	0xbdd4d7a7	-0.10392695
169	0xbc06e482	-0.008233191
170	0xbc7a72c4	-0.015286151
171	0x3de363bf	0.111030094
172	0x3da5bcb0	0.0809263
173	0xbda2cd39	-0.07949299
174	0xbd6f85a6	-0.058477066
175	0xbcf9b022	-0.030479494
176	0xbcd0438e	-0.025422838
177	0xbda80ffd	-0.082061745
178	0x3de775f8	0.11301798
179	0x3dd88d5f	0.105738394
180	0x3d3a4070	0.04547161
181	0x3d11a884	0.0355611
182	0xbc62ed0d	-0.013850463
183	0xbcbd83fc	-0.023134224
184	0xb9960c08	-0.00028619193
185	0x3dcbca0f	0.09950649
186	0x3cda938a	0.02668168
187	0x3d877f6c	0.06616101
188	0xbcfaae70	-0.030600756
189	0xbd4fb782	-0.050712116
190	0xbdd09c61	-0.10186077
191	0x3d17c098	0.037048906
192	0x3dce7885	0.10081581
193	0xbd57dcdb	-0.05270086
194	0x3d694fcf	0.056960877
195	0x3dae8c42	0.08522846
196	0xbcb38c51	-0.021917494
197	0xbd0b21c0	-0.033967733
198	0xbd4277cc	-0.04747753
199	0xbceff5c8	-0.029292002
200	0xbd270874	-0.040779546
201	0xbd8d5689	-0.06901271
202	0xbd9ae84b	-0.075638376
203	0x3bfd2600	0.007725477
204	0xbd9335c6	-0.07187991
205	0x3c249934	0.010046292
206	0x3dacaaca	0.08431013
207	0xbd59fda9	-0.053220425
208	0x3dc802d7	0.09766167
209	0xbc676ef4	-0.014125574
210	0xbdbb58e6	-0.091478154
211	0x3dd7a4f7	0.105295114
212	0xbc563f5a	-0.013076628
213	0xbda34996	-0.0797302
214	0xbd4f7970	-0.05065292
215	0x3df4a2e9	0.11945135
216	0xbbe50ade	-0.006989821
217	0xbd7d9960	-0.061913848
218	0x3dc9d15f	0.098543875
219	0x3d1f5936	0.038903438
220	0x3d52d6c8	0.051474363
221	0xbdeae90c	-0.114702314
222	0x3dc459d8	0.09587449
223	0x3dbc2f2f	0.09188687
224	0xbb3cf533	-0.0028832674
225	0x3d8c2bf5	0.06844322
226	0x3def3368	0.11679727
227	0x3b96854a	0.004593526
228	0x3c2337ba	0.009962017
229	0xbdb8d4d6	-0.0902497
230	0x3ddd4dc3	0.108058475
231	0x3d981e28	0.07427627
232	0xbb96f206	-0.004606488
233	0xbca4fe42	-0.02014077
234	0xbb710398	-0.0036775824
235	0x3d3b4469	0.045719538
236	0xbda32920	-0.07966828
237	0x3db21a92	0.08696474
238	0x3d0b61ab	0.03402869
239	0x3d2e8f45	0.0426171
240	0xbdeeb081	-0.11654759
241	0xbdcd82be	-0.10034703
242	0x3da6f3d5	0.08151976
243	0x3cfe4699	0.031039523
244	0x3c9354aa	0.017984707
245	0xbda005c8	-0.07813603
246	0xbd822efc	-0.06356618
247	0x3e024373	0.12721042
248	0x3d97b59e	0.074076876
249	0xbb388473	-0.0028155118
250	0x3dcf7601	0.10129929
251	0x3c11e6c8	0.00890512
252	0xbce5a433	-0.028032398
253	0x3da0ff71	0.078612216
254	0x3ca6065a	0.0202667
255	0x3d25faf5	0.040522534

fc_out.3.weight f4 [9, 1024]
0	0x3c6ed7dd	0.014577833
1	0xbd4e2c26	-0.050335072
2	0x3abad947	0.0014255428
3	0xbd0b8119	-0.034058664
4	0x3c219151	0.009861306
5	0x3c922620	0.017840445
6	0x3b445c61	0.0029962289
7	0x3d0b25eb	0.03397171
8	0xbd18d5c9	-0.037313256
9	0x3a31f32f	0.00067882513
10	0xbb68d0ea	-0.0035524913
11	0xbd03d322	-0.032183774
12	0xbb489fac	-0.003061275
13	0xbc3a66a8	-0.011377014
14	0xbcfa1ff4	-0.030532815
15	0xbd2c5d17	-0.042080965
16	0xbd0f7b9e	-0.03503
17	0x3c35c505	0.011094336
18	0x3ba656a3	0.005076246
19	0xbc21cc80	-0.009875417
20	0xbc90b4c6	-0.017664324
21	0xbc9bb6c8	-0.019008055
22	0xbbe35b3d	-0.0069383667
23	0xbc39a924	-0.01133183
24	0x3c34d7e3	0.0110377995
25	0xbd39567a	-0.045248486
26	0xbccd1260	-0.025033176
27	0x3cd1ffce	0.025634672
28	0xbbc7886c	-0.006089261
29	0x3bbf1453	0.0058312803
30	0xbc8e3f77	-0.017364247
31	0x3c873d92	0.016508851
32	0x3c907d98	0.017638013
33	0xbcd39256	-0.025826614
34	0x3b7370a8	0.0037146006
35	0xbccdd6bf	-0.025126813
36	0xbbd2fc0a	-0.006438737
37	0x3c874dc1	0.016516568
38	0x3caa4ce0	0.02078861
39	0xbceb9e9f	-0.02876216
40	0x3badd807	0.0053052935
41	0xbc0ee397	-0.008721254
42	0x3d50edad	0.051007915
43	0xbbfb0440	-0.0076604187
44	0xbb700d27	-0.0036628933
45	0x3c66f012	0.014095323
46	0xbcea6c26	-0.028616022
47	0xbd3684fd	-0.04456042
48	0xbd005f9f	-0.03134119
49	0xbc4c0c6c	-0.0124541335
50	0xbce3a096	-0.027786534
51	0x3cb29a5a	0.021802116
52	0x3d43f540	0.04784131
53	0xbc8f55fe	-0.017497059
54	0x3d036ce7	0.03208628
55	0x3c21428c	0.009842526
56	0xbd4743ad	-0.048648525
57	0x39e4e407	0.00043657442
58	0xbba5e4fa	-0.0050626965
59	0x3c930430	0.017946333
60	0xbca5ec4e	-0.02025428
61	0xbc2bf8c6	-0.010496324
62	0x3c501757	0.012700877
63	0x3c7b0c19	0.0153227085
64	0x3cb554dd	0.022135193
65	0xbbf597af	-0.0074948887
66	0xbcb31164	-0.021858878
67	0xbc4c41c4	-0.012466852
68	0x3897fdaf	7.247493e-05
69	0x3d16a237	0.036775794
70	0xbcb7206a	-0.022354323
71	0xbd050cec	-0.032483026
72	0x3cd4eefc	0.025992863
73	0x3ba25dc9	0.0049550277
74	0xbd05cd48	-0.032666475
75	0x3cd63664	0.026148982
76	0xbd13646a	-0.035984434
77	0xbbbedb28	-0.0058244653
78	0x3bf789f9	0.0075542894
79	0x3c5d571b	0.013509537
80	0x3b897b72	0.004195624
81	0xbcb5190c	-0.02210667
82	0x3a90f28b	0.0011058612
83	0x3c23c200	0.009994984
84	0x3c5a4802	0.013322832
85	0x3af50938	0.0018694764
86	0x3c690857	0.01422318
87	0x3ce8399c	0.028347783
88	0xbc11e518	-0.008904718
89	0xbc9278e0	-0.017879903
90	0xbcbcb3f2	-0.023035023
91	0x3c7e7f5e	0.015533296
92	0xbc8ad295	-0.016946116
93	0x3cb3e4e3	0.021959728
94	0x3c0704cd	0.008240891
95	0xbd346e26	-0.04405036
96	0xba21566a	-0.00061545393
97	0x3b0ad67c	0.0021184972
98	0xbc22c94c	-0.009935688
99	0xbb694d1c	-0.003559894
100	0x3cf0a0ed	0.02937361
101	0x3cde0d68	0.027106002
102	0x3ce9d595	0.028544227
103	0x3cfe1bf0	0.031019181
104	0xbc1b727a	-0.009487743
105	0xbbbcb40c	-0.005758768
106	0x3b816f3a	0.003950027
107	0xbc086f15	-0.008327265
108	0x3cdcde8d	0.02696159
109	0xbcd337e2	-0.025783483
110	0x3d0c1065	0.034195323
111	0x3cc99010	0.024604827
112	0xbc4089b4	-0.011751581
113	0x3bb75a3f	0.005595475
114	0x3b868130	0.004104756
115	0x3c2a474d	0.010392976
116	0xbcc6fa2c	-0.024289213
117	0xbc416e1f	-0.01180604
118	0xbd1a4f6f	-0.03767341
119	0xbc591b62	-0.0132511575
120	0xbcc18288	-0.023621812
121	0x3c99d63e	0.018778916
122	0xbcb7ac40	-0.022421002
123	0x3d00b60a	0.031423606
124	0x3c9864c0	0.018602729
125	0xbcc7868b	-0.024356147
126	0x3c9fa17a	0.019486178
127	0xbc014d59	-0.007891976
128	0xbbf08b5b	-0.007340831
129	0x3d16541b	0.036701303
130	0xbba85aad	-0.0051377625
131	0x3c179ff5	0.009254445
132	0xbb86b6cb	-0.004111146
133	0xbc986e67	-0.018607331
134	0xbca07ad9	-0.019589828
135	0xbc80dab1	-0.01572928
136	0xbc64bab0	-0.013960525
137	0x3b8d8499	0.0043187854
138	0xbc7e0fdc	-0.015506711
139	0xbc93eb0a	-0.018056411
140	0xbd24f086	-0.040268444
141	0x3c1d617f	0.009605764
142	0x3cbd60f5	0.023117522
143	0xbc325a5d	-0.010885802
144	0x3d02dd8d	0.03194957
145	0x3cef10aa	0.02918275
146	0xbd2ff0ba	-0.042954184
147	0xbcfc6181	-0.030808212
148	0xbc92364a	-0.017848153
149	0x3989d224	0.00026287243
150	0x3cb705f4	0.022341706
151	0xbc0e47ae	-0.008684082
152	0xbc2fb343	-0.010723892
153	0xbc3722bb	-0.011177714
154	0xbce11540	-0.027475953
155	0xbc8c2a28	-0.017109945
156	0xbcce66be	-0.025195476
157	0xbcdfb753	-0.027309095
158	0xbbc41033	-0.0059833764
159	0x3ba18f91	0.0049304445
160	0x3d153890	0.036430895
161	0xbbc95053	-0.0061436086
162	0x3c5304af	0.012879535
163	0xbc891acf	-0.016736416
164	0xb85eca6f	-5.3117456e-05
165	0x3c54a7aa	0.012979427
166	0xbb482e68	-0.0030545238
167	0x3d2084d3	0.03918917
168	0xbd000919	-0.031258676
169	0x3d013c35	0.03155156
170	0x3d2ba093	0.041901182
171	0x3ccd20f9	0.025040137
172	0x3d00e8dc	0.031472072
173	0xbc48bf05	-0.012252574
174	0x3b431861	0.002976917
175	0x3cc5418b	0.024079105
176	0xbcd8541b	-0.026407292
177	0xbd0eef05	-0.034895916
178	0x3d056a5a	0.032572128
179	0xbc1c6f80	-0.009548068
180	0xbb9e63ef	-0.0048336904
181	0xbc079d4f	-0.008277251
182	0xbc569cc4	-0.013098899
183	0xbd16cec4	-0.03681828
184	0xbc224d41	-0.009906114
185	0x3d012814	0.031532362
186	0x3bf42701	0.0074509387
187	0xbd1861e6	-0.03720274
188	0xbc1ae2f6	-0.009453526
189	0x3c14f1db	0.009090866
190	0x3c430927	0.011904038
191	0xbcf4b643	-0.029872065
192	0xbb8c08cd	-0.00427351
193	0xbd097853	-0.033562016
194	0xbc3d96aa	-0.011571566
195	0x3c26db01	0.010184051
196	0xbbb21bc1	-0.0054354374
197	0x3be99421	0.007128254
198	0x3af8a4c7	0.0018970006
199	0xbd615215	-0.05500992
200	0x3ce2a069	0.02766438
201	0xbc9b62dc	-0.018968038
202	0x3cd68c55	0.026189962
203	0xbc2cd2e7	-0.01054833
204	0x3c85b8f5	0.016323546
205	0xbbbc8000	-0.0057525635
206	0x3c112bc9	0.008860537
207	0x3c80c278	0.01571773
208	0x3cf6838e	0.030092027
209	0x3c088f11	0.008334891
210	0x3c107e87	0.008819229
211	0xbc368958	-0.011141144
212	0xbb1e952e	-0.0024197805
213	0x3d1d206d	0.038361
214	0x3917027b	0.00014401406
215	0xbc022acb	-0.007944773
216	0x3ca836cd	0.020533944
217	0x3d51deae	0.051237755
218	0x3cb3f7d9	0.021968769
219	0xbbb7a81f	-0.0056047584
220	0x3cee777b	0.029109707
221	0x3b832ddd	0.00400327
222	0x3d12761c	0.03575717
223	0xbcb77bc7	-0.022397889
224	0x3b402ac4	0.0029322365
225	0x3b80b584	0.0039278883
226	0x3c9f3eeb	0.019439181
227	0x3bad3d1d	0.0052868263
228	0x3d116183	0.035493385
229	0x3c12420e	0.0089268815
230	0xbc31e0f0	-0.010856852
231	0x3c052a84	0.008127812
232	0xbd328aa1	-0.043589238
233	0xbc674d10	-0.014117494
234	0x3ce9898d	0.028507972
235	0xbd3401ed	-0.04394715
236	0x3d5abf4e	0.0534051
237	0x3c62323b	0.013805921
238	0xbb478575	-0.0030444537
239	0xbc417e32	-0.011809872
240	0xbd179789	-0.03700975
241	0x39ecb730	0.00045149913
242	0xbcaebfed	-0.021331752
243	0xbc24c8d5	-0.010057648
244	0xbadc9672	-0.0016829504
245	0x3ca852d6	0.020547312
246	0xba19a89d	-0.0005861612
247	0xbc3aa776	-0.011392465
248	0x3b2933a4	0.0025818134
249	0x3b47959f	0.0030454171
250	0xbaddeac0	-0.0016930923
251	0x3aec7b12	0.0018042049
252	0xbb9f8483	-0.0048680915
253	0x3c68a585	0.014199619
254	0xbbd1464e	-0.006386555
255	0x3bc0c1a5	0.005882459

fc_out.3.bias f4 [9]
0	0xbb5ea870	-0.0033974908
1	0x3a0f6016	0.0005469335
2	0x397dc15f	0.00024199997
3	0x3a3b6dfc	0.0007149873
4	0xbcbae603	-0.022814756
5	0x3cc160a0	0.023605645
6	0xbc4ae8eb	-0.0123846335
7	0x3c795384	0.015217666
8	0x3ce332ec	0.027734242
