6/last_model.pth (torch, 572139 bytes, 10 tensors)

conv1.0.weight f4 [16, 3, 5, 5]
-0.12584195 0.12659626 -0.10185895 0.09930805 -0.0947875 -0.02344854 0.13309525 -0.01851379
0.01497399 -0.013685576 -0.09280818 0.1157039 -0.105442695 0.09717019 0.09262487 0.033889186
-0.058828913 -0.12825525 -0.079132 0.071995996 -0.009613852 -0.026677487 -0.14566298 -0.1011367
0.11618494 -0.056465663 0.060536955 -0.04019189 -0.08034356 -0.06865112 0.04531505 0.12998469
-0.03955624 -0.12203119 -0.027389018 0.016471922 -0.0047071585 -0.022725424 -0.12845276 0.0005896084
-0.05867446 0.07093445 -0.025727754 0.06590865 -0.049911514 -0.011676781 0.024703495 0.011353686
-0.07073683 -0.026613802 -0.13866325 0.0037194507 0.037284765 0.10120632 -0.03809293 -0.084843464
0.105341755 0.046108615 0.038234577 -0.11799946 -0.03787374 0.021370864 0.050207034 -0.042176604
-0.09855843 0.009979215 0.030279147 -0.1404989 -0.073156014 0.1524591 -0.06927486 0.032217834
-0.1611806 -0.157975 0.13275361 0.030245379 -0.03862446 -0.14960329 -0.02499705 -0.023055179
0.0691965 0.044717684 0.049597725 0.10556486 -0.055214964 0.08734313 -0.042561937 -0.112611026
-0.039139986 -0.052157823 -0.063490935 -0.06219792 0.0289214 -0.06436297 -0.1610203 -0.0019724765
-0.15429148 -0.044339985 0.0037245813 0.07555546 0.043378957 -0.09636 -0.096456215 0.01778583
-0.016476972 -0.05587305 0.08080476 0.059278734 0.014040724 0.00674985 0.022112906 -0.023356011
-0.03399764 -0.14531198 0.011362393 -0.044494867 -0.0073537547 -0.09653415 0.052299183 -0.1223604
-0.116062686 0.059137885 0.0062316954 0.004033494 0.06514268 0.019143613 -0.04167719 0.012594515
0.06877939 -0.03793927 0.09384644 0.050795097 0.08461993 0.088949606 0.10175618 -0.050178006
0.09089016 -0.09153049 0.031956714 0.08289348 -0.03708045 0.119406775 0.069858484 -0.0043920777
-0.041792523 -0.018747624 0.08395479 -0.010226346 0.098926604 0.1127544 0.012583026 0.11605199
0.065520525 0.014136446 -0.09427855 0.09039799 0.08942424 0.04201256 -0.0010886827 0.01969362
0.0076087783 0.027928656 0.083535925 -0.04197898 0.06251832 -0.08925984 -0.06504129 -0.023103034
-0.06526061 -0.08586683 0.04239277 0.060777985 -0.11345495 -0.002282486 -0.010852739 0.008413357
-0.04965476 -0.053323645 -0.10208922 -0.10685755 0.06586384 0.03899709 -0.055638265 -0.052066557
-0.046278257 -0.07726039 0.02186372 0.01344521 -0.0035522392 0.03631275 -0.032188218 -0.09969196
-0.101572335 -0.10462176 0.023791691 -0.024760993 -0.10467412 0.053374913 0.12353769 0.02947682
0.06546149 0.040133245 -0.02499773 -0.10449285 -0.15543939 0.057328455 -0.09198316 0.043533463
0.007344913 0.014729397 -0.007876918 0.05790481 0.030830745 0.0040509934 -0.005052235 -0.0044002654
-0.011554975 -0.06982715 -0.07931954 -0.07704448 0.03312339 -0.022597313 0.039824404 -0.14018181
0.026162492 -0.059063908 -0.119552344 0.06259261 -0.0035701136 0.09047536 0.05008496 0.01976229
0.025919523 0.09737077 -0.04798742 0.053698763 0.0011225205 -0.007829897 -0.102798834 0.10754852
-0.12204632 -0.05721658 -0.06795649 -0.14731017 0.13531213 -0.036927342 -0.019886313 -0.11611417
-0.0956728 -0.0050135865 -0.023922313 -0.07132318 -0.06675046 0.04286112 -0.12864143 0.07163621
00000000: b6dc 00be 73a2 013e 6d9b d0bd 0562 cb3d
00000010: f31f c2bd 2717 c0bc 1f4a 083e 3baa 97bc
00000020: 7755 753c 7739 60bc 3712 bebd 2bf6 ec3d
00000030: 57f2 d7bd 2a01 c73d 1cb2 bd3d 63cf 0a3d
00000040: 96f6 70bd 5855 03be f50f a2bd a372 933d
00000050: 6b83 1dbc bf8a dabc ad28 15be c220 cfbd
00000060: 5ff2 ed3d 8a48 67bd 99f5 773d 40a0 24bd
00000070: 2a8b a4bd f598 8cbd 469c 393d b51a 053e
00000080: b905 22bd 7deb f9bd ef5e e0bc 20f0 863c
00000090: 823e 9abb ab2a babc 1f89 03be f38f 1a3a
000000a0: a154 70bd 1546 913d 03c3 d2bc 1dfb 863d
000000b0: 0470 4cbd f84f 3fbc fc5e ca3c d004 3a3c
000000c0: 79de 90bd 3005 dabc bdfd 0dbe 07c2 733b
000000d0: e9b7 183d 4245 cf3d 5507 1cbd 69c2 adbd
000000e0: 6bbd d73d 63dc 3c3d dc9b 1c3d b3a9 f1bd
000000f0: 7f21 1bbd f311 af3c e4a5 4d3d 60c1 2cbd
00000100: 01d9 c9bd dd7f 233c f90b f83c f2de 0fbe
00000110: d2d2 95bd 3d1e 1c3e fadf 8dbd d9f6 033d
00000120: 870c 25be 33c4 21be 90f0 073e 28c5 f73c
00000130: af34 1ebd 9b31 19be 9dc6 ccbc 37de bcbc
00000140: e5b6 8d3d e429 373d fc26 4b3d 6432 d83d
00000150: 1629 62bd f4e0 b23d 6d55 2ebd 9ca0 e6bd
00000160: 4051 20bd 71a3 55bd 8907 82bd 3fc3 7ebd
00000170: 92ec ec3c bcd0 83bd 81e2 24be aa44 01bb
00000180: 96fe 1dbe d89d 35bd 1b18 743b d2bc 9a3d
00000190: 22ae 313d 6458 c5bd d68a c5bd 97b3 913c
000001a0: b7fa 86bc 24db 64bd f77c a53d 42ce 723d
000001b0: 110b 663c d92d dd3b 2026 b53c 1b55 bfbc
000001c0: 1c41 0bbd aacc 14be 5529 3a3c 4040 36bd
000001d0: c4f7 f0bb b2b3 c5bd ab37 563d 1798 fabd
000001e0: 46b2 edbd 913a 723d 4033 cc3b 662b 843b
000001f0: 8769 853d 11d3 9c3c b4b5 2abd 3a59 4e3c
00000200: 35dc 8c3d 3566 1bbd 9032 c03d 850e 503d
00000210: 374d ad3d 362b b63d 8b65 d03d 7487 4dbd
00000220: 9f24 ba3d 5674 bbbd 0be5 023d 0fc4 a93d
00000230: ace1 17bd 8a8b f43d f711 8f3d 6beb 8fbb
00000240: a32e 2bbd 9e94 99bc 7df0 ab3d 678c 27bc
00000250: 089a ca3d c7eb e63d 0929 4e3c aaac ed3d
00000260: a02f 863d 8d9c 673c 1d15 c1bd 9522 b93d
00000270: 0e24 b73d 5d15 2c3d 21b2 8eba 8454 a13c
00000280: 0f53 f93b a3ca e43c e214 ab3d 27f2 2bbd
00000290: 9b09 803d ddcd b6bd 5e34 85bd 9342 bdbc
000002a0: 5ba7 85bd f3da afbd 0ba4 2d3d 56f2 783d
000002b0: 125b e8bd c395 15bb b0cf 31bc 2dd8 093c
000002c0: ca62 4bbd e569 5abd 2714 d1bd 22d8 dabd
000002d0: 9fe3 863d 6abb 1f3d f3e4 63bd be43 55bd
000002e0: 458e 3dbd b23a 9ebd 8b1b b33c 4c49 5c3c
000002f0: afcc 68bb aebc 143d cbd7 03bd 4c2b ccbd
00000300: 2805 d0bd ef43 d6bd cbe6 c23c 91d7 cabc
00000310: 635f d6bd a79f 5a3d 5401 fd3d 5f79 f13c
00000320: ac10 863d c262 243d 0ac8 ccbc 5900 d6bd
00000330: 812b 1fbe 3ed1 6a3d ab61 bcbd 2550 323d
00000340: 99ad f03b 9253 713c 300e 01bc 982d 6d3d
00000350: c290 fc3c 32be 843b 388d a5bb 1a30 90bb
00000360: 1451 3dbc 8901 8fbd 4872 a2bd 7fc9 9dbd
00000370: 64ac 073d 001e b9bc ea1e 233d d28b 0fbe
00000380: b952 d63c ffec 71bd dcd7 f4bd 8e30 803d
00000390: 91f8 69bb 254b b93d e325 4d3d 87e4 a13c
000003a0: 2e55 d43c 546a c73d 758e 44bd 3cf3 5b3d
000003b0: 8a21 933a f848 00bc 3288 d2bd 6642 dc3d
000003c0: 6cf3 f9bd ef5b 6abd c62c 8bbd 7ad8 16be
000003d0: 438f 0a3e 2041 17bd 9fe8 a2bc 44cd edbd
000003e0: 1af0 c3bd 0349 a4bb baf8 c3bc e311 92bd
000003f0: 77b4 88bd 248f 2f3d 94ba 03be 01b6 923d

conv1.0.bias f4 [16]
-0.002527275 -0.06761792 0.026101923 -0.012014165 0.059710525 -0.12192964 -0.105963595 -0.086137116
-0.06854452 0.06265506 0.004828531 -0.020270454 0.057851724 -0.111375 0.058092907 -0.054484967
00000000: a3a0 25bb 447b 8abd b3d3 d53c 0fd7 44bc
00000010: 0693 743d 3fb6 f9bd 7103 d9bd a868 b0bd
00000020: 1261 8cbd 4c51 803d a738 9e3b 390e a6bc
00000030: eef5 6c3d 9318 e4bd d4f2 6d3d a12b 5fbd

conv2.0.weight f4 [32, 16, 5, 5]
0.02211112 0.07619054 -0.03745894 -0.07575786 -0.068827756 -0.04854721 -0.023668554 -0.077933855
-0.082751095 -0.055910792 0.021600308 -0.01987992 -0.04138928 -0.062732056 0.03338525 0.0295168
-0.012784556 -0.002328912 0.023679007 -0.04802741 0.029241296 0.053021602 -0.041516315 0.059833158
0.055971935 0.037530433 -0.05591568 0.036432415 -0.042744093 -0.09196163 0.039113592 0.070493974
0.015302381 -0.04660648 0.002515879 -0.0657039 0.07002873 -0.029579397 -0.04163567 -0.11577046
-0.064013384 -0.022412978 0.012961835 0.039200358 -0.03822779 0.045320526 0.0028703907 -0.01191331
0.029147003 -0.020550167 -0.02502238 0.042210497 0.020431338 -0.089436896 -0.04947446 -0.03409104
0.052795473 -0.008306937 -0.048611462 -0.048863363 0.011512716 -0.032087997 -0.019321864 -0.08059244
-0.0045466996 0.040065814 0.0067146206 -0.028428564 -0.067603976 -0.071222946 0.015036929 0.060192894
-0.028357672 -0.0153411655 -0.018675096 -0.0012457083 -0.027080378 -0.029472426 -0.00010163207 -0.03356996
0.005202321 -0.030854182 -0.04397571 -0.006702708 0.0072165704 -0.040059533 0.027093373 -0.10070572
-0.00629827 0.060542017 0.03668558 -0.015061 -0.056770857 0.017846411 -0.09055425 0.12359011
0.013072646 0.044551358 0.011762887 -0.024152895 0.067112185 0.020269267 -0.013523642 -0.07981369
-0.11872698 -0.01613149 0.0008537564 -0.08288937 -0.019302772 -0.048641358 -0.011068549 -0.039880205
-0.07683939 0.0693763 -0.023467917 -0.0075419736 -0.026342785 -0.017899878 -0.012176765 -0.0235895
0.03083876 -0.028206093 0.058355525 -0.08746602 0.083026715 0.018708548 0.016816167 -0.07703004
-0.033011213 -0.06667729 -0.09155105 -0.0168815 -0.050395597 -0.037947588 -0.049255632 0.02968776
-0.04724043 0.022251023 0.002404521 0.05213607 0.059463814 -0.0106020365 0.009429678 0.06040759
-0.0043382244 -0.05317416 -0.01505348 -0.040680695 -0.04909726 -0.04300272 0.039494745 -0.009116485
0.009862225 0.009763018 -0.06768296 0.040783815 0.016588485 0.0543221 -0.017145269 -0.039743293
-0.0048349807 0.012686803 0.10715747 -0.10128253 0.04453558 -0.026174378 0.0315842 -0.028658995
-0.04842001 -0.0096926885 0.0017575113 0.03765239 0.03770664 0.0084235035 -0.06165522 0.018078577
-0.04490752 -0.01543797 -0.02820974 -0.08987416 0.030801794 -0.03185473 -0.03528792 -0.037723318
-0.013830506 -0.0066854185 0.029014401 -0.057629023 -0.060065564 0.0083480235 -0.032355774 -0.04513239
-0.04070037 -0.05449337 0.040139873 0.013124437 0.06832288 0.009973548 0.019949812 -0.0034725145
-0.045218416 0.023207167 -0.006822227 0.03659324 -0.021109007 -0.040186603 0.04139738 -0.056221105
0.0013315426 0.04501496 0.03802126 -0.0069906763 -0.050133903 0.05936477 0.03736982 0.0017791622
-0.025944779 -0.03998706 0.08241897 -0.0076402044 0.08586593 -0.0035683361 0.07148046 0.022160765
-0.06509028 -0.03893848 -0.038893618 0.017846229 -0.041232165 -0.0566072 -0.016515812 -0.004585596
-0.030283049 -0.08559771 0.005084014 -0.0080567375 0.04179487 -0.04463301 -0.062103387 -0.038165484
-0.03975187 0.008785189 0.06398696 0.022683475 0.024921907 0.035371043 -0.039174017 -0.034715068
-0.066551834 -0.030052323 0.005666497 0.11654242 0.035772096 -0.047238387 -0.084297165 -0.07157557
00000000: 6122 b53c c909 9c3d 8c6e 19bd f026 9bbd
00000010: 91f5 8cbd 70d9 46bd 8ee4 c1bc c99b 9fbd
00000020: 6879 a9bd b702 65bd 21f3 b03c 37db a2bc
00000030: ce87 29bd aa79 80bd f9be 083d 37cd f13c
00000040: 5076 51bc a9a0 18bb 7afa c13c 64b8 44bd
00000050: 718b ef3c 2e2d 593d 030d 2abd 9d13 753d
00000060: d442 653d 83b9 193d d707 65bd 283a 153d
00000070: 6e14 2fbd 6156 bcbd 9335 203d 255f 903d
00000080: d6b6 7a3c 70e6 3ebd 72e1 243b c48f 86bd
00000090: 396b 8f3d 7e50 f2bc 2a8a 2abd 1019 edbd
000000a0: 7319 83bd 6c9b b7bc e05d 543c 8e90 203d
000000b0: be94 1cbd 04a2 393d 2a1d 3c3b 0b30 43bc
000000c0: b2c5 ee3c d358 a8bc bcfb ccbc eae4 2c3d
000000d0: 9f5f a73c b12a b7bd bba5 4abd 0ca3 0bbd
000000e0: 1140 583d d219 08bc d01c 47bd f324 48bd
000000f0: d59f 3c3c b46e 03bd e348 9ebc a60d a5bd
00000100: 7bfc 94bb 0d1c 243d 5206 dc3b 05e3 e8bc
00000110: f473 8abd 56dd 91bd 745d 763c d38c 763d
00000120: 594e e8bc 8359 7bbc 84fc 98bc 0947 a3ba
00000130: abd7 ddbc 2870 f1bc 4d23 d5b8 a880 09bd
00000140: 3b78 aa3b e9c1 fcbc e01f 34bd 64a2 dbbb
00000150: fb78 ec3b 7715 24bd ecf2 dd3c cd3e cebd
00000160: b861 cebb e8fa 773d 9e43 163d 6ac2 76bc
00000170: 8f88 68bd a332 923c 8274 b9bd d01c fd3d
00000180: a72e 563c 7c7b 363d 20b9 403c 4bdc c5bc
00000190: 1d72 893d bc0b a63c 4492 5dbc 5c75 a3bd
000001a0: 2227 f3bd 3026 84bc 9fce 5f3a e7c1 a9bd
000001b0: d920 9ebc 293c 47bd dc58 35bc 6d59 23bd
000001c0: f85d 9dbd 2915 8e3d ca3f c0bc a922 f7bb
000001d0: d3cc d7bc c4a2 92bc 0e81 47bc c43e c1bc
000001e0: 91a1 fc3c 7710 e7bc 3406 6f3d 6221 b3bd
000001f0: e909 aa3d ab42 993c 0fc2 893c edc1 9dbd
00000200: c436 07bd 1a8e 88bd 1e7f bbbd 124b 8abc
00000210: 9d6b 4ebd ee6e 1bbd 46c0 49bd bf33 f33c
00000220: 2e7f 41bd c747 b63c 2b95 1d3b a28c 553d
00000230: 5490 733d 2ab4 2dbc f07e 1a3c f36d 773d
00000240: aa27 8ebb 26cd 59bd dfa2 76bc cda0 26bd
00000250: 351a 49bd 9f23 30bd 3ec5 213d 4f5d 15bc
00000260: 2b95 213c 11f5 1f3c 5d9d 8abd ee0c 273d
00000270: 93e4 873c da80 5e3d 3c74 8cbc ddc9 22bd
00000280: c26e 9ebb 4fdc 4f3c 6075 db3d 376d cfbd
00000290: f16a 363d a66b d6bc 6f5e 013d 45c6 eabc
000002a0: 0f54 46bd 15ce 1ebc 4b5c e63a 6439 1a3d
000002b0: 4772 1a3d bc02 0a3c 2f8a 7cbd 8619 943c
000002c0: f3f0 37bd 8aef 7cbc 1d18 e7bc f20f b8bd
000002d0: 0b54 fc3c 1b7a 02bd 118a 10bd c483 1abd
000002e0: 5999 62bc 5b11 dbbb 9caf ed3c 690c 6cbd
000002f0: 4f07 76bd 26c6 083c 7d87 04bd bedc 38bd
00000300: 6eb5 26bd 7134 5fbd b569 243d e107 573c
00000310: deec 8b3d 1868 233c ca6d a33c 2093 63bb
00000320: f236 39bd f51c be3c fd8c dfbb cbe2 153d
00000330: ccec acbc b59a 24bd 4d90 293d 1a48 66bd
00000340: 2887 ae3a 9b61 383d 2ebc 1b3d 0b12 e5bb
00000350: 3559 4dbd 7928 733d 1911 193d c732 e93a
00000360: 258a d4bc 79c9 23bd 47cb a83d ae5a fabb
00000370: 7ada af3d bfda 69bb 5964 923d 7e8a b53c
00000380: 0d4e 85bd f57d 1fbd ea4e 1fbd 4132 923c
00000390: 0fe3 28bd f4dc 67bd 2b4c 87bc c442 96bb
000003a0: 2814 f8bc da4d afbd cd97 a63b 6800 04bc
000003b0: 1931 2b3d 1ad1 36bd 1f60 7ebd 6953 1cbd
000003c0: dbd2 22bd c1ef 0f3c 980b 833d b2d2 b93c
000003d0: 0729 cc3c 3ae1 103d ef74 20bd 6331 0ebd
000003e0: 544c 88bd 4a30 f6bc 06ae b93b cbad ee3d
000003f0: c385 123d 0a7d 41bd fea3 acbd 3696 92bd

conv2.0.bias f4 [32]
0.010924918 -0.00044738007 -0.0018205225 -0.06860036 -0.0086443 0.0155352065 -0.033686772 -0.019503612
0.018403033 -0.034672685 -0.023697618 0.023173293 0.003072902 -0.03461272 -0.007001077 -0.019535402
-0.021028966 0.00092324615 -0.019834192 -0.029355109 -0.013464658 0.02285732 -0.034574 -0.0009817389
0.025538772 0.0070197894 -0.031354256 -0.040519398 -0.067546725 0.008283471 0.022981184 -0.021396497
00000000: 6dfe 323c 568e eab9 999e eeba 587e 8cbd
00000010: d2a0 0dbc 6187 7e3c 24fb 09bd 0ac6 9fbc
00000020: f5c1 963c f204 0ebd 8221 c2bc ebd5 bd3c
00000030: be62 493b 11c6 0dbd 4a69 e5bb b508 a0bc
00000040: f044 acbc 0006 723a 517b a2bc 207a f0bc
00000050: de9a 5cbc 463f bb3c 779d 0dbd b1ad 80ba
00000060: b036 d13c 4306 e63b 526d 00bd abf7 25bd
00000070: f055 8abd 65b7 073c 0943 bc3c b547 afbc

conv3.0.weight f4 [64, 32, 5, 5]
0.028257893 0.043024972 -0.030424546 0.061663203 0.07566706 0.02793431 -0.009861193 -0.031635914
0.0007369106 -0.0042732214 -0.016116539 0.029707242 -0.06538621 0.039459374 -0.06403709 -0.03484754
0.0044900654 0.012278881 -0.008215882 -0.039822403 0.0539182 -0.012185559 -0.03717614 -0.07267139
-0.05582393 0.051564958 -0.024108194 0.023652589 0.017839655 0.0027790372 0.023591323 0.0251813
-0.036735807 -0.010964544 0.0020724623 0.022970812 -0.0047375243 -0.007541184 -0.04869493 0.018179543
-0.0062292013 0.019474182 -0.0056848484 0.021103732 0.043802097 -0.015150258 0.00031409395 -0.0117522655
-0.009638159 0.03635382 0.00996819 -0.008925173 0.03095161 0.008452256 0.008194135 0.043043394
0.0191117 -0.04692734 -0.011382916 0.007495687 -0.046941314 -0.03151743 0.0013507818 0.033104923
-0.035241105 0.034209497 0.04273384 -0.034739785 0.005674675 7.085947e-05 -0.036626928 0.00924744
-0.036760837 -0.018951485 -0.00648579 0.0029865112 0.020691551 -0.019138059 0.00528835 0.030341826
-0.03261809 0.0087603275 -0.03853118 0.04713901 0.033304717 0.012504119 0.026892224 0.035539683
-0.011448066 -0.042576704 -0.029465586 -0.027654713 -0.0031550957 0.02190001 0.041080676 -0.021224558
-0.05161535 0.02924 -0.014979774 -0.013020448 0.014259492 0.0037410413 -0.040851463 -0.014166005
0.040079772 -0.050252523 0.02568848 -0.029577848 -0.042937193 0.018508483 -0.009967108 0.041791655
0.025752913 -0.036689386 0.019369867 0.00607086 0.04707035 -0.070633784 -0.022907428 -0.0057829143
-0.03381206 -0.0055189873 -0.020716306 -0.009083708 -0.016952103 0.024100345 0.000100601275 0.0048557897
-0.017725056 -0.027428584 0.0014520345 0.07031792 0.015216294 -0.02283379 0.0071688564 -0.017908331
0.002709437 -0.018864745 0.025062174 -0.028994035 -0.015107831 0.0011190291 0.0069820033 -0.010565425
-0.0036633012 0.08146958 0.034017622 -0.009561807 0.015216403 0.017630683 -0.025648834 0.040995065
0.0049565616 0.040372595 0.033064228 -0.02005166 -0.016458292 -0.030710977 0.00276216 -0.024449842
0.036157344 0.0044781333 0.058152273 0.021702405 0.04011915 -0.03974275 0.087026946 0.015563928
0.031588048 -0.019899102 0.011272197 0.0036546225 -0.0035487954 -0.014686438 0.074209206 0.06280906
0.011273764 0.012099145 0.070134714 -0.017793868 0.01883143 0.01339065 0.015947912 -0.012342
-0.004925593 0.011888419 0.061776318 -0.029581677 -0.045445338 -0.014583866 -0.070935756 -0.016646821
0.009297671 0.047726687 -0.023553042 0.00080921035 -0.035390493 -0.017933723 0.023957614 -0.006023922
0.0046143034 0.019022295 -0.03491543 0.029162355 -0.02118792 0.002659951 -0.010957166 -0.026371479
0.025815185 -0.018241163 0.038284604 0.010055384 0.050162323 0.016949503 0.030948536 -0.014109582
-0.062366966 -0.0043372875 -0.0075964495 0.028421478 0.011121816 0.018072922 0.01323679 -0.02738254
-0.0025018975 -0.04035669 0.045734745 -0.020786647 0.04601766 0.0040224274 0.054223165 -0.051817406
0.03208185 -0.008312491 -0.0038551916 -0.0033939106 0.039040748 -0.055492308 -0.004342406 -0.016770918
0.0016545784 0.034840286 0.040606126 0.005734047 -0.024045099 -0.06389203 -0.015891163 0.015576841
-0.0019613707 -0.036024768 0.0017709701 0.045006663 -0.05658991 0.009505484 0.015883682 0.007091073
00000000: 197d e73c f43a 303d e63c f9bc 8e92 7c3d
00000010: 55f7 9a3d 7ed6 e43c d790 21bc a994 01bd
00000020: 3c2d 413a 6106 8cbb d506 84bc 9a5c f33c
00000030: 35e9 85bd 27a0 213d e125 83bd 4bbc 0ebd
00000040: 6621 933b 5c2d 493c e89b 06bc d11c 23bd
00000050: 55d9 5c3d f0a5 47bc 0246 18bd bdd4 94bd
00000060: a2a7 64bd c735 533d 8c7e c5bc 13c3 c13c
00000070: 7824 923c 8220 363b 9742 c13c 0349 ce3c
00000080: 4978 16bd a1a4 33bc 26d2 073b 492d bc3c
00000090: 3c3d 9bbb 091c f7bb 5674 47bd 44ed 943c
000000a0: 541e ccbb 5288 9f3c f747 babb bce1 ac3c
000000b0: d469 333d ca38 78bc faac a439 938c 40bc
000000c0: 5ee9 1dbc bee7 143d 9f51 233c e43a 12bc
000000d0: 3b8e fd3c 557b 0a3c b140 063c 454e 303d
000000e0: 2490 9c3c e236 40bd 697f 3abc 619e f53b
000000f0: 8945 40bd 6c18 01bd b70c b13a 0799 073d
00000100: fa58 10bd 421f 0c3d ae09 2f3d 4e4b 0ebd
00000110: a0f2 b93b 639a 9438 1e06 16bd 9382 173c
00000120: 8892 16bd 2540 9bbc c086 d4bb 58b9 433b
00000130: 5481 a93c 6bc7 9cbc e549 ad3b 6c8f f83c
00000140: 8c9a 05bd 7a87 0f3c dfd2 1dbd d614 413d
00000150: 876a 083d 14de 4c3c 154d dc3c 0f92 113d
00000160: ab90 3bbc e964 2ebd d061 f1bc 238c e2bc
00000170: b9c5 4ebb a667 b33c 3644 283d 20df adbc
00000180: 9e6a 53bd b988 ef3c ba6d 75bc b853 55bc
00000190: a5a0 693c 422c 753b dd53 27bd 8818 68bc
000001a0: b02a 243d 97d5 4dbd a670 d23c 3e4d f2bc
000001b0: e9de 2fbd 1a9f 973c 154d 23bc ba2d 2b3d
000001c0: c6f7 d23c 9c47 16bd 8ead 9e3c 11ee c63b
000001d0: d7cc 403d 72a8 90bd 5ca8 bbbc 9a7e bdbb
000001e0: 847e 0abd 9fd8 b4bb 3eb5 a9bc d5d3 14bc
000001f0: 23df 8abc 166e c53c e6f9 d238 511d 9f3b
00000200: 2334 91bc e9b1 e0bc 3152 be3a d702 903d
00000210: c34d 793c ee0d bbbc bae8 ea3b 7eb4 92bc
00000220: cf90 313b 3d8a 9abc 304f cd3c e684 edbc
00000230: d686 77bc 63ac 923a 4ac9 e43b 9b1a 2dbc
00000240: ff13 70bb 86d9 a63d 1056 0b3d 20a9 1cbc
00000250: 384e 793c 396e 903c 811d d2bc 71ea 273d
00000260: a76a a23b bc5d 253d 5b6e 073d 6143 a4bc
00000270: 8ad3 86bc 9695 fbbc 5b05 353b 094b c8bc
00000280: b919 143d 4ebd 923b 1431 6e3d 3ec9 b13c
00000290: fa53 243d 4bc9 22bd 2f3b b23d d8ff 7e3c
000002a0: 7862 013d 7103 a3bc 05af 383c 6482 6f3b
000002b0: e892 68bb 639f 70bc fffa 973d 09a2 803d
000002c0: 98b5 383c 7e3b 463c caa2 8f3d 72c4 91bc
000002d0: 5f44 9a3c 7564 5b3c 32a5 823c 1a36 4abc
000002e0: de66 a1bb a5c7 423c 2a09 7d3d 4655 f2bc
000002f0: e424 3abd 2bf1 6ebc c446 91bd ea5e 88bc
00000300: 4255 183c 0f7d 433d 4ff2 c0bc 3021 543a
00000310: 9ff5 10bd bee9 92bc c242 c43c 5264 c5bb
00000320: 9533 973b a5d4 9b3c 7b03 0fbd e4e5 ee3c
00000330: 4a92 adbc 9352 2e3b af85 33bc 0009 d8bc
00000340: 5e7a d33c 7e6e 95bc 51d0 1c3d 56bf 243c
00000350: 0277 4d3d afd9 8a3c c987 fd3c e02b 67bc
00000360: 8174 7fbd ce1f 8ebb a3eb f8bb 29d4 e83c
00000370: 4738 363c aa0d 943c 1fdf 583c 5951 e0bc
00000380: e0f6 23bb 0e4d 25bd 5b54 3b3d c248 aabc
00000390: 047d 3c3d 91ce 833b 1c19 5e3d 7d3e 54bd
000003a0: 4268 033d 1d31 08bc 62a7 7cbb 5f6c 5ebb
000003b0: 31e9 1f3d e74b 63bd be4a 8ebb 2a63 89bc
000003c0: 70de d83a b0b4 0e3d 9c52 263d ace4 bb3b
000003d0: 3afa c4bc d3d9 82bd 2f2e 82bc 0236 7f3c
000003e0: 578a 00bb b58e 13bd e51f e83a e858 383d
000003f0: d2ca 67bd e4bc 1b3c 7f1e 823c 3b5c e83b

conv3.0.bias f4 [64]
-0.03817551 0.008858593 -0.03148314 -0.002433212 0.003690617 -0.0050275107 -0.019289417 -0.05129122
0.013504678 0.005422173 -0.020799428 -0.029053722 0.014576653 0.0014707104 0.024593009 0.008937198
0.0006560312 -0.008020894 -0.017616693 -0.043759 -0.032603752 0.013115509 0.004112901 0.010558683
-0.031134782 -0.0007248847 -0.008048898 0.026890721 -0.037801426 -0.010265498 -0.027589854 -0.027128555
-0.00521425 0.024202993 0.0034153888 -0.021526571 -0.019033898 0.010661778 -0.022937149 0.012967401
-0.01439614 -0.058046363 -0.015392265 0.019187065 -0.0044567427 -0.010979967 -0.003048772 0.027655154
-0.026734728 -0.0165163 -0.050036196 -0.014664517 0.036502123 -0.027758172 -0.028384117 -0.00077883224
0.00022836894 -0.0132013 0.026020652 -0.024472674 -0.0049459827 -0.0041932403 -0.02689184 -0.006827956
00000000: ec5d 1cbd a223 113c 77f4 00bd 8676 1fbb
00000010: 47de 713b d1bd a4bb d704 9ebc be16 52bd
00000020: ba42 5d3c 7cac b13b 9063 aabc 1202 eebc
00000030: ead2 6e3c dac4 c03a 4777 c93c 536d 123c
00000040: 82f9 2b3a 116a 03bc e250 90bc a33c 33bd
00000050: 838b 05bd 6fe2 563c 84c5 863b 54fe 2c3c
00000060: 5f0e ffbc 3006 3eba 86df 03bc ee49 dc3c
00000070: abd5 1abd 9f30 28bc 1e04 e2bc b43c debc
00000080: 4ddc aabb 5b45 c63c b7d4 5f3b 7e58 b0bc
00000090: faec 9bbc bdae 2e3c b0e6 bbbc 3975 543c
000000a0: cadd 6bbc 06c2 6dbd d72f 7cbc 312e 9d3c
000000b0: de09 92bb 52e5 33bc e8cd 47bb 108d e23c
000000c0: ca02 dbbc 314d 87bc c1f2 4cbd 7143 70bc
000000d0: 4083 153d 1b65 e3bc cf85 e8bc 8c2a 4cba
000000e0: 5276 6f39 444a 58bc 4329 d53c eb7a c8bc
000000f0: e911 a2bb 7367 89bb 474c dcbc 0cbd dfbb

fc_out.0.weight f4 [1024, 64]
0.05240807 0.09568581 0.059753697 -0.027543541 -0.01339863 -0.048503112 0.10362093 0.029265586
0.05725241 -0.013418967 -0.026774896 -0.020493718 0.088145174 -0.102975406 -0.029041482 0.08594817
0.12000718 -0.10399931 -0.07477441 0.042288605 0.123799525 0.017876578 -0.007159889 -0.14536919
-0.10591977 -0.07379281 0.115316615 0.06173279 0.07572271 0.06024218 -0.09810791 -0.012585545
0.101693705 -0.05524041 0.08524954 0.045260232 -0.05783407 0.016975408 -0.10402372 -0.026216146
0.101945326 -0.0394691 -0.074912645 -0.060540106 0.055200677 -0.06567676 -0.14949223 -0.05636375
0.06712426 -0.09661592 0.14122851 -0.10721803 -0.13899966 0.1132663 0.0072912523 -0.1048153
-0.07824327 -0.07502327 -0.009156996 0.089955464 0.07468683 0.03852143 -0.047543533 -0.0958344
-0.033426538 0.052023593 -0.1105668 0.044198107 0.029841568 0.0899364 0.088519804 0.12973244
0.06347532 0.087604046 -0.08230236 0.012901133 -0.02009799 -0.024087382 -0.02207522 -0.10630113
-0.010570367 -0.15486419 0.016205667 0.08104792 -0.107408784 -0.061069284 0.010063016 0.054141622
-0.038342368 0.083707474 -0.03633416 -0.12554336 0.05120193 0.11459769 -0.05198376 -0.0011484489
0.13426463 -0.08177492 -0.051655885 -0.079260044 -0.09856939 0.0333348 -0.0028224643 0.10452896
-0.13811414 -0.12243068 -0.12648748 -0.10865349 -0.041601732 -0.034906782 0.00047808897 -0.057255093
-0.12735733 -0.03822982 -0.06646741 -0.11387705 -0.11510756 -0.018508531 -0.059343014 -0.15445791
-0.1163463 0.06522271 0.037470616 0.09476191 0.034697227 0.10689372 -0.061408732 0.0543844
-0.05940578 -0.12072384 0.10117591 0.09539723 -0.06637062 0.047649994 0.0974881 -0.10846781
-0.14061376 -0.11485431 0.089137994 -0.020476345 -0.039415568 0.062334035 -0.09107565 -0.084514536
-0.08794792 -0.06448319 -0.079077795 0.0018014021 -0.07734849 0.02466724 -0.118715666 -0.00932967
0.1132812 -0.0779556 0.13778399 -0.08612376 0.043267556 0.037020322 0.077449165 0.019066274
0.055213716 0.094719775 0.05139832 0.035589226 -0.0029767517 -0.0662632 0.027589317 -0.08449961
0.09167152 0.05343226 -0.07644021 0.010145855 0.087979525 0.011194422 -0.07569498 -0.11450492
-0.0884906 -0.077076264 -0.1346152 0.019165773 -0.025697172 0.008621266 0.09177346 -0.11709052
0.10594296 0.053777657 0.09106291 -0.10686988 -0.052210167 0.12524916 0.09379152 0.07296933
-0.08788443 -0.06277056 -0.011144347 0.07523205 0.049405657 -0.035657976 -0.096003935 -0.00147192
-0.04569661 0.029721782 -0.09196179 -0.14384897 0.11193921 0.0022865655 0.111043036 -0.05442906
-0.065808065 0.020189783 -0.10512355 -0.0008203504 0.02755306 0.09567882 -0.10225367 -0.10242025
-0.051325608 0.037763722 0.08605924 -0.047388878 0.085531935 -0.13178776 -0.12137341 0.08604983
0.021264287 -0.03253882 0.08512262 -0.02458928 0.12520513 -0.0130397845 0.11098041 0.087938555
0.08135217 -0.0600315 -0.13167176 0.06473571 -0.1228507 0.021546504 -0.042313565 -0.12038078
0.08469231 0.118207164 0.12471874 -0.086926766 0.00016617907 -0.04478557 0.014484995 -0.111794256
0.10075709 -0.009407307 0.104797274 0.07053113 0.13691448 0.05086271 0.034088124 -0.048089374
00000000: d8a9 563d ecf6 c33d 4bc0 743d fea2 e1bc
00000010: ed85 5bbc 33ab 46bd 3637 d43d 62be ef3c
00000020: 8181 6a3d 3adb 5bbc 0757 dbbc 71e2 a7bc
00000030: 7585 b43d c5e4 d2bd 67e8 edbc 9805 b03d
00000040: 53c6 f53d 97fd d4bd 5323 99bd d136 2d3d
00000050: 9b8a fd3d e771 923c 819d eabb a9db 14be
00000060: 77ec d8bd af20 97bd 1e2b ec3d 86db 7c3d
00000070: 8214 9b3d 81c0 763d cdec c8bd 9a33 4ebc
00000080: ca44 d03d c543 62bd 5097 ae3d cb62 393d
00000090: 6be3 6cbd 0310 8b3c 630a d5bd 3ec3 d6bc
000000a0: b6c8 d03d 5aaa 21bd cd6b 99bd e7f8 77bd
000000b0: 1b1a 623d 8a81 86bd 7e14 19be addd 66bd
000000c0: 7278 893d 91de c5bd 359e 103e 2095 dbbd
000000d0: ed55 0ebe 29f8 e73d 75eb ee3b 67a9 d6bd
000000e0: 023e a0bd cda5 99bd 3a07 16bc 923a b83d
000000f0: 69f5 983d a6c8 1d3d 02bd 42bd d344 c4bd
00000100: 44ea 08bd b116 553d d970 e2bd 1309 353d
00000110: 4e76 f43c 9330 b83d df49 b53d 95d8 043e
00000120: 59ff 813d c069 b33d 248e a8bd 465f 533c
00000130: 8aa4 a4bc e752 c5bc 17d7 b4bc 68b4 d9bd
00000140: 552f 2dbc b894 1ebe bfc1 843c 74fc a53d
00000150: 23f9 dbbd c923 7abd 59df 243c 9bc3 5d3d
00000160: e30c 1dbd d36e ab3d 21d3 14bd 708e 00be
00000170: 1db9 513d 32b2 ea3d ecec 54bd 8d87 96ba
00000180: ab7c 093e 9c79 a7bd 1f95 53bd 1753 a2bd
00000190: c0de c9bd 128a 083d 18f9 38bb 4813 d63d
000001a0: cb6d 0dbe f0bc fabd ef85 01be b985 debd
000001b0: 9466 2abd 6afa 0ebd 04a8 fa39 5184 6abd
000001c0: f669 02be df96 1cbd 1120 88bd 5f38 e9bd
000001d0: 83bd ebbd 349f 97bc a911 73bd 372a 1ebe
000001e0: f846 eebd 7c93 853d ca7a 193d 8812 c23d
000001f0: ae1e 0e3d 18eb da3d b987 7bbd 2dc2 5e3d
00000200: 7a53 73bd 103e f7bd 5135 cf3d 9f5f c33d
00000210: 52ed 87bd a42c 433d d7a7 c73d 5f24 debd
00000220: 0efd 0fbe bd38 ebbd fb8d b63d 02be a7bc
00000230: 3872 21bd f951 7f3d df85 babd f515 adbd
00000240: 0a1e b4bd c30f 84bd 8af3 a1bd 061d ec3a
00000250: e368 9ebd f412 ca3c 3321 f3bd 79db 18bc
00000260: f9ff e73d 30a7 9fbd 3f17 0d3e a761 b0bd
00000270: 5239 313d 9fa2 173d ab9d 9e3d e030 9c3c
00000280: c727 623d 71fc c13d 0b87 523d 02c6 113d
00000290: 9b15 43bb 00b5 87bd fe02 e23c 220e adbd
000002a0: 47be bb3d c9db 5a3d af8c 9cbd cd3a 263c
000002b0: 9c2e b43d cf68 373c f805 9bbd 8e81 eabd
000002c0: 8f3a b5bd 29da 9dbd 91d8 09be 8a01 9d3c
000002d0: e082 d2bc 3640 0d3c b9f3 bb3d 28cd efbd
000002e0: 9ff8 d83d f645 5c3d 317f ba3d 98de dabd
000002f0: 54da 55bd 5141 003e c515 c03d f270 953d
00000300: c1fc b3bd da8d 80bd c796 36bc 4313 9a3d
00000310: 965d 4a3d 190e 12bd b69d c4bd 71ed c0ba
00000320: 5e2c 3bbd 187b f33c 7756 bcbd 254d 13be
00000330: 6240 e53d 34da 153b 886a e33d 02f1 5ebd
00000340: 61c6 86bd 0b65 a53c 044b d7bd c90c 57ba
00000350: f4b6 e13c 42f3 c33d 5f6a d1bd b5c1 d1bd
00000360: cd3a 52bd 22ae 1a3d d43f b03d d71a 42bd
00000370: 5e2b af3d 5ff3 06be 9f92 f8bd e53a b03d
00000380: 7132 ae3c 6d47 05bd c554 ae3d 756f c9bc
00000390: c635 003e d2a4 55bc b249 e33d 2119 b43d
000003a0: f79b a63d 97e3 75bd f6d4 06be 2894 843d
000003b0: 2699 fbbd 4b82 b03c fd50 2dbd 338a f6bd
000003c0: 2973 ad3d 9916 f23d 8a6c ff3d a906 b2bd
000003d0: 5b40 2e39 1371 37bd 7952 6d3c 63f4 e4bd
000003e0: bc59 ce3d 1b21 1abc f49f d63d a072 903d
000003f0: 4f33 0c3e 6b55 503d fd9f 0b3d 5df9 44bd

fc_out.0.bias f4 [1024]
-0.053572938 -0.037675537 0.11822926 -0.08747537 0.0038304147 0.009445237 0.08653917 -0.071833454
-0.016227718 -0.084726706 -0.06243416 -0.1315758 0.07035426 -0.06720926 0.064219244 0.08145555
0.030477598 -0.004002989 0.004255405 -0.051165525 -0.017822275 -0.041934934 0.11185483 0.14474958
0.11162952 0.07170132 0.13569996 0.018612346 0.082548544 0.075357474 -0.07309539 0.08164564
0.033825994 0.014989555 0.12055931 -0.05142878 0.08532378 -0.025973577 0.038137496 0.12933776
0.12693831 -0.05174289 -0.058812965 0.007978009 -0.0257509 -0.0953741 0.0751479 0.033852577
0.06847727 -0.052369148 -0.0047067837 -0.09548002 -0.06273376 -0.12821047 -0.114606224 -0.00072466227
-0.026560323 -0.064129405 0.107859015 0.098763876 0.039093193 -0.08384032 0.060949195 -0.09002209
0.08015424 0.100299396 -0.039591804 -0.13938184 0.098512426 0.09457555 -0.081963174 -0.11327518
0.027123714 -0.08052114 -0.098781995 -0.1132263 -0.07491406 0.08612453 0.08443156 -0.05424753
-0.04607056 -0.03478728 -0.05697909 -0.06476775 -0.020240903 -0.0091288015 0.11818414 0.11890338
-0.06312639 -0.03718039 -0.06342425 0.06154472 -0.038925722 0.058360487 0.029963871 -0.058506787
-0.102994785 0.07265406 -0.008393892 0.009619127 -0.011248352 -0.07575694 0.034945354 -0.08493046
0.0022171482 0.10681223 -0.08870634 0.10080125 0.12044892 0.06023145 -0.08056141 0.026094692
-0.10431653 0.03901513 0.114100546 -0.082219884 0.06434149 0.018222993 0.013874072 0.015494939
0.020899743 -0.018793229 0.09665137 0.057609264 0.02396062 0.0945263 0.10165526 0.10450404
0.11560321 0.08829624 -0.026671216 0.020047234 0.06296452 -0.08323022 -0.1276366 -0.018642439
0.025902333 -0.06469469 0.010978854 -0.05879119 -0.07263164 -0.106383435 0.04866887 -0.00062507106
-0.12641667 -0.013756035 0.005360631 -0.11252682 0.024604626 0.12992585 0.052081987 0.020946627
-0.072504945 0.099296905 -0.03040556 0.07767594 -0.038700297 0.1202421 0.064356804 -0.082193635
-0.029196475 -0.010512632 0.10043368 -0.007432309 0.036136743 -0.0050260304 -0.108219184 0.11763885
-0.026736371 0.05529879 -0.015065089 -0.06312563 0.02615514 0.10146732 0.051219452 0.014817116
0.040052652 0.065231234 -0.05590554 -0.09329031 -0.13753451 0.0392065 0.042978927 -0.0326504
-0.051633403 0.1011756 0.005723089 -0.131651 -0.05012051 0.062329255 0.06891895 0.08550334
-0.018200686 0.06452782 -0.09744469 -0.013648287 0.096499674 0.011730066 0.037317034 0.12077826
0.035166726 -0.030316547 0.019181183 0.0960256 0.100819886 -0.034964487 0.10282349 0.096702054
-0.02619961 0.039103772 0.04404659 0.005990807 0.12028634 0.0099818325 -0.04202458 0.01700341
-0.14283128 0.09978164 -0.07212712 0.023314694 0.06124991 0.09622705 -0.027332217 0.06271873
-0.099455 0.06120345 -0.06414466 -0.022107193 0.05364234 0.0016250489 -0.003348039 -0.045120362
0.027819773 0.05523323 -0.043801013 -0.07163305 -0.00010827884 -0.006267916 -0.0747018 0.008607535
0.06278423 -0.04719757 -0.07322874 -0.16041443 0.017769875 -0.08400016 -0.10235606 -0.0701237
0.07685847 -0.10708614 0.034203764 -0.036023222 -0.06137097 -0.05358837 0.014566043 -0.0817508
00000000: 4c6f 5bbd aa51 1abd 2f22 f23d 4926 b3bd
00000010: b207 7b3b 32c0 1a3c 733b b13d 6b1d 93bd
00000020: feef 84bc 3285 adbd f6ba 7fbd cebb 06be
00000030: e515 903d 02a5 89bd 6185 833d 2bd2 a63d
00000040: 28ac f93c 812b 83bb ed70 8b3b f192 51bd
00000050: 0500 92bc f7c3 2bbd 2514 e53d 3c39 143e
00000060: 059e e43d 24d8 923d eef4 0a3e eb78 983c
00000070: 360f a93d 0555 9a3d 09b3 95bd d435 a73d
00000080: 208d 0a3d c096 753c cde7 f63d fca6 52bd
00000090: 3cbe ae3d 8ac6 d4bc 1036 1c3d 1e71 043e
000000a0: 1efc 013e 5af0 53bd dde5 70bd 32b6 023c
000000b0: 8df3 d2bc 7f53 c3bd 24e7 993d 00a9 0a3d
000000c0: d03d 8c3d 0881 56bd 5d3b 9abb 078b c3bd
000000d0: 8f7a 80bd 9b49 03be abb6 eabd 43f7 3dba
000000e0: 0995 d9bc 4756 83bd 30e5 dc3d b744 ca3d
000000f0: 2f20 203d 79b4 abbd dda5 793d 805d b8bd
00000100: e827 a43d c569 cd3d 042b 22bd 1dba 0ebe
00000110: e2c0 c93d d3b0 c13d 4fdc a7bd d1fc e7bd
00000120: 8d32 de3c 44e8 a4bd 374e cabd 31e3 e7bd
00000130: 8b6c 99bd 0f62 b03d 74ea ac3d a832 5ebd
00000140: 7cb4 3cbd 1b7d 0ebd e862 69bd f4a4 84bd
00000150: 40d0 a5bc f890 15bc 870a f23d 9e83 f33d
00000160: 6948 81bd 774a 18bd 93e4 81bd 5116 7c3d
00000170: 9470 1fbd 680b 6f3d cb76 f53c d0a4 6fbd
00000180: eeee d2bd a7cb 943d 8986 09bc 8b99 1d3c
00000190: 024b 38bc 7426 9bbd dc22 0f3d 05f0 adbd
000001a0: 934d 113b 5fc0 da3d abab b5bd e370 ce3d
000001b0: ecad f63d 41b5 763d 61fd a4bd 89c4 d53c
000001c0: e8a3 d5bd 54ce 1f3d 8cad e93d e662 a8bd
000001d0: 79c5 833d 6348 953c 1350 633c 7cde 7d3c
000001e0: f035 ab3c 42f4 99bc 27f1 c53d b1f7 6b3d
000001f0: 1049 c43c 0197 c13d a230 d03d 3706 d63d
00000200: 60c1 ec3d a9d4 b43d 987d dabc 193a a43c
00000210: 8bf3 803d 9b74 aabd 2bb3 02be 07b8 98bc
00000220: 2131 d43c a67e 84bd a7e0 333c 08cf 70bd
00000230: e6bf 94bd 8fdf d9bd 0259 473d cfdb 23ba
00000240: 5f73 01be fe60 61bc 3ba8 af3b 7674 e6bd
00000250: a48f c93c 480b 053e ec53 553d 4398 ab3c
00000260: 797d 94bd 2d5c cb3d 1515 f9bc 9014 9f3d
00000270: 3484 1ebd 7d41 f63d 80cd 833d 2355 a8bd
00000280: 722d efbc 2d3d 2cbc 2cb0 cd3d ba8a f3bb
00000290: 1f04 143d 66b1 a4bb 05a2 ddbd a3ec f03d
000002a0: 3c06 dbbc fc80 623d 90d3 76bc 0348 81bd
000002b0: 4e43 d63c 19ce cf3d 7dcb 513d 7dc3 723c
000002c0: 400e 243d f497 853d 35fd 64bd fd0e bfbd
000002d0: d9d5 0cbe ff96 203d ac0a 303d 6dbc 05bd
000002e0: 8c7d 53bd 2735 cf3d c088 bb3b 85cf 06be
000002f0: 2a4b 4dbd f64c 7f3d 6125 8d3d 601c af3d
00000300: 9b19 95bc 2927 843d 1591 c7bd 119d 5fbc
00000310: 9fa1 c53d 762f 403c bfd9 183d 985a f73d
00000320: fc0a 103d 685a f8bc db21 9d3c 12a9 c43d
00000330: a87a ce3d ec36 0fbd 1f95 d23d ba0b c63d
00000340: 91a0 d6bc 472b 203d 326a 343d 884e c43b
00000350: af58 f63d d78a 233c f721 2cbd bc4a 8b3c
00000360: 5d42 12be 515a cc3d 62b7 93bd 75fe be3c
00000370: 30e1 7a3d b012 c53d d0e7 dfbc ad72 803d
00000380: 10af cbbd 78b0 7a3d 475e 83bd 251a b5bc
00000390: 12b8 5b3d 98ff d43a c66a 5bbb 21d0 38bd
000003a0: 4be6 e33c 3d3c 623d b168 33bd 59b4 92bd
000003b0: c213 e3b8 1763 cdbb 42fd 98bd 9e06 0d3c
000003c0: 0595 803d 3d52 41bd f3f8 95bd ae43 24be
000003d0: 2192 913c 4708 acbd 0ea0 d1bd 049d 8fbd
000003e0: f967 9d3d fa4f dbbd 3f19 0c3d 168d 13bd
000003f0: 2060 7bbd 7b7f 5bbd 6aa6 6e3c f76c a7bd

fc_out.3.weight f4 [10, 1024]
-0.01644728 0.012135294 0.026043162 -0.03358759 -0.014222633 -0.031557083 -0.0154424645 -0.05539667
-0.025633005 -0.026129333 -0.0044962005 0.0054508876 -0.025336355 -0.027159376 -0.06582799 -0.02864558
-0.0075633074 -0.023992138 0.00579668 0.010361098 0.0034157531 -0.012292103 -0.028584873 -0.04197505
-0.006335809 0.01480995 -0.016582021 -0.03011242 0.012386773 -0.01404161 -0.024444392 0.027848916
-0.011188792 0.014747267 0.02773593 0.029721381 -0.039921183 -0.019261055 -0.008173824 -0.0028871496
-0.037258282 -0.0342534 -0.024185088 -0.024415188 -0.027413135 0.03977387 0.020847576 -0.023677684
-0.013953219 -0.024940921 0.021992434 0.009083182 -0.027481742 -0.0019624387 -0.034093786 -0.010438006
0.017996868 0.010296478 -0.007663811 0.060203727 -0.032260563 -0.039089594 0.046967298 -0.028614204
0.037180208 -0.03483806 -0.010235006 -0.0110825375 -0.0034270657 0.05189538 0.00024911913 -0.019842241
-0.021266034 0.028066602 -0.024425257 -0.0148218125 0.015484141 -0.026804829 0.01331849 -0.031708438
-0.01574587 -0.024169639 -0.021310212 -0.01370697 0.042116143 0.018753646 0.0428563 -0.039043393
-0.013875343 -0.022935476 0.021502502 -0.031891707 -0.051768385 0.011032836 0.02031049 0.026714282
-0.037106965 -0.027345218 0.043749306 -0.02811771 -0.02433456 0.0084807165 0.027949682 -0.014779064
-0.018394409 -0.014959729 -0.010076193 -0.016386496 -0.041709613 0.021786554 -0.05290829 -0.063385196
-0.010671277 0.005919198 0.005885414 -0.011242469 -0.037930533 -0.0060529467 0.0087966975 0.021830535
0.022534855 0.025697084 0.04216036 0.02550337 -0.010483748 0.02894824 0.040270176 -0.012863624
0.037351683 0.01114017 0.042908244 -0.011997596 -0.0009909669 0.007259403 0.011684624 -0.005660442
-0.025751458 -0.013464343 -0.052119166 -0.022636672 -0.01672318 0.03384345 -0.04020083 -0.040309325
0.024176067 0.0011641772 -0.041096807 0.008438936 0.0017747295 0.021365898 -0.013806512 -0.032810412
0.02391441 -0.013395406 -0.08198884 0.00090877496 -0.020623248 0.014875673 -0.025140863 0.024014056
0.0051198415 0.0016065247 0.016323086 -0.01067311 0.009997247 -0.002684899 0.0383644 -0.04072799
0.024159895 0.03555888 0.039848164 0.01454715 0.034823563 -0.07223158 0.04136438 -0.04106518
0.0069530536 -0.047816716 0.026074225 -0.016084522 0.007175358 0.021776756 -0.037578706 -0.012335243
-0.015865028 0.018503822 -0.008426852 0.0131585235 -0.032547463 0.051226422 0.002418785 -0.05599515
0.021157796 0.0129699465 -0.0073260223 -0.019840106 -0.009753362 -0.022005465 0.022229506 -0.02066079
-0.011811388 -0.0034552158 -0.010232395 -0.021869346 -0.013037372 -0.01733015 0.024402525 0.013863829
-0.03558561 -0.03947738 -0.02126637 0.0013501622 -0.0364784 0.008971597 0.00038408488 -0.03140904
0.03332462 -0.025705358 -0.049707133 -0.024011984 0.024164345 -0.0012585716 -0.03905699 0.0101257
-0.06828066 0.029398575 0.010224559 -0.04157317 -0.010052497 -0.0061307587 -0.051287998 0.010571785
-0.042699408 -0.008040682 0.0007921982 -0.043837972 0.026908014 -0.018443976 -0.017386489 0.00517661
-0.037844293 -0.019969892 0.0052340566 0.036625307 -0.025894664 -0.010043859 -0.011431884 0.04391153
0.02911638 -0.0013909799 -0.007920828 0.03174 -0.044325806 0.01000683 0.010570304 -0.0060667302
00000000: 72bc 86bc 1dd3 463c 7858 d53c 2493 09bd
00000010: 0c06 69bc 0042 01bd 6402 7dbc 9ee7 62bd
00000020: 4ffc d1bc 2f0d d6bc dd54 93bb 5c9d b23b
00000030: 308e cfbc 577d debc d3d0 86bd 23aa eabc
00000040: 9fd5 f7bb 298b c4bc 14f2 bd3b 98c1 293c
00000050: d4da 5f3b d164 49bc d32a eabc 08ee 2bbd
00000060: 9e9c cfbb 6fa5 723c 05d7 87bc 52ae f6bc
00000070: e4f1 4a3c c80e 66bc 9b3f c8bc 6923 e43c
00000080: 3251 37bc 859e 713c 7636 e33c 417a f33c
00000090: 6584 23bd 5cc9 9dbc 81eb 05bc 5536 3dbb
000000a0: 249c 18bd 4b4d 0cbd ce1f c6bc 5c02 c8bc
000000b0: 8391 e0bc ede9 223d 89c8 aa3c b4f7 c1bc
000000c0: 0b9c 64bc e750 ccbc 7a29 b43c a0d1 143c
000000d0: 6421 e1bc 429c 00bb eda5 0bbd 2c04 2bbc
000000e0: 2b6e 933c 8fb2 283c b520 fbbb 2f98 763d
000000f0: a723 04bd 691c 20bd c860 403d 5668 eabc
00000100: 464a 183d 5bb2 0ebd bab0 27bc 8893 35bc
00000110: 9f98 60bb 4090 543d 349c 8239 328c a2bc
00000120: 1b36 aebc eeeb e53c 7a17 c8bc 30d7 72bc
00000130: 32b1 7d3c cd95 dbbc cc35 5a3c b5e0 01bd
00000140: 7cfd 80bc 68ff c5bc c192 aebc 3393 60bc
00000150: fa81 2c3d 3fa1 993c 168a 2f3d f7eb 1fbd
00000160: 6855 63bc 2ee3 bbbc 0426 b03c e1a0 02bd
00000170: 160b 54bd 11c3 343c 2f62 a63c e9d7 da3c
00000180: 79fd 17bd 1403 e0bc 7932 333d 1d57 e6bc
00000190: 4559 c7bc b4f2 0a3c bbf6 e43c e323 72bc
000001a0: dfaf 96bc a719 75bc 9e16 25bc f93c 86bc
000001b0: b3d7 2abd b779 b23c 5db6 58bd 19d0 81bd
000001c0: 94d6 2ebc d5f5 c13b 6eda c03b 5532 38bc
000001d0: 0c5d 1bbd cc57 c6bb 0620 103c f3d5 b23c
000001e0: 049b b83c b182 d23c 57b0 2c3d 72ec d03c
000001f0: 07c4 2bbc dc24 ed3c 57f2 243d f3c1 52bc
00000200: 14fe 183d 4285 363c 8ec0 2f3d 9191 44bc
00000210: 55e3 81ba 49e0 ed3b dd70 3f3c 3b7b b9bb
00000220: b9f4 d2bc 8c99 5cbc e87a 55bd 8b70 b9bc
00000230: 0dff 88bc 6e9f 0a3d a0a9 24bd 641b 25bd
00000240: e30c c63c 4e97 983a 2055 28bd 7743 0a3c
00000250: 0a9e e83a 8907 af3c b534 62bc 3664 06bd
00000260: 27e8 c33c 6878 5bbc c4e9 a7bd db3a 6e3a
00000270: 16f2 a8bc 18b9 733c 36f4 cdbc 20b9 c43c
00000280: 58c4 a73b 0692 d23a feb7 853c 45de 2ebc
00000290: 7ecb 233c 21f5 2fbb fd23 1d3d 65d2 26bd
000002a0: f9ea c53c 30a6 113d d437 233d 2b57 6e3c
000002b0: 27a3 0e3d 27ee 93bd b26d 293d f633 28bd
000002c0: 71d6 e33b 76db 43bd 9d99 d53c b0c3 83bc
000002d0: 441f eb3b 2b65 b23c 21ec 19bd c219 4abc
000002e0: 60f7 81bc 5495 973c c710 0abc d996 573c
000002f0: 7d50 05bd ccd2 513d 7a84 1e3b 2c5b 65bd
00000300: 1d53 ad3c e67f 543c 210f f0bb b887 a2bc
00000310: 91cc 1fbc ce44 b4bc a71a b63c d140 a9bc
00000320: 8d84 41bc e770 62bb c6a5 27bc 5827 b3bc
00000330: b49a 55bc f5f7 8dbc cee7 c73c 1d25 633c
00000340: 37c2 11bd 09b3 21bd cf36 aebc edf7 b03a
00000350: 606a 15bd 9bfd 123c 005f c939 c4a6 00bd
00000360: 667f 083d 0b94 d2bc b599 4bbd c8b4 c4bc
00000370: 4ef4 c53c a8f6 a4ba 39fa 1fbd 44e6 253c
00000380: bbd6 8bbd 48d5 f03c e984 273c a148 2abd
00000390: 3ab3 24bc 88e4 c8bb 5d13 52bd 4835 2d3c
000003a0: 93e5 2ebd 11bd 03bc 85ab 4f3a 728f 33bd
000003b0: 326e dc3c d217 97bc 1c6e 8ebc 8da0 a93b
000003c0: 9e02 1bbd e697 a3bc 7382 ab3b 6b04 163d
000003d0: 0c21 d4bc ff8e 24bc cc4c 3bbc 94dc 333d
000003e0: 7985 ee3c 8a51 b6ba 5cc6 01bc cd01 023d
000003f0: fa8e 35bd b0f3 233c 112f 2d3c 6ccb c6bb

fc_out.3.bias f4 [10]
-0.042390972 -0.04634493 -0.03287076 -0.034726415 0.03133756 -0.057205286 0.034007788 0.05405187
0.0017913571 0.022060722
00000000: 28a2 2dbd 2ed4 3dbd 7da3 06bd 493d 0ebd
00000010: d05b 003d 1750 6abd c04b 0b3d 7e65 5d3d
00000020: f8cb ea3a b0b8 b43c
