1/last_model.pth (torch, 576235 bytes, 10 tensors)

conv1.0.weight f4 [16, 3, 5, 5]
000000 7a 44 95 3d 25 09 ba bd 52 8d e8 3c f5 79 30 3d
       0.072884515 -0.090837754 0.0283877 0.043085057
000010 37 d8 ba 3c f4 50 45 3c dc c2 77 3c 68 41 9f 3d
       0.022808177 0.0120432265 0.015122142 0.07776147
000020 6f 56 e6 bd 6b 6c 9b bd 56 10 02 bc 8a 86 16 bd
       -0.11246955 -0.075890385 -0.007938465 -0.0367494
000030 0e ae 78 3d 91 4f 11 be 52 14 d0 bd 9d 46 a1 3c
       0.060712866 -0.14190508 -0.10160126 0.019686991
000040 e0 7d 83 3d d9 b4 d9 bd 19 c8 3c bd 24 60 ce 3d
       0.06420493 -0.10630197 -0.046089265 0.10076931
000050 58 65 94 bd 1a 0f ed 3d 75 9a 01 3d 54 77 b4 3d
       -0.07245892 0.11575146 0.031641442 0.088118225
000060 6b ad 83 bc e9 05 a9 bd b9 10 87 bd 2b cf 36 3d
       -0.016073903 -0.082530804 -0.065949865 0.044631165
000070 fb e9 60 bd 13 b5 2b 3b c7 8f 3b bd 7f 6b d5 3d
       -0.05491064 0.0026200458 -0.045791414 0.10420894
000080 a5 ec 8a 3d a0 bd 98 bd fd 3f 0c bd bc f4 91 3d
       0.067834176 -0.07458043 -0.03424071 0.071267575
000090 37 b1 92 bd 14 7c bb bd c3 1c 93 b9 49 51 0d bd
       -0.07162707 -0.091545254 -0.00028059454 -0.034501348
0000a0 09 aa 45 3d 33 55 ee 3d c2 47 b3 bd 53 ac 97 3c
       0.04825786 0.11637344 -0.08753921 0.018514788
0000b0 a3 d3 c9 3d 31 c8 7b bc 04 2f 85 bd 29 44 af bd
       0.098548196 -0.015367554 -0.06503108 -0.085579224
0000c0 ea 22 d0 bc 4e 0f c9 bd cf 41 b9 3c ef 07 df 3d
       -0.025407273 -0.09817372 0.022614388 0.10890185
0000d0 ac 55 44 3d 54 79 58 bd 79 89 74 bd d2 6d d1 bd
       0.047933266 -0.052850083 -0.059701417 -0.10226025
0000e0 b4 3c 81 3d 14 00 85 bd 03 63 fe bb 49 78 c3 bc
       0.06310406 -0.064941555 -0.007763268 -0.023861067
0000f0 86 e3 11 3d 58 30 7b bd a9 83 f4 bd a3 20 c1 bc
       0.035617374 -0.0613254 -0.11939175 -0.023575133
000100 b8 86 3e 3d ce d8 b7 3d ec 4f ab bd f8 d2 5f 3d
       0.046515197 0.08976899 -0.08364853 0.054644555
000110 c0 71 61 3d 40 c8 02 3d e0 da 82 bd 92 fc fd 3d
       0.05504012 0.031929255 -0.06389403 0.124016896
000120 be e8 c3 3a 56 6c 65 3d 76 93 92 bd 50 66 37 bc
       0.0014946682 0.05601152 -0.07157032 -0.011193827
000130 28 18 e0 bd bd 35 bd 3d 6a 3e 5f 3d 2e ef 0e bc
       -0.109421074 0.092387654 0.054502882 -0.008724017
000140 91 0a 89 bd 78 60 ad bd 6f c2 d2 bd f1 73 7d 3c
       -0.066914685 -0.084656656 -0.102909915 0.015469537
000150 28 21 ce 3c 2b 9e 1e bd 7d b3 80 bd 59 09 e6 3d
       0.025162295 -0.03872506 -0.06284235 0.11232252
000160 f2 1c fb bc df 63 77 bd 72 c4 90 3d ac 66 e8 3d
       -0.03065345 -0.06039798 0.07068719 0.11347708
000170 49 c3 49 bd 32 ea 9f 3d 68 36 ab bd 65 80 78 3d
       -0.049258504 0.07808341 -0.083599865 0.06066932
000180 b2 d6 e7 3d f6 e6 0e bd 53 1f e2 3c 14 41 0f bd
       0.11320247 -0.03488823 0.027602827 -0.034974173
000190 e8 a0 07 bd 8e 50 8e bd c5 2b 4e 3c 55 1b 3a 3d
       -0.033112437 -0.06948958 0.012583678 0.045436222
0001a0 97 32 89 3d c0 e2 e2 bd 7c 31 3a 3d 7b 9a d4 bd
       0.06699102 -0.110784054 0.04545735 -0.10381027
0001b0 32 fd c2 3d ef 86 0a 3d cb 95 d5 bd be 10 f8 bb
       0.095209494 0.03382009 -0.10428961 -0.007570355
0001c0 9c 8f e8 3d 6a 7a 95 3d 66 fa 24 3d cd 10 ad 3d
       0.11355516 0.07298739 0.04027786 0.0845047
0001d0 6d 6d 56 3d dd f9 f0 bd e7 56 bb 3d 2a 84 bf bd
       0.05235045 -0.11766408 0.09147435 -0.0935138
0001e0 44 0c 1f bd 88 91 88 bd 4b 9c 86 bd a8 24 bb 3d
       -0.038830057 -0.06668383 -0.06572779 0.09137851
0001f0 49 e7 b4 3c 23 31 9d bd 13 8d 9a 3d c1 8b 5e bd
       0.022082942 -0.07675388 0.07546439 -0.0543325
000200 85 f6 a2 3d 92 16 ab bc 0e cb 23 3d e7 09 e0 bd
       0.07957176 -0.020884786 0.03998857 -0.10939389
000210 31 55 d6 bd a7 00 1a bc 6c 01 6c 3d 51 28 a2 bd
       -0.10465468 -0.00939957 0.057618544 -0.07917846
000220 af fc 06 3d 82 41 b2 bd 41 ca 8a 3d 8e 6f 01 3d
       0.03295582 -0.08703901 0.06776858 0.031600527
000230 7f c6 d4 bd 36 65 61 bd a2 64 b6 bd 28 5a 4a bd
       -0.103894226 -0.055028163 -0.08905913 -0.049402386
000240 42 6d f2 bc 9e e0 f8 bc 9f b3 ca bd fc b2 a7 bd
       -0.029593114 -0.030380543 -0.09897541 -0.081884354
000250 0f 6c b9 3d b4 87 12 bd de 5f 1e 3d 7f 41 db bd
       0.09053814 -0.035773948 0.038665645 -0.10705852
000260 4c 49 a5 3d a1 07 31 3d 2a 9f 08 be 11 18 94 bd
       0.08070621 0.043220166 -0.13341966 -0.07231153
000270 48 c9 91 3d 6e f4 64 bd b0 8c 99 3d 99 64 ab bd
       0.071184695 -0.05589717 0.07497537 -0.08368797
000280 21 2b a2 3d 89 24 37 bc 1e a1 dd 3d 45 98 82 3d
       0.079183824 -0.011178144 0.10821746 0.06376699
000290 f3 3a 12 3d 41 09 9d 3c d5 06 c8 bd 85 ed c1 bd
       0.03570075 0.019169452 -0.09766928 -0.094691314
0002a0 5a f7 c6 ba b2 53 89 3d a9 e4 a0 bd 78 88 94 3d
       -0.0015179918 0.06705417 -0.078561135 0.07252592
0002b0 f4 02 e7 bd 29 5c f0 bd 39 f1 ee 3d 9e 74 89 bc
       -0.1127986 -0.11736328 0.11667103 -0.01677924
0002c0 8e 4c 57 bd ab ce 54 bc d2 f0 7d bc e3 ca b5 bc
       -0.052563243 -0.012988727 -0.015499311 -0.02219147
0002d0 a6 b6 dd bd 07 35 0a bd 0f 56 1f 3d c6 fb 97 bd
       -0.10825853 -0.033741977 0.03890043 -0.07421069
0002e0 ca 95 8e 3d 39 f2 cf bd 72 f6 bf 3d 50 d9 d5 bd
       0.06962164 -0.10153622 0.093731776 -0.1044184
0002f0 8d eb 8b 3d 78 64 4b 3d d6 f0 93 3d 1f 69 49 bd
       0.06832037 0.04965636 0.0722367 -0.049172517
000300 25 d2 ca bd dd 5b 0e bc 22 5d b8 bd 64 6e d2 ba
       -0.09903363 -0.008688894 -0.09002139 -0.0016054627
000310 e8 70 81 bc 3f 92 7b bc e6 8f 54 3c c9 71 d6 3d
       -0.015800908 -0.015354692 0.012973761 0.104709215
000320 41 d2 c4 3d ec 76 ac bd cd 81 77 3d 05 3d 19 3e
       0.09610415 -0.0842112 0.060426522 0.14964683
000330 35 d7 dc bd 3f 93 eb 3d a3 4d e2 3d ef 42 02 3e
       -0.10783235 0.11502694 0.11049964 0.12720846
000340 8c 99 0d 3e 7f 79 09 3e c4 3d 8f 3d 26 bd db bd
       0.13828105 0.13425253 0.06994203 -0.107294366
000350 21 cf 78 bd d4 7e 76 3c 3d 80 d3 bd a5 0c aa 3c
       -0.06074441 0.015044887 -0.10327194 0.020757983
000360 7d 15 12 bd ee b6 b6 3d 3f 87 e4 bc d4 19 23 3d
       -0.035665024 0.0892161 -0.027896522 0.039819553
000370 b7 79 10 3d e2 d0 51 bd ed f1 93 bd f4 cd 04 3e
       0.035272326 -0.051224597 -0.07223878 0.1296919
000380 db 8f ec 3d b7 45 b9 bd 11 3f ef bd c1 27 41 3d
       0.11550876 -0.090465 -0.11681951 0.047157053
000390 cd d9 b8 3d 59 0c fa bc 24 90 64 3d 1b c6 36 3d
       0.09025917 -0.030523466 0.055801526 0.04462252
0003a0 f7 d8 1b be fa e0 56 bd df b4 d4 bc 6f 44 47 bd
       -0.15219484 -0.052460648 -0.025965152 -0.048649248
0003b0 4a a6 6a 3d c0 0b 88 bd 43 bb 1c bd 58 2c f4 3d
       0.05728749 -0.06642866 -0.038264524 0.119225204
0003c0 e9 eb 8c 3d 87 0e 76 bd 9f e6 79 bd 0e de 23 3d
       0.06880934 -0.060072448 -0.061010953 0.04000669
0003d0 d3 a6 96 3d b3 bd b7 3d 07 f3 b9 3d 22 88 da bd
       0.07356038 0.08971729 0.09079557 -0.106704965
0003e0 7c 04 49 3d 87 39 08 3d bd 62 01 be eb 14 ee bc
       0.049076542 0.033257987 -0.12635322 -0.029062709
0003f0 6b 80 fd bc ca a3 a0 3d a2 af aa bd 0d 2e 3f 3d
       -0.030945024 0.0784374 -0.083342806 0.046674777

conv1.0.bias f4 [16]
000000 23 64 f5 3b 46 7a ae 3d 18 07 46 3c 5a 1c b3 bd
       0.007488744 0.085194156 0.012086652 -0.08745642
000010 68 51 e9 bc 57 ac ce bc 2b eb c9 bd 0f 19 36 3d
       -0.0284812 -0.025228662 -0.09859308 0.04445749
000020 c9 8d 13 bc bb ff 36 3d 28 12 f5 b9 74 6c 8b bd
       -0.009005972 0.044677477 -0.0004674357 -0.06807795
000030 cc 50 91 3c 8b 19 17 be 73 2b 7d bd b4 46 c4 3d
       0.017738722 -0.14755838 -0.061809015 0.09583798

conv2.0.weight f4 [32, 16, 5, 5]
000000 85 bb fb bc 13 aa 26 bd 80 d2 e1 bc 91 eb d4 3c
       -0.030729065 -0.04068954 -0.027566195 0.025991233
000010 24 2c 0d bc 2d a0 ac 3c f5 b3 b8 3b 90 a0 de 3c
       -0.008616481 0.021072472 0.005636687 0.027176172
000020 82 ae 17 bd a3 2c 74 bd a4 87 2b 3d 92 b9 a4 3c
       -0.037031658 -0.05961288 0.041877404 0.020108018
000030 0f 5b 97 3c c3 d1 b1 bc 4f 62 39 3c 7c 45 1b 3d
       0.018476037 -0.021706467 0.0113149425 0.037908062
000040 ea 26 a4 3c 09 63 b1 3b 02 cc 6a bc 1d a1 41 3c
       0.020038087 0.0054134172 -0.014330866 0.011818198
000050 cd 01 3a 3c 22 76 b6 3c dd ec ff bc a6 46 0b bc
       0.011352968 0.022273127 -0.031240875 -0.008500731
000060 83 82 44 bd ba 6d d9 bc f0 e0 1f 3d 58 f5 4f bd
       -0.04797603 -0.02654158 0.039032876 -0.050771087
000070 63 37 2d bd 71 bf 81 3c 77 ab 70 3d 62 56 4b bd
       -0.04228915 0.015838357 0.05875727 -0.049642928
000080 31 e8 55 bc 4e 40 8d bd 08 ff e5 3a 55 42 09 3d
       -0.013055847 -0.06897031 0.0017547319 0.033510525
000090 42 f6 40 bc da ea 2f bd a3 87 2d 3c d5 00 fb 3c
       -0.011777462 -0.04294858 0.01059142 0.030640045
0000a0 9b 09 44 bc 8c 52 54 bd 8c 47 64 bc 21 fe e5 3c
       -0.011965181 -0.051836535 -0.013933074 0.02807528
0000b0 03 1e 00 3d ed 6f 99 3b e4 f4 1c 3d 76 cc 84 bc
       0.03127862 0.004682532 0.038319483 -0.016210776
0000c0 3f 98 19 3d 8f 21 00 3c 44 c4 92 bd 28 6d 33 bc
       0.03749871 0.007820501 -0.07166341 -0.010951318
0000d0 f4 12 ce 3c 55 fa d5 3c 43 1a 89 bd 95 b0 28 3d
       0.025155522 0.026120344 -0.06694462 0.041184027
0000e0 59 1b 23 bd 34 d6 a2 bb 49 b1 86 3b 8b ff 2b 3d
       -0.039821003 -0.0049693827 0.0041104895 0.04199175
0000f0 a0 46 5c bd 72 47 74 3d fe 31 83 bc c3 4a 2b 3c
       -0.05377829 0.059638448 -0.01601505 0.010454836
000100 fc f5 c8 3c 47 05 0b 3d d3 bd a5 3c cd 2f a6 bc
       0.024531357 0.03394058 0.020232117 -0.020286465
000110 9c 33 48 bd 9b a6 d8 3c 4b ca 41 bd 25 af 4a 3d
       -0.048877344 0.026446631 -0.047312062 0.049483437
000120 b8 27 02 bd 68 70 6f bd 28 a8 5f bd 07 7d 42 3d
       -0.03177616 -0.05845681 -0.054603726 0.047482517
000130 fd 1e 55 bd 98 a2 b6 ba 6b 27 ae 3c c4 a6 68 3c
       -0.052031506 -0.0013933955 0.02125903 0.014199916
000140 66 8c db 3b 66 7f e5 3c 46 d9 29 ba 0b 34 6f ba
       0.0067000864 0.02801485 -0.00064792146 -0.00091248815
000150 7f 3a e2 3c 08 3c 9e 3b 70 6f 02 bd 10 2d ab 3c
       0.027615784 0.0048289336 -0.031844556 0.02089551
000160 df 43 4c 3d a7 64 c6 bc 49 da cc bc fd 4a cb 3b
       0.049869414 -0.024217917 -0.02500643 0.0062040077
000170 e0 16 97 bc 1e a9 78 bc b4 f8 81 3c 5e 54 8b bb
       -0.018443525 -0.015177039 0.015865661 -0.0042520007
000180 4a 74 0e 3d 4f a4 61 3c d3 fd 22 bd ce 6a 8e bb
       0.03477887 0.013772084 -0.039792847 -0.004346228
000190 8d 2c 7f 3c d4 c9 30 bd 23 cb 01 bc c3 b3 3a bd
       0.015574587 -0.04316123 -0.007921967 -0.04558159
0001a0 2d 0f 17 3d f4 23 0e 3d 89 ed 09 bd 93 45 be bc
       0.036879707 0.034702256 -0.033673797 -0.023226535
0001b0 32 8b 09 bd 8e d5 01 3c 8d 0a dd 3b 35 7b 3a bd
       -0.033580013 0.007924451 0.0067456425 -0.045527656
0001c0 26 be 0e 3d ca d6 8c 3c b9 3b e7 bb bf e9 8c 3a
       0.03484931 0.017192263 -0.00705668 0.0010750814
0001d0 ae e9 60 3d 20 4d 87 3c 02 81 43 bb 3b c9 17 3d
       0.054910354 0.016516268 -0.0029831533 0.037057143
0001e0 92 42 2d bd b7 04 18 3c a9 5c 13 bc 15 18 d1 bc
       -0.042299815 0.009278468 -0.00899426 -0.025524179
0001f0 b1 84 81 bc a4 81 3b 3d 03 a1 b9 3c 9a 41 09 bd
       -0.015810343 0.04577793 0.022659784 -0.03350983
000200 e9 9d 8f bc c5 b1 59 bc c3 25 d5 3c 54 cc a0 bc
       -0.017531352 -0.013287012 0.026018983 -0.019628681
000210 d3 cc 94 bd e4 74 07 3d 6c 42 5e 3b db 64 40 bd
       -0.072656296 0.03307046 0.0033914102 -0.046971183
000220 c9 5e 73 3d fc d6 d8 3c 17 7b f3 3c 89 9a d8 bc
       0.059416566 0.0264697 0.02972178 -0.026440876
000230 67 b6 12 3d b8 8e c1 bc 9b 10 01 bd 2d 8c 0d bd
       0.035818484 -0.023627624 -0.031509977 -0.03455751
000240 0e e0 00 bd 50 5c d9 bc 1c b7 16 3c 2e 1c bb bc
       -0.031463675 -0.026533276 0.00919893 -0.022840586
000250 75 55 8e bc 75 23 83 bd 06 be 0a 3d 1b b0 05 3c
       -0.017374733 -0.06403247 0.033872627 0.008159663
000260 59 d6 ec 3c 0a a6 6e bc 29 68 36 bd da 68 3f bd
       0.028910803 -0.014565954 -0.04453293 -0.046730854
000270 e3 cd 2d bd cf 3c b0 bc 3c 09 c5 3a 51 da 64 bd
       -0.042432677 -0.02151337 0.0015032659 -0.055872265
000280 6d 9c 37 bd 44 0f d6 3c ad f8 0f bd 4e 68 d1 bc
       -0.044826914 0.026130326 -0.035149265 -0.025562432
000290 55 a7 85 3d d7 7a 98 bd 14 ec a5 bc 4d 5d e9 bc
       0.06526057 -0.07445305 -0.020254172 -0.028486872
0002a0 2f 70 39 3d 60 b1 77 3c ed b2 aa 3c fb 66 17 3d
       0.045273002 0.015117973 0.020837272 0.036963444
0002b0 a5 1c 36 3d 01 a4 c0 bc 77 c3 88 3c 40 91 88 bd
       0.04446091 -0.023515703 0.016694767 -0.06668329
0002c0 45 c4 d4 bc ec 0a 88 3c 8e 24 b4 3c b6 56 5a bc
       -0.025972495 0.01660677 0.021990087 -0.013326338
0002d0 e5 a5 95 3c 4c e6 10 bc d0 87 ed bb 4a 15 97 bc
       0.018267581 -0.00884397 -0.007248856 -0.018442769
0002e0 20 b2 e0 bc 5e aa 0f b8 3c 41 56 3c d3 20 2e bc
       -0.027428687 -3.4252524e-05 0.0130770765 -0.010627943
0002f0 c3 e7 ca bc e1 f8 a6 3d 96 b5 28 3d 16 b7 67 bd
       -0.024768716 0.08152939 0.0411888 -0.05657109
000300 51 e7 af bc 7b ac 0e 3d fe 2f b1 3c df 1f af bc
       -0.021472605 0.03483246 0.02162933 -0.021377502
000310 d1 48 e6 bc 3a 17 1d 3d 5d 88 2d 3d 3f 8c c4 bd
       -0.028110893 0.03835223 0.042366374 -0.09597062
000320 b3 9a f7 bc df 7b 21 3d 8d fc e3 3c 62 60 34 bd
       -0.030225134 0.039424773 0.027830387 -0.04403723
000330 89 67 70 bd af ea e5 3c 7d 38 02 3d 13 87 24 bd
       -0.05869249 0.028066007 0.031792153 -0.04016788
000340 dd ec d5 3b 84 14 d1 3c 8c 80 b2 3c 10 c9 a5 bc
       0.0065284804 0.025522478 0.021789812 -0.020237476
000350 30 7c 19 bc f5 19 8d bd 76 84 6d 3d ae 7d 8d bd
       -0.0093679875 -0.068897165 0.057987653 -0.06908737
000360 7e 75 51 3b 7d 32 39 bd 17 81 7f 3d ab 94 58 3c
       0.00319609 -0.045214165 0.06237897 0.013219039
000370 5e a6 2e 3d 91 bb 28 3b dd 88 29 bd 2c a9 54 3d
       0.04263913 0.0025746564 -0.04139029 0.051919147
000380 f4 97 ce bc 75 1c 10 3d 90 d8 c2 bc 1c 9e 00 bd
       -0.025218941 0.03518339 -0.023784906 -0.031400785
000390 a7 f7 d1 3c bc c1 4f 3d 2b 38 94 bc fc 68 05 3d
       0.025630785 0.05072187 -0.01809319 0.032570824
0003a0 fb c4 4a bd 16 7f 07 bd 3a f7 50 bd a5 63 69 bc
       -0.04950426 -0.033080183 -0.051017024 -0.0142449485
0003b0 75 3a 0b 3d e0 89 d6 3a b2 fd 02 3d 14 79 34 3d
       0.033991296 0.0016367994 0.031980224 0.04406078
0003c0 20 9b f0 3c aa dd 58 3d 78 3e 00 bd ee 66 96 3c
       0.029370844 0.05294577 -0.031309575 0.018359628
0003d0 9e 48 47 bc 38 b4 dc bc a5 32 26 bd 40 20 2b 3d
       -0.012163309 -0.026941404 -0.040575642 0.041778803
0003e0 d8 0e 66 3d 8f 25 03 3d a4 df 91 bc f5 28 7a bc
       0.0561665 0.03201824 -0.017806835 -0.015268554
0003f0 50 18 43 bd 6f a1 1a bd 04 34 88 3c d8 94 a6 3b
       -0.047630608 -0.03775161 0.016626365 0.0050836615

conv2.0.bias f4 [32]
000000 64 d0 47 3d cf 7a 1c 3d 5b 77 08 bd ce 82 3b bb
       0.04878272 0.038203057 -0.03331695 -0.0028611901
000010 a2 b0 1d bc b7 96 de 3c 97 eb 94 bc 8b c7 af b8
       -0.009624632 0.027171476 -0.018178744 -8.381818e-05
000020 ab d7 3a ba 56 f7 33 3d e9 47 47 bd bb d0 02 3d
       -0.0007127474 0.04393705 -0.048652563 0.031937342
000030 4e e8 e6 bc 32 51 91 bc 38 2e 73 3b 4f 1a ce bc
       -0.028186943 -0.017738912 0.0037106406 -0.02515903
000040 e5 89 e6 bc 2c df 00 bd 78 82 0a 3d 38 21 3a 3c
       -0.028141925 -0.031462833 0.03381583 0.011360459
000050 4d 17 dc 3b eb 80 4e bd 03 3e 18 bc fa fb 87 3c
       0.006716645 -0.050415915 -0.0092921285 0.016599644
000060 0a fb 35 3c aa 65 c1 3c 86 e4 29 bd 79 81 4a 3d
       0.011107216 0.023608048 -0.041477703 0.04943988
000070 c0 bf d4 3c e4 68 da ba 3c 89 e1 3c a0 b6 a3 3c
       0.02597034 -0.001666334 0.027531259 0.019984543

conv3.0.weight f4 [64, 32, 5, 5]
000000 d0 63 85 bc f7 53 4b 3c d0 8f aa bb ce ea d3 3c
       -0.016282946 0.0124101555 -0.005205132 0.0258688
000010 4c 4a ed bb d8 18 34 ba ff 1f 88 3b 23 b3 8f 3c
       -0.007241523 -0.0006870157 0.004154205 0.017541474
000020 31 02 22 bd 5d 19 01 3d 13 dc 91 3c 32 16 14 bc
       -0.03955287 0.03151833 0.017805135 -0.009038495
000030 47 fb f5 bc f1 86 f8 3c cb 85 42 bd 12 9f 56 bc
       -0.030027045 0.030337783 -0.047490876 -0.013099449
000040 ac 19 44 bd 75 35 de 3c 3a 9c 01 bd 75 b7 9b bc
       -0.047876045 0.0271251 -0.03164313 -0.019008378
000050 3f 8b 9f 3b aa e5 5c bc 23 30 ba 3b dc 21 09 3d
       0.0048688943 -0.013482491 0.005682008 0.033479556
000060 00 36 63 bc c5 e6 9a bc 03 d6 5f bd 19 72 c3 bb
       -0.013867855 -0.018908868 -0.054647457 -0.0059645292
000070 60 5d 73 bc fc 25 20 bc d0 4c eb bc 48 cb 82 bc
       -0.014853805 -0.009774681 -0.02872315 -0.015966073
000080 6c 93 26 3d 4b de 21 3b fa f1 85 bb d2 ba 25 bd
       0.040667936 0.0024699147 -0.0040876837 -0.04046137
000090 58 70 31 bc ab 48 00 3d aa 19 bb 3c f4 aa 0a 3d
       -0.0108300075 0.0313193 0.022839386 0.03385444
0000a0 66 5f 84 3c 33 ff 95 bc 77 c5 f4 bc 1f 70 e3 3c
       0.01615877 -0.018310165 -0.029879315 0.027763424
0000b0 c2 e3 e7 bb 70 b6 45 bd e9 8c 24 3b 53 9c 0a bd
       -0.0070767114 -0.04826969 0.0025108403 -0.03384049
0000c0 24 56 0c bd 6b 6b a6 3b 47 30 6e 3c 15 b7 86 3c
       -0.034261838 0.005078723 0.014537877 0.016444722
0000d0 35 a0 b4 3c 41 16 99 bc 9d 47 fb bc 82 a7 cc bc
       0.022049049 -0.01868737 -0.030673796 -0.024982218
0000e0 f9 41 42 bd 00 a8 a8 3b 66 e6 7b bc ac 32 15 bd
       -0.047426198 0.0051469803 -0.0153747555 -0.036425278
0000f0 74 15 c7 bc 10 8e 2e bc 19 cd e6 bc d8 3e 3e 3c
       -0.024302222 -0.0106539875 -0.02817397 0.011611663
000100 68 34 70 bd 33 b4 f9 bc af 97 e0 bc 72 37 95 bb
       -0.05864373 -0.030481433 -0.027416078 -0.0045537287
000110 9f e5 94 bb ec 6a f3 bc 08 95 13 bb 88 a6 49 3d
       -0.0045439745 -0.02971407 -0.002251925 0.049231082
000120 d9 74 8e bb 54 7d 6a bc b9 13 54 3d 1c b4 e3 3c
       -0.0043474254 -0.014312107 0.05177662 0.027795844
000130 77 9f 26 bc e4 c4 ed bc d8 84 d0 3c 32 8d 27 bd
       -0.010169855 -0.029024549 0.02545397 -0.04090614
000140 2f 6f 1b 3b cd 1f 5a 3c 4d c5 80 3c 54 e5 08 bd
       0.0023717394 0.013313246 0.01571908 -0.03342183
000150 6c e5 aa bc c1 ff 50 bd f3 f5 df 39 e4 5a 14 3d
       -0.02086135 -0.051025156 0.0004271712 0.036219493
000160 9d fc 8c 3c 46 4d 82 3b 0b 34 48 bc 6f 1c 82 bc
       0.0172103 0.003976497 -0.012219439 -0.015882699
000170 2e c8 ba bc 50 a9 9a 3b e4 fa 9f 3c 08 1a 10 3c
       -0.022800531 0.0047198907 0.019528814 0.008795269
000180 43 8c b5 bb db b5 cc bb 05 28 31 3d b0 4c 47 3c
       -0.005540402 -0.006247265 0.043251056 0.01216428
000190 b9 f2 57 3d 21 48 50 bd 6e 2d c2 bc 58 96 93 3c
       0.052721713 -0.050850037 -0.023703303 0.018016025
0001a0 59 79 84 bc de a7 d0 3a 9b c5 5e 3d 92 d6 4d 3c
       -0.016171144 0.0015919169 0.05438767 0.012563365
0001b0 b6 29 a4 bc 2d 42 7f 3d f4 42 f1 bb b1 04 0e bb
       -0.02003942 0.06231897 -0.0073627178 -0.0021670277
0001c0 b2 a1 b6 3c dc 27 dd bc 77 d5 bc bc 26 57 70 3b
       0.0222939 -0.026996545 -0.023051007 0.0036673038
0001d0 90 66 15 bd 65 8f 48 3d 91 79 52 3d 11 22 c2 3c
       -0.036474764 0.048964877 0.051385466 0.023697885
0001e0 a2 e4 a4 3c b3 c9 06 3d f6 72 04 bd 39 e5 d7 bb
       0.020128552 0.0329072 -0.032336198 -0.0065886048
0001f0 f5 6d 50 bc 75 00 9c 3d 7b fc 01 3d 3a f8 6c 3d
       -0.012721528 0.07617275 0.031734925 0.057853915
000200 f7 16 18 bd fe 1c 8b 3c a1 e7 6e 3c 40 9c e9 bc
       -0.037131276 0.016981598 0.014581592 -0.028516889
000210 a3 64 da ba 78 e4 16 3d 08 44 53 bc f6 22 64 3d
       -0.0016662072 0.03683898 -0.012894638 0.055697404
000220 4d f0 3e bb 1d f7 54 bb 24 23 81 bc af 70 e8 3c
       -0.002913493 -0.0032495924 -0.015763827 0.028374044
000230 f6 8b 4d bc b0 12 41 3c 4d 8f e8 3c be 34 15 bd
       -0.012545576 0.011784241 0.028388644 -0.036427252
000240 d3 5f 7c ba 90 c2 99 3c c5 40 9d 3c 8a 37 cd bc
       -0.0009627316 0.018769532 0.019195924 -0.025050897
000250 d4 18 4a 3c 2b c9 1b 3d 83 e2 34 3b fd da c9 3b
       0.012335021 0.038033646 0.0027600832 0.0061601386
000260 35 69 ab bc 58 a9 41 3d f8 62 64 3b 46 9f 9f 3c
       -0.02092419 0.04728064 0.003484903 0.019485127
000270 79 7f 20 bc 0e cb 0c 3d dd 1d 3c 3d 9a 5d 76 3c
       -0.009796017 0.034373336 0.045926917 0.015036965
000280 d9 ca bd 3c ce 68 a3 bc b0 8d 80 bc d8 1c d7 b9
       0.023168014 -0.019947436 -0.015692562 -0.00041029486
000290 6d b1 a5 3c 85 c7 b0 bc 6f 25 47 bc 6c c1 11 3d
       0.020226205 -0.021579513 -0.012154921 0.035584852
0002a0 80 4c be bb 24 a0 61 bc 7d ae 6a 3c 7d 6d ef bb
       -0.0058074594 -0.013771091 0.014323828 -0.007306753
0002b0 91 11 a0 3c f8 ec 8c 3a 99 0b 2e 3d ff b6 01 3c
       0.019539626 0.0010751775 0.04249153 0.007917165
0002c0 48 64 c4 bb 5b b2 86 3c b5 98 0e 3c 49 0d 2b 3b
       -0.0059934 0.016442468 0.0087034 0.0026100448
0002d0 05 79 09 3d 6f 1e 93 bb 77 2d 38 3c 83 47 a6 3c
       0.03356268 -0.004489712 0.011241308 0.020297771
0002e0 36 1e f9 3b 70 49 c2 bc b5 a8 9a bc 6c a7 12 bd
       0.0076024784 -0.023716658 -0.018879274 -0.035804197
0002f0 a9 fc 0c bd b9 73 7c bd 52 97 1e bc f6 37 96 bc
       -0.034420643 -0.0616338 -0.009679632 -0.018337231
000300 e4 21 b7 bc 99 27 29 3c 87 e5 36 bb 03 bc bb bc
       -0.022355027 0.010324382 -0.0027907805 -0.0229168
000310 27 a8 b0 bc fe ed 97 3c 26 56 2e 3d 7b a6 67 bc
       -0.021564556 0.0185461 0.042562626 -0.014138813
000320 6f a3 19 3c 5c c0 a7 3c ad b4 e3 bc 27 25 e4 3c
       0.0093773445 0.020477466 -0.027796114 0.027849747
000330 c8 d3 d6 3c f1 d4 c0 bc 32 96 b9 bc 98 4c 11 3d
       0.026224032 -0.023539038 -0.022654627 0.035473436
000340 73 67 05 bd 95 4b 00 bc 04 9a cd bc dc 08 c8 bc
       -0.03256936 -0.00783052 -0.025097854 -0.024418287
000350 04 51 7f 3b c3 64 9d 3c c2 04 ce bc 07 b6 d6 bc
       0.0038958201 0.019213086 -0.025148753 -0.026209844
000360 70 69 45 bb f3 bf 86 3c 8a 77 84 3c 68 d6 44 bc
       -0.003012266 0.01644895 0.016170282 -0.012014009
000370 b7 81 c1 bc 49 2c 0c bc 41 13 e9 bc 2b 6b cb 3c
       -0.023621423 -0.00855548 -0.028451564 0.024831375
000380 2d c7 2e bd ba 74 28 3d 24 27 29 3c 85 fa cb bc
       -0.042670418 0.041126944 0.010324273 -0.02489973
000390 19 e3 c4 bb 32 6c 5d bb 05 9a d9 bc 6e bc cb 3c
       -0.0060085175 -0.0033786413 -0.0265627 0.024870124
0003a0 f0 5f 86 3c c5 c6 b2 bc ae d1 93 3c 58 2f 26 3d
       0.016403168 -0.021823296 0.018044319 0.040572494
0003b0 ce 2a 92 3b 56 64 01 3c 69 01 e6 bb b9 bc 10 3d
       0.004460669 0.007897457 -0.007019211 0.03533623
0003c0 c0 db 10 bc a6 9b a5 3c d0 6d 06 bc b8 14 0b 3c
       -0.008841455 0.02021582 -0.008204892 0.008488826
0003d0 03 be 08 3c 8c a8 eb bc 49 1e 26 bc d7 a7 a8 3c
       0.008346084 -0.028766893 -0.0101390565 0.020587845
0003e0 f7 5c 31 bd d3 e2 e9 bb 99 f8 15 bc 55 bb 82 3b
       -0.04330155 -0.0071376353 -0.009153509 0.003989617
0003f0 df 95 a1 3c 2a f3 16 3c ad ea e6 ba 79 5b aa bc
       0.019724784 0.009213248 -0.0017617546 -0.02079557

conv3.0.bias f4 [64]
000000 7b 80 00 bd c0 45 b4 3c 0b 7e b0 3c 48 ef dc bc
       -0.03137253 0.022005916 0.021544477 -0.026969567
000010 72 22 35 3c 3a d0 e8 3c c2 a1 0a bd da 68 a5 bc
       0.011055576 0.028419603 -0.03384567 -0.020191599
000020 20 1f e7 3c fa e4 05 3c 55 09 96 3c 17 1b 0b 3d
       0.028213084 0.008172268 0.018314997 0.03396138
000030 da 2a 01 bd f9 97 ce bb 4d e8 58 bc 5a f4 fe 3c
       -0.031535007 -0.0063047376 -0.013238979 0.031122375
000040 21 31 f3 bc 73 5e a7 3c 2b 87 0b bc 83 96 04 bb
       -0.029686512 0.02043078 -0.008516113 -0.0020231314
000050 fe 52 6e 3a 75 82 ef bc 4d ac eb bc a7 ff 37 bb
       0.00090913463 -0.029237011 -0.028768683 -0.0028075965
000060 e0 62 ea 3c 65 0f 20 3c a2 50 d2 3c 2f 0f 88 bc
       0.0286116 0.009769295 0.025673214 -0.016608803
000070 75 42 e1 3b 94 74 b9 3c 84 0f 62 3a 43 65 00 3d
       0.0068743774 0.022638597 0.0008623528 0.03134657
000080 58 b8 ad 3c 61 90 31 bc ec f8 1e bd 5c ce 95 bc
       0.021206066 -0.010837645 -0.03881161 -0.018286876
000090 b2 85 cf 3c cc 59 af 3c 88 de af 3c ec 8d 79 3c
       0.025332306 0.021405123 0.021468416 0.015231591
0000a0 90 61 e1 bc 10 9f 67 bc d8 f6 0f 3c 0a 15 d7 3c
       -0.027512342 -0.014137045 0.0087868795 0.02625515
0000b0 a5 f2 d0 3c 7e 5b db bc bf 76 1c 3d 39 ad 0a 3c
       0.025506327 -0.026777025 0.038199183 0.008464151
0000c0 ab f4 06 3d 45 6b 9b 3c 21 31 11 bc 94 ec 71 3c
       0.032948177 0.018972049 -0.008861811 0.014765877
0000d0 c6 e6 b7 bb 58 6f d1 bc 25 ca bc bc 19 73 dc bc
       -0.005612227 -0.025565788 -0.023045609 -0.026910352
0000e0 e1 4b 86 3c 0c db 81 3c b7 52 8f bb 96 8b 12 3b
       0.016393604 0.01585152 -0.004373874 0.0022361032
0000f0 73 c9 53 bc 05 d4 5b bb 3d b3 4c bb c3 c4 be bb
       -0.012926447 -0.0033543122 -0.0031234764 -0.0058217957

fc_out.0.weight f4 [1024, 64]
000000 9d cb 5e 3c da f6 a0 3d d2 97 b8 3c 89 56 e1 bd
       0.01359835 0.07859583 0.022533331 -0.110028334
000010 1b 8c f5 bd b6 d8 6f bd e0 d5 7b bd 76 7e 31 3d
       -0.119896136 -0.05855628 -0.061483264 0.043333493
000020 84 ab 49 3d a4 71 96 bc 35 95 09 3d fd 25 8b bd
       0.049235836 -0.018364735 0.03358956 -0.06794355
000030 23 43 6a bd e7 08 3d 3d 5a 14 3d bd a0 cb 40 3d
       -0.057192933 0.046151068 -0.046161987 0.047069192
000040 60 1f e9 bb 65 fe b4 bd d2 3a b0 bc 2a 8d a6 bd
       -0.007114336 -0.088375844 -0.021512423 -0.08132394
000050 9c 17 ac bc 6b 5c 52 bd 45 aa 9a bc 42 02 03 3d
       -0.021007352 -0.051357668 -0.018880019 0.031984575
000060 04 5d 9a 3c ec bc 42 bc 4d d6 3a 3a 67 26 6f 3c
       0.018843181 -0.011885863 0.000712727 0.014596558
000070 6d 1c d6 bd 9a 96 c1 3d 91 05 82 3d fb a1 35 bd
       -0.104546405 0.09452553 0.06348718 -0.04434393
000080 cc 05 95 3c 4b 7d 62 3d 51 66 d7 bc 0a 3c d4 bd
       0.01819124 0.05529527 -0.026293905 -0.10363014
000090 91 2d d2 3d e2 da 95 3d 0f 60 d7 bd e2 86 80 bd
       0.10262597 0.07317139 -0.105163686 -0.06275727
0000a0 10 9b 49 bc 82 b7 8e 3d c3 cf e0 3d f2 f7 ff bd
       -0.012305036 0.06968595 0.109771274 -0.12498464
0000b0 99 ae f1 bc 57 ed ba bd ec a5 ad 39 3f b8 88 bd
       -0.0295022 -0.091273 0.00033120753 -0.06675767
0000c0 1c e1 80 bd 79 a0 bc bd 35 ef 86 3b f1 e4 da bd
       -0.06292936 -0.09210295 0.004117871 -0.10688198
0000d0 94 fc a2 bd af 96 f4 bd 62 c9 13 bd 81 82 f6 3c
       -0.07958332 -0.11942803 -0.036080725 0.030091526
0000e0 0a e4 fa 3d 05 57 ab bd 6c 05 b6 3d ce af d1 bd
       0.12250526 -0.08366207 0.08887753 -0.1023861
0000f0 7f 2b 9b 3d a7 f0 a0 3d 76 eb 36 bd 9e 35 e7 bd
       0.075766556 0.07858401 -0.044658147 -0.112895235
000100 73 fd 13 ba 8a c7 48 bd 3f 61 a8 bd 70 56 29 bd
       -0.0005645372 -0.04901842 -0.08221673 -0.0413422
000110 60 dc 82 3d 97 78 13 bd f7 50 a6 3d 12 79 a0 3d
       0.063896894 -0.036003675 0.081209116 0.07835592
000120 c7 ba ed 3b 7b 52 33 3d ef fc c3 3c da 9d 41 bd
       0.0072549316 0.04377983 0.02392432 -0.04726968
000130 8b e4 89 bd e3 ca 4f bd ee 29 b2 3d 9b 64 df 3d
       -0.06733044 -0.050730597 0.08699404 0.10907861
000140 19 29 80 3c f2 8b 66 3d 47 dc b2 3d 76 c4 c4 bd
       0.015644597 0.056285806 0.08733421 -0.096077845
000150 dd f7 d5 3c 41 ac 18 3c b9 a5 44 3d 68 e1 ec 3c
       0.026119167 0.009318412 0.048009608 0.028916076
000160 27 92 a8 3c d7 41 71 bc 24 3a cc bc fe 71 8a 3d
       0.020577503 -0.01472517 -0.024930067 0.067600235
000170 4a b6 8c 3d e1 41 38 3d b3 fa d8 3d b5 98 20 3d
       0.068707064 0.044984702 0.10594692 0.039208133
000180 8e 97 a4 3d 43 fa c9 bd 01 83 c3 bd 49 06 55 ba
       0.08036719 -0.09862187 -0.095464714 -0.0008126242
000190 61 c6 25 bc ad fa aa bd 01 e0 ce bd 65 c1 cc 3d
       -0.010118098 -0.08348594 -0.10101319 0.099978246
0001a0 4c 0d 00 be af 6f db 3d 7e df e6 bd 74 2c 3f 3d
       -0.12505072 0.10714661 -0.112730965 0.046673253
0001b0 87 53 fd bd a9 32 f0 bd bd 0e 42 3d b9 c1 b8 bd
       -0.12369447 -0.11728413 0.047377337 -0.09021325
0001c0 e9 fb 2b bd 20 2d 4e 3d 90 4d cd 3d 10 38 6c 3d
       -0.041988287 0.050336003 0.100245595 0.057670653
0001d0 e4 34 a3 3d 53 b4 db bc 20 63 c2 bd 2b 58 c4 bd
       0.079690725 -0.026819384 -0.09491563 -0.09587129
0001e0 f4 f2 56 bc d7 5e d2 bd 1e c0 d2 3c 29 2d 52 bd
       -0.013119448 -0.102719955 0.025726374 -0.0513126
0001f0 6b 0c bf bd 36 30 b9 3b a2 5c 23 bd 9d aa 9b bd
       -0.093285404 0.005651499 -0.039883263 -0.07600901
000200 10 b1 ee bc 05 c9 b7 3d 9f 7a b3 bc cd 3d ba bc
       -0.029137164 0.08973888 -0.021909056 -0.022734547
000210 f1 2a 53 bd 2a fd bb 3d 57 a2 39 bc a3 b2 1f bd
       -0.051554624 0.091791466 -0.011330209 -0.03898872
000220 2f f2 98 bd fe 3b c5 bc 58 ca 93 bb 48 97 41 3d
       -0.07468068 -0.024076458 -0.0045102052 0.047263414
000230 ae 51 a3 bb 33 98 db 3c e2 22 c8 3b 8e 92 84 bd
       -0.004984102 0.026805973 0.006107674 -0.064732656
000240 53 84 17 bd dd 84 9e 3d a0 57 8f bd 23 47 d2 3d
       -0.03699143 0.077401854 -0.06999135 0.102674745
000250 40 37 8a bd 95 6e 0b bd 91 ee 65 bd 1c f0 93 3c
       -0.06748819 -0.034041006 -0.056135718 0.018058829
000260 c5 10 c6 bd 2c 27 b0 3d c4 57 84 bd cf 1c ca bd
       -0.09671167 0.086012214 -0.064620525 -0.09868776
000270 15 2a 7b bd 9f 9e 08 3e d9 74 15 3b 64 31 f2 bd
       -0.06131943 0.13341759 0.0022805242 -0.11825827
000280 54 ac ca bc a3 41 e2 bd 01 12 1b 3d ae b7 07 bc
       -0.024740376 -0.110476755 0.037858967 -0.008283539
000290 e7 b3 5f 3d f9 7c f1 3d dc 9d b8 3d 23 d2 6a 3d
       0.054614928 0.11791415 0.09014484 0.05732931
0002a0 ad 07 90 3d 58 ec 0d 3e ff 5e 90 bd 84 1d cf bd
       0.07032714 0.13859689 -0.07049369 -0.101130515
0002b0 93 17 8b 3d 87 f0 8d 3d bd a4 fd bd a7 db 7b 3c
       0.06791606 0.069306426 -0.12384937 0.015372193
0002c0 cf 38 12 3d ea b7 80 3d 42 01 96 bd 5f ed e8 3c
       0.03569871 0.06285079 -0.07324459 0.0284335
0002d0 c6 f3 48 3d d8 4b 56 3c 26 3c 9c 3d 6c 86 c6 3d
       0.049060605 0.013079606 0.0762866 0.09693608
0002e0 b8 9c 33 bb 2d 60 04 3e 9a 07 47 bd 03 31 0e 3c
       -0.0027406644 0.12927313 -0.048591234 0.0086786775
0002f0 f2 67 8d ba df d7 a9 3d 75 d0 7c bc c4 b3 c3 bd
       -0.0010788424 0.08293127 -0.015430559 -0.09555772
000300 77 c4 0a 3d 94 da 41 bd b3 d5 9b bd ce 71 07 3d
       0.03387877 -0.047327593 -0.07609119 0.033067517
000310 ed cc a6 bc ef d0 44 bd 5d de 1a 3d 8f 63 8f 3d
       -0.020361388 -0.048050817 0.03780972 0.07001411
000320 17 f7 96 bd 1f 5c de bd 87 ac 0a bd b1 d1 b4 3d
       -0.073713474 -0.108574145 -0.03385594 0.08829058
000330 76 dc ef bd 0b 5f 65 3d a9 ee 45 3d f6 80 13 3e
       -0.117119715 0.055998843 0.048323307 0.14404663
000340 8c 3e 93 bd 6d d3 83 3d a6 a9 ec 3d 84 91 f0 3d
       -0.07189664 0.06436811 0.11555795 0.11746505
000350 5e c1 69 3d bd 2e e6 3d 2b fd cc 3b 94 b5 2d 3d
       0.057069175 0.11239383 0.006255766 0.042409495
000360 3a 7d cc 3c 8b f3 e6 bc 48 fa 43 3c a1 26 c3 bd
       0.024962056 -0.028192302 0.011961527 -0.09528852
000370 bb b5 8b 3c d9 33 c1 3d 99 57 2b 3d d0 ba 65 3c
       0.01705443 0.09433717 0.041831587 0.01402159
000380 45 87 d1 bd cb 6e 2d 3d 64 07 94 bd 40 a3 0e 3e
       -0.10230879 0.04234199 -0.07227972 0.13929462
000390 8d b7 d9 3d a3 6d de bd 16 1f 9d bd e3 11 e8 3d
       0.10630713 -0.10860755 -0.07671945 0.113315366
0003a0 10 7f bf bd 60 2a c6 bd d2 ff ed bd 0e 76 46 bb
       -0.09350407 -0.09676051 -0.116210595 -0.0030282768
0003b0 b3 7b 52 bd 0e f4 7c bd fd bd e5 3d f5 94 13 bd
       -0.0513875 -0.061756186 0.11217878 -0.03603073
0003c0 bb 33 f4 bd 2e ca dc 3d 11 d4 f6 bd 5a 98 bf 3a
       -0.11923929 0.1078075 -0.12052167 0.0014617548
0003d0 70 3e fd 3c 87 e5 dd bd 2b 80 e8 3d e8 8d 30 3e
       0.030913562 -0.108347945 0.11352571 0.17241633
0003e0 34 03 ef bd 01 db d0 bd 66 99 ee 3c 67 93 11 3b
       -0.11670533 -0.10198022 0.02912588 0.0022213103
0003f0 0e d0 d4 bd 17 ef 6a bd 83 38 09 3e f0 1b 02 3e
       -0.10391246 -0.05735692 0.13400464 0.1270597

fc_out.0.bias f4 [1024]
000000 1b 38 59 bd 84 4b f5 bc e8 a2 96 3d f9 70 b9 3d
       -0.053032022 -0.029943235 0.07355291 0.09054751
000010 68 a0 a9 3d 7c 4e 01 3d 8f 4f 9d 3d 6c 51 07 3c
       0.08282548 0.03156899 0.0768119 0.008259159
000020 e7 25 89 3d 80 f3 9d bd b4 36 92 3d 02 7b aa 3c
       0.066966824 -0.077124596 0.0713934 0.020810608
000030 25 bf de 3c 95 b9 d5 bd cc b4 0e 3c 0f f4 82 3c
       0.027190754 -0.104357876 0.0087100975 0.015985517
000040 0f 9a 05 be 83 6d 8e bc eb e4 0e 3d 1b a8 9a bd
       -0.1304705 -0.017386204 0.034886282 -0.07551595
000050 b8 74 02 3e 21 e4 0c be f1 ca d7 bd 93 ab 1d bd
       0.12739837 -0.137589 -0.10536755 -0.038493704
000060 ac 2a 9d 3d 49 a0 7c bc 45 f6 f8 bd 39 81 bf 3c
       0.07674155 -0.015419074 -0.12156347 0.023377048
000070 2b b4 e9 bd 0d 6c dd b9 6d b5 3d bd 02 77 e4 bc
       -0.114113174 -0.0004223291 -0.0463156 -0.027888779
000080 0d ee cb bd 2b 1f 37 3d 4d de 20 bc 62 03 92 3d
       -0.09957514 0.04470746 -0.009818626 0.071295515
000090 14 34 27 3d 5f 94 c4 3d f3 20 72 bc f6 09 9c b8
       0.04082115 0.09598612 -0.0147783635 -7.440515e-05
0000a0 35 a4 63 ba 57 b2 89 bd 5d 11 34 bd 9f e3 90 3c
       -0.00086838315 -0.06723469 -0.04396187 0.017686663
0000b0 0e 09 20 bc 7f 31 aa bd 1a f0 fa bd ee fe b1 bd
       -0.009767784 -0.08310222 -0.12252827 -0.08691202
0000c0 91 11 29 3c 05 26 66 bd da a5 c0 3d de d9 08 be
       0.01031913 -0.056188602 0.09406634 -0.1336436
0000d0 7e 9b ab 3d 58 e3 6b 3d 50 e4 0a 3d 19 d1 c1 3d
       0.08379267 0.05758986 0.033909142 0.0946371
0000e0 ce bc 68 bd cd 49 98 3c f9 df 96 3d 54 3a f4 bd
       -0.056820683 0.018589878 0.07366938 -0.11925188
0000f0 f9 85 86 bc 73 40 f1 bd 38 4f 16 bd 35 b2 b5 3d
       -0.016421305 -0.11779871 -0.036696643 0.08871881
000100 dc e0 e6 3c df 62 82 bd 03 09 e2 bd 10 8b 45 3d
       0.028183393 -0.063665144 -0.11036875 0.048228323
000110 56 d7 35 3d 5d 2b c8 3d bb 63 bb 3d ad af 23 bd
       0.044394813 0.09773896 0.091498815 -0.03996246
000120 ef 49 08 be 4a d9 25 bd d3 a6 f0 3d 9b 9f c9 3d
       -0.13309453 -0.040490426 0.11750569 0.098448955
000130 ba 11 14 3e 2d 38 b6 3d 70 cb ec bd 4c 17 f6 bd
       0.14459887 0.088974334 -0.1156224 -0.12016162
000140 f0 45 0a 3d 74 50 b8 3d df b6 99 bd 3b ed cc 3d
       0.033758104 0.0899972 -0.07505583 0.100061856
000150 c8 0e 89 bd 0c f1 d2 3d 61 ac 8f bd 64 ee 46 3d
       -0.066922724 0.10299882 -0.070153005 0.04856719
000160 60 10 39 3d b3 66 9d 3d 44 fe f6 3d 16 71 b3 3d
       0.045181632 0.07685604 0.12060216 0.08761804
000170 65 12 9c bd 43 1c f7 bc 6c cc a6 3d 52 b2 6b bc
       -0.07620696 -0.030164843 0.08144459 -0.014385777
000180 03 b1 c7 bd 90 3b 7e 3d f1 2d 32 3d eb 07 f6 3d
       -0.09750559 0.062068522 0.043500844 0.12013229
000190 c3 0a 21 bd 08 4e db bd c1 c5 0d bd 01 90 ba 3d
       -0.039316904 -0.10708243 -0.03461242 0.09109498
0001a0 de 36 d3 3c 97 c6 ac 3d 0b a5 06 be da 27 d8 3c
       0.025782999 0.084363155 -0.13148896 0.02638619
0001b0 9f 3a 75 3d 2f 95 d8 bd 85 ad 5c bd d4 87 89 bc
       0.05987036 -0.105753295 -0.05387642 -0.0167884
0001c0 30 58 d5 bd 12 12 27 bd 38 a8 94 3d 81 19 c7 3d
       -0.10417211 -0.040788718 0.07258648 0.09721661
0001d0 5e ba d7 bd 71 e1 0c be ba 5b d3 bd c2 b2 85 3d
       -0.105335936 -0.13757874 -0.1032023 0.06528236
0001e0 ec 76 c5 bd 54 84 d2 bd 8a da 16 bd c3 0b 87 3d
       -0.09641823 -0.10279146 -0.03682951 0.0659404
0001f0 97 91 e3 3c 3c e0 60 3c 95 9b 6d bd 3a c0 fd bc
       0.027779384 0.013725337 -0.058009703 -0.03097545
000200 45 af 4e bb f3 5a ef bd 58 8e f5 3d c8 7b 5e 3c
       -0.0031537574 -0.11687269 0.119900405 0.013579316
000210 5e 16 27 bd 65 ce 99 bd 7f 1f 93 3d 30 a0 5a 3c
       -0.040792815 -0.0751007 0.07183742 0.013343856
000220 01 81 0a be ae 15 de 3d 8f 29 01 3e 6d 8b 88 3c
       -0.13525774 0.10843979 0.1261351 0.016668046
000230 df fe aa bd 1a b3 2c 3d a4 18 25 3c e7 a9 c1 bd
       -0.08349394 0.042162992 0.010076676 -0.094562344
000240 31 15 67 bc 83 f6 04 be e8 91 0c 3d 9b ac 84 3d
       -0.0141041735 -0.12984662 0.034318835 0.064782344
000250 82 b7 d3 3c a2 9c 92 bd 69 fc 8c 3d 4c f1 a8 3c
       0.02584434 -0.071587816 0.06884081 0.020622872
000260 41 b9 91 3c ad 58 6d bd 0c ba c7 bd ba 6a e0 bd
       0.017788531 -0.057945896 -0.097522825 -0.109578565
000270 89 dc 9e 3d c5 42 7a 3d 1a f6 ad 3c 0b 70 da bd
       0.077569075 0.061098833 0.021235514 -0.10665902
000280 05 82 91 3d 1c dd 51 bb ad ac 8e 3d 9c 65 c8 bd
       0.071048774 -0.003202266 0.06966529 -0.097850055
000290 c8 ba ed 3d 7b d2 36 3c 75 e6 b2 3d 22 21 8a bc
       0.11607891 0.011158581 0.087353624 -0.016861502
0002a0 a4 b6 97 bd 39 e8 e4 bd aa 0c df bb 34 a5 c7 bc
       -0.07407883 -0.111771055 -0.0068069296 -0.024370767
0002b0 c2 b6 4e bd 4c dc f6 bd 47 20 ca 3d 72 4a 6f bd
       -0.05046726 -0.12053737 0.09869438 -0.058420606
0002c0 1d 19 cd 3d 0b 38 0c bb e0 20 eb bd 89 70 89 3d
       0.100145556 -0.002139571 -0.1148088 0.067109175
0002d0 df 54 78 bd cf c5 ac bd 7d 33 82 bd 42 94 84 3d
       -0.060627814 -0.084361665 -0.06357477 0.064735904
0002e0 5e 23 da bc ff a4 b0 bd 31 f5 26 3c 47 5d f7 bd
       -0.026628193 -0.086252205 0.010190294 -0.12078338
0002f0 53 69 23 bd 90 17 07 bd b1 34 00 bd ec b1 c6 3d
       -0.039895367 -0.032981455 -0.03130025 0.09701905
000300 b6 5e cf 3b 23 04 54 bd b9 a4 07 3e bb 7c d3 bd
       0.006328429 -0.051761758 0.1324643 -0.10326525
000310 ef 38 8c 3d 18 37 5e bd d5 a4 c9 bc ba 62 37 3c
       0.06846797 -0.05425176 -0.02461473 0.011192972
000320 30 3c 1f bd 58 57 cf 3b db 0f b8 bc c9 32 2f bd
       -0.03887576 0.006327551 -0.022468498 -0.042773042
000330 0e 3c 8e 3d 55 53 e8 3d 98 df 11 bd 36 08 a2 3d
       0.06945048 0.11344019 -0.035613626 0.07911722
000340 55 5e 3b 3d e8 23 31 3d 4b 12 07 be 6d c3 10 3d
       0.04574426 0.043247133 -0.13190572 0.035342623
000350 34 47 a1 3d 6d 3b 61 bd 70 ca 9e 3d 2a 5c 2b 3d
       0.07874909 -0.054988313 0.07753456 0.04183594
000360 26 2c 0f 3d c7 ed 3a 3d 20 ca 9f bd 12 d8 c0 3c
       0.034954213 0.04563692 -0.07802224 0.02354053
000370 1c 69 c1 3d f9 51 b0 3d 61 2c 9b bd 04 f9 ad bd
       0.09443876 0.08609385 -0.07576824 -0.084947616
000380 19 9d fa 3c 42 04 4c bd 17 40 e4 bd 40 7b eb 3d
       0.030592488 -0.049808748 -0.11145037 0.114981174
000390 1a 76 da 3d 67 af 25 3c 62 43 70 3c 86 4d 3d 3d
       0.10667057 0.01011262 0.014664503 0.04621651
0003a0 6e f6 15 bb cb 18 cc 3d da c2 9d 3d 77 7c db bc
       -0.002288248 0.099656664 0.077031806 -0.026792748
0003b0 fa 73 be 3d bd 2f c2 3d 2a 31 8b bd b3 96 d6 bd
       0.092994645 0.094817616 -0.06796487 -0.10477962
0003c0 bd 1a 6f bd 6c 4f 87 bc ef 2b cb 3d 8e 9f 2c 3d
       -0.05837511 -0.016517363 0.09920489 0.04214435
0003d0 50 e4 23 bd 76 7b 03 3e c7 69 e6 bb 76 ce fc bd
       -0.040012658 0.12840065 -0.0070316526 -0.12344067
0003e0 3c c4 f5 bd e5 8d e8 3c e4 41 3f bd 2c c0 e7 3d
       -0.12000319 0.028387973 -0.046693698 0.11315951
0003f0 17 db 70 3a f7 ed 0a be b9 db ca bd 8e 15 99 bd
       0.00091879204 -0.13567339 -0.0990519 -0.07474814

fc_out.3.weight f4 [11, 1024]
000000 e1 8b 85 3c 39 4a 4a 3c 2f a6 cf 3b 84 ef 10 3d
       0.016302051 0.012346798 0.0063369493 0.03538467
000010 05 bb ce 3c 57 a8 0c 3c 77 cd 8a bc 22 52 0c 3d
       0.025235662 0.008585057 -0.016943676 0.034258015
000020 ba 7c 3b bd eb 54 7c bc e7 45 b9 3c 42 db 15 3d
       -0.045773245 -0.015401105 0.02261634 0.036586054
000030 d6 2e 8c bc 7f 30 12 3b 34 7f 97 bc cf e1 0b 3c
       -0.017112177 0.0022306738 -0.018493272 0.008537724
000040 77 00 95 bc 3c 6b f2 bb fc 9d 10 bd 43 73 48 3b
       -0.018188698 -0.0073980372 -0.035306916 0.003058628
000050 55 ad cd 3b 5a e0 da bb 56 0e be 3c 9b e2 bd bc
       0.0062767663 -0.006679577 0.023200195 -0.023179343
000060 34 a4 7b 3c 97 45 2d bc 37 cc 6a bc ac 1d 12 3c
       0.015358973 -0.010575674 -0.014330915 0.008918207
000070 9e f7 b8 bc d4 0d 4f bb 77 e4 82 bc 16 64 bb bb
       -0.02257901 -0.0031593936 -0.015978081 -0.0057187183
000080 65 a2 df 3c b5 a2 45 3c 53 11 d0 3c 0b 1f 1f bc
       0.027299115 0.012062718 0.025398886 -0.009711991
000090 70 ac 5a bc 46 73 76 3a 02 ef a6 bc 77 92 88 3c
       -0.013346776 0.00094013324 -0.02037764 0.016671402
0000a0 b0 09 26 bc 31 19 f1 bb 80 48 39 bd 4e 1f 23 bb
       -0.010134146 -0.0073577394 -0.045235157 -0.0024890485
0000b0 57 ca 15 3d 31 15 39 3c 5e 60 78 bc 61 00 d8 3c
       0.03656992 0.011296556 -0.0151596945 0.026367368
0000c0 d5 3d e1 bc 63 ff 12 3b 96 95 ea bc 64 23 f5 bc
       -0.027495304 0.0022430054 -0.028635781 -0.029924102
0000d0 96 80 e7 3c 35 29 5a bc e5 35 97 bc a1 39 0d bd
       0.028259557 -0.013315489 -0.018458316 -0.034478787
0000e0 7e 0b b4 bc 61 fc 0f bc 4b 83 db bc 33 a5 ac bc
       -0.021978136 -0.008788199 -0.026796004 -0.021074867
0000f0 50 00 a1 3c 38 a4 9d 3c 65 28 91 3b a3 63 61 bb
       0.01965347 0.019243345 0.004429864 -0.0034391664
000100 d2 d9 68 bd db 0d 08 bd 5f 30 1c bd b5 8f 2b bc
       -0.056848355 -0.03321634 -0.038132068 -0.010471274
000110 a5 33 37 bd 1b 00 28 3d 96 1a 9a bb e2 fa 1d 3d
       -0.044726986 0.041015726 -0.0047028763 0.03856934
000120 79 c3 3b 3b 7c 28 81 bb 7b 4f b9 3c 19 a4 8e 3c
       0.0028650446 -0.0039415937 0.022620907 0.017412232
000130 e2 71 b5 3b e9 eb e6 3c 83 a7 49 3c d9 3b 97 ba
       0.0055372575 0.028188663 0.012308004 -0.0011538222
000140 53 a5 3f 3c 8f 48 83 bc a8 92 dd 3c e4 e0 7e bc
       0.011697131 -0.01602581 0.02704747 -0.015556548
000150 0c b2 86 bc 54 b8 1d 3c bc 60 83 bc fd cf a5 bc
       -0.016442321 0.009626467 -0.016037337 -0.020240778
000160 c4 90 e6 bc b9 e3 99 bc 76 05 1c bc b1 06 54 3c
       -0.028145202 -0.018785344 -0.009522786 0.0129410485
000170 4b e1 b5 bc 8a d6 c8 3b 58 31 88 bc 53 18 8d ba
       -0.022202155 0.0061290907 -0.016625091 -0.0010764695
000180 5d ae 2b bd 49 81 1c bd d4 87 95 3c fe 43 9f bb
       -0.041914333 -0.038209233 0.018253244 -0.0048604
000190 21 45 5f bb 84 07 51 3c 32 ba 31 bb 19 58 b9 3b
       -0.0034068304 0.0127581395 -0.0027119038 0.005656254
0001a0 81 42 3b bc cb 14 f0 3b 1e 42 cf bb 9e 8b b3 3a
       -0.01142943 0.0073266975 -0.0063250205 0.0013698225
0001b0 a2 01 3b 3d dc cf 81 bc c0 02 5c 3b 5d fe 95 bb
       0.045655854 -0.015846185 0.0033570975 -0.0045774416
0001c0 8e 88 88 bc 49 d3 eb bc bc 6a 2a 3c eb c1 23 bb
       -0.016666677 -0.028787272 0.010401424 -0.002498741
0001d0 b1 9e b9 bc a6 59 06 bd f2 a3 da bc 19 ae 4f bc
       -0.022658678 -0.03280034 -0.026689503 -0.012675785
0001e0 d6 51 d6 3c c9 4b 92 bc 30 6c b0 3c 50 54 41 3c
       0.02616207 -0.017858403 0.021535963 0.011799887
0001f0 a2 e7 67 3b 8f 07 03 bd 20 fb 3f 3c 5c 0d bf bb
       0.0035385867 -0.03198963 0.011717588 -0.00583045
000200 67 23 ed ba a2 27 35 ba 81 97 84 3c 06 21 2e bc
       -0.0018092216 -0.0006910508 0.016185524 -0.010627991
000210 50 7f c0 bc 7a 01 35 bc 97 08 fb bc 2b 9c 0e bc
       -0.023498207 -0.011047715 -0.030643744 -0.0087042255
000220 bf 01 8e bc 0e b9 c6 3c d8 3f aa bb fc d7 a0 3c
       -0.017334817 0.024258163 -0.005195599 0.01963424
000230 d2 31 29 3c 20 55 15 3d 4b 44 f5 3c fa a8 89 3c
       0.0103268195 0.036458135 0.029939791 0.016804207
000240 f3 c8 f4 ba 4f da 65 3c ef 19 e8 bb 32 01 0a bd
       -0.001867561 0.0140291 -0.0070831697 -0.033692546
000250 cd da 7c bc b0 af fe 3c 3f 81 ee bb d6 c7 aa bc
       -0.015433026 0.031089634 -0.007278591 -0.020847242
000260 b4 88 1c 3c d1 ea 99 bb 76 3e 9b bc 71 61 84 bd
       0.009554077 -0.0046971818 -0.018950682 -0.06463898
000270 fb 9c ce 3a 2d 47 fe 3c 39 42 a3 bb 61 c3 b3 bc
       0.0015763337 0.031039799 -0.0049822596 -0.02194375
000280 da 32 54 3d 10 ed c6 bc d0 3c 95 3c 60 be f6 3b
       0.05180631 -0.024282962 0.018217474 0.0075300187
000290 3c 1c c1 bc dd 3d fc bb 88 ce 99 bc b8 9f 1d 3c
       -0.023573034 -0.0076978044 -0.01877524 0.009620599
0002a0 b1 01 c4 bc 30 79 25 3c 28 f7 49 39 ce 59 60 3c
       -0.023926588 0.010099694 0.00019260927 0.013693286
0002b0 28 de 10 bc 5c 79 d3 3c 62 3a 3e bc bc 05 5c bc
       -0.008842029 0.025814705 -0.011610599 -0.013429102
0002c0 b7 6b af bb 97 ae 34 bc 77 59 3b bd eb e4 ca 3b
       -0.005353417 -0.011027954 -0.045739617 0.00619184
0002d0 0a da be 3b 36 d0 44 3c 26 d5 d0 b8 9b a3 ff bc
       0.005824332 0.012012532 -9.957915e-05 -0.031205943
0002e0 b7 e5 43 bd 2e 25 06 bd cb 4c 37 ba f3 d3 0d bc
       -0.047826495 -0.0327503 -0.0006992339 -0.00865649
0002f0 9a ff 70 bc 1f 07 b9 bb 20 86 1b bd 6d 00 1b bd
       -0.014709378 -0.005646601 -0.03796971 -0.037842203
000300 b8 21 07 bd f6 e9 9d 3b 6a a7 66 bc 52 ee cc 3c
       -0.03299114 0.00481915 -0.014078001 0.025015984
000310 19 84 c4 3a d4 c0 2c bd 5e 2e f1 bc 7b 20 37 3c
       0.0014992981 -0.042176083 -0.029441055 0.011177178
000320 c2 48 59 bb e4 5f 8b bb 21 ca 92 3c 10 a2 fe bc
       -0.003315494 -0.0042533744 0.017918648 -0.031083137
000330 52 42 4d 3c 84 d6 69 3c 35 ea 28 3c a0 29 93 b9
       0.012528019 0.014272336 0.010309746 -0.00028069038
000340 91 26 d1 bb 2f 60 cd 3c dc 02 9c bc 8b 89 a4 3c
       -0.0063827713 0.025070278 -0.019044332 0.020085117
000350 48 70 5f ba 0d 21 89 3c 9d 40 a5 bb a6 f6 f6 3b
       -0.0008523506 0.016739393 -0.005043103 0.007536727
000360 30 80 e1 bc 61 62 b2 bb ec 61 57 bc e6 d8 64 bd
       -0.027526945 -0.0054438566 -0.013145905 -0.055870913
000370 18 2d aa bc 6e 57 90 3c a1 42 9a bc 8c 5f 22 bc
       -0.020773456 0.017619815 -0.0188306 -0.009910475
000380 cb d5 d3 3c 38 dd a9 bc f6 ee b4 3b 92 34 b8 bb
       0.02585878 -0.020735368 0.0055216504 -0.0056215012
000390 a5 cd fe 3c 3e db 00 3d 49 18 8a 3c d8 b3 29 bd
       0.031103918 0.031459086 0.016857283 -0.041431278
0003a0 e7 02 0f 3d fa 1f 73 3b 49 eb 42 bb 33 16 d6 bc
       0.034914877 0.0037097917 -0.0029742292 -0.026133632
0003b0 78 c5 e1 bc 45 d3 c7 3a 07 5b 4d bc 6e f9 f2 bc
       -0.02755998 0.0015245458 -0.01253391 -0.029659953
0003c0 b1 73 83 3c 29 2e ae bc f7 dc ce bc 9b bb 86 ba
       0.016046377 -0.021262245 -0.025251849 -0.00102793
0003d0 ab 2b 00 3c b4 f1 14 3d 98 60 e3 bc ed 73 bb 3b
       0.007822911 0.03636332 -0.02775602 0.0057206065
0003e0 b4 ab 07 bb 33 8f 87 bd ce fa 90 bd c6 34 a3 3b
       -0.0020701708 -0.0661911 -0.07079087 0.0049806563
0003f0 3c 32 93 3b 25 a3 0c 3c ed 85 6e bc 3d 5d a5 3a
       0.0044920724 0.008583819 -0.014558298 0.0012616288

fc_out.3.bias f4 [11]
000000 3f 3d 9c bc 2b 3e f4 bb 3f 05 76 bc 48 5c a0 3c
       -0.019072173 -0.0074537 -0.015015899 0.019575253
000010 59 37 72 3b 5d fb 71 3c c2 6c a5 3c db 47 63 3c
       0.003695926 0.014769402 0.020193461 0.013872112
000020 69 4d a5 3c d1 e6 f2 bc d2 22 b6 3c
       0.020178514 -0.029651077 0.0222334
