checkpoints/plaid/0/last_model.pth (torch, 572139 bytes, 10 tensors)

conv1.0.weight f4 [16, 3, 5, 5]
00000000: 14f5 0b3c ab69 89bd 0b7d cd3d 13b1 953d
00000010: 8301 07bd 5ce1 37bd 3e65 e1bc c7b8 35be
00000020: 29f6 783d a350 283b 2002 af3d 8877 813d
00000030: 6335 bdbd ccdf 723c 0b39 4a3d 9bd2 e8bd
00000040: 3c7b ddbb e02c e3bd 08fd 93bc ef6a 37bc
00000050: 2d8a 6dbd 4aca cfbc 986e 12bd f430 b9bd
00000060: 804f b63d 3f96 37bc 5aaf 0fbd 8424 853d
00000070: 04cb 3bbd 1bc1 fabd 8c11 943c 3de9 383c
00000080: 0d9d f4bd d410 8ebd 41f0 89bc b138 833d
00000090: 3466 b83d d3ac 263d bc9e 2a3d 099e e6bd
000000a0: b761 263d bedb c4bb 7429 9fbc d59a dabd
000000b0: eef0 98bd fdf4 d0bd 4af0 35bd c0f6 ca3d
000000c0: 02d8 30bd 709f a2bd 3af4 ec3b 91ec 4ebd
000000d0: 08a2 c1bd d8b6 dfbc 5729 c9bb c042 253d
000000e0: ad76 a2bc 189d 3ebd 25b3 b13d 1b48 8a3c
000000f0: 9691 be3c ee1b 893c ca9c 52bd 0d88 813d
00000100: 4931 2a3e b3ee 5bbc d971 ad3d fc0f 933d
00000110: 32cf dcbd 1285 733d 5aae 973b 688d 83bd
00000120: 770f d83d 4e61 3bbd b75f 13bd d2c2 803d
00000130: 2328 de3d ad85 35bd 9cf7 4c3d 2c4f 533d
00000140: 5e82 8e3d 30fd 04be 572b 023d ff8f d5bd
00000150: d4f0 77bd ac16 983c 83b4 6e3b 2351 413d
00000160: 6d76 953c 02a1 8e3c a46a b13c b942 c1bd
00000170: 8fce be3d 8865 a33d 612a cb3c 5e34 bebd
00000180: e6c6 f73d e9dc 013d 36a9 afbc 63d4 e4bd
00000190: bad4 fc3c a6ef fb3c 5cfd 04bc a081 b33d
000001a0: 2aa8 d1bd 867f fabc d781 203d f116 bbbc
000001b0: 025f 9dbd 36aa 703c a08b fd3c 4ba4 b9bd
000001c0: 63ce 343d ace7 643c 10d4 e03d a366 1abd
000001d0: 74c5 a23d 04e3 973c 8d0c 3cbd ed2c 1dbd
000001e0: cd17 ec3d e6a2 963c 2931 de3c 9ac1 b3bc
000001f0: 2054 fcbc 0516 44bd c55d d0bd 474c ebbd
00000200: 960a a63b cb57 e1bd 636e a2bc 8c13 17bd
00000210: 8893 1dbb 57f5 853d a180 cabd 4281 1dbe
00000220: ed21 08be 0d0a a8bd bd9d 07bd 98d2 d4bc
00000230: c327 85bd d7cc 763d c7cd 3ebd 42b7 3a3d
00000240: c5de dfbd e6eb aa3d 9e27 4f3d 3672 233d
00000250: 8f10 b1bc 035f cabd 3773 b83c 694e 80bc
00000260: 0705 833d dbc1 13bd ca7a 173b 4b5b 1e3d
00000270: 6bfd 803d 1355 f3bc cdc5 41bd 878f 793d
00000280: e88b 1ebd 4571 0bbe 6616 08be 7b7b 31bd
00000290: 5c1b a33d cbc6 03bd e193 1839 c1b2 a4bd
000002a0: 78aa 9b3d 8fc4 6dbc 9e45 013d a475 21be
000002b0: 882c 10bd eeaf 423d 6ab7 cf3d 00b5 a73d
000002c0: aac7 c43d c5ba 87bd db6b ed3b 7359 613d
000002d0: f2f6 96bb 5538 9abd 809b 7a3c 4b6a 4dbd
000002e0: ba12 993d 7418 083c 91d8 dc3c 8501 a53d
000002f0: dbe2 553d 5c03 073e 57b9 03be 66df ba3b
00000300: 9e1f cb3d 716e 17bd 5929 42bd f9d9 87bd
00000310: 48d5 75bd d432 813d c9be 80bc 06b7 bebd
00000320: ffcc c13d 9d74 12bd f33f 2ebd 868e 7a3d
00000330: 79d1 863d 2fcc c63d 9b79 c7bd e660 d0bb
00000340: 8c00 26bd f041 5c3d db9c a8bd 4dfd febd
00000350: e630 1f3c d40a b8bd 25f8 223c 17e9 913d
00000360: 1b9d d6bc edff c7bd 236b 263d d107 84bd
00000370: bea8 423d 6591 edbd 845a 5abd 92b5 183d
00000380: dafd aabd c886 063e 4132 fb3d 00c1 4ebd
00000390: 9526 d43c a047 dfbd 61dd dc3c 5e00 283c
000003a0: 2824 69bd 9973 29bc 51d0 bbbd 6788 423d
000003b0: 479d b4bb 2d8a 193c 77ca f1bd f367 8e3c
000003c0: 1097 acbd 17a8 0abe bb4c 06bd 5106 7bbd
000003d0: 35aa 743d a21f c63d 08c9 583c d4c5 a93d
000003e0: 7929 85bd 9703 5c3d b693 073e b845 493d
000003f0: 4920 b13d 6196 ed3d f749 c8b9 27e2 563b
0.008542318 -0.06709608 0.10033616 0.07309165 -0.032960426 -0.044892654 -0.027514096 -0.17746268
0.06078163 0.002568283 0.08545327 0.06321627 -0.09238698 0.014823865 0.049370807 -0.11368295
-0.0067590754 -0.110925436 -0.01806499 -0.011194929 -0.057993103 -0.025365014 -0.03575 -0.0904254
0.08901882 -0.011205255 -0.035079338 0.065011054 -0.045847908 -0.12243863 0.018074773 0.011286077
-0.119440176 -0.069368035 -0.016838195 0.064072974 0.09003869 0.04069216 0.041655287 -0.112606116
0.040620532 -0.0060076406 -0.019428946 -0.10674063 -0.07467829 -0.10202978 -0.04441861 0.09910345
-0.04317475 -0.079405665 0.0072312625 -0.050518576 -0.09454733 -0.027308866 -0.0061389613 0.04034686
-0.01983198 -0.046536535 0.08676747 0.016880086 0.02326278 0.01673695 -0.051419057 0.06324778
0.16620363 -0.01342361 0.0846898 0.07180783 -0.10781707 0.059453078 0.0046289386 -0.064234555
0.10549825 -0.045747094 -0.035979953 0.06287159 0.10847499 -0.044316936 0.050040826 0.051589176
0.06958459 -0.12987208 0.031779613 -0.10427856 -0.060532406 0.018565498 0.0036423511 0.04719652
0.018244946 0.017410759 0.021657296 -0.094365545 0.09316742 0.0797835 0.024800481 -0.09287332
0.12098484 0.031704817 -0.02144299 -0.11173322 0.030863155 0.030753922 -0.008117046 0.087649584
-0.10237153 -0.030578386 0.039186325 -0.022838088 -0.07684137 0.014689019 0.030950367 -0.090645395
0.04414214 0.0139712505 0.10977948 -0.03769554 0.079478174 0.018540867 -0.045910407 -0.038372923
0.11527977 0.018388223 0.02712305 -0.021942902 -0.030801833 -0.047872562 -0.10174135 -0.11489158
0.00506718 -0.11003073 -0.019828027 -0.036883876 -0.0024044234 0.065409355 -0.09887815 -0.15381339
-0.13294192 -0.08205042 -0.033109415 -0.025979325 -0.065017246 0.060253944 -0.046582963 0.045584925
-0.10931162 0.08345775 0.05057489 0.039903842 -0.021614341 -0.09881403 0.022515876 -0.015662389
0.06397443 -0.036073547 0.002311396 0.038661283 0.06298336 -0.029703652 -0.04730778 0.060927894
-0.038707644 -0.13617428 -0.13289794 -0.04333065 0.07964203 -0.032172006 0.00014550939 -0.08041907
0.07600874 -0.014512195 0.031560533 -0.15767533 -0.03519872 0.04753106 0.10142405 0.0818882
0.096083954 -0.0662742 0.0072455234 0.055016946 -0.004607075 -0.07530276 0.015295863 -0.050150197
0.07474275 0.008306611 0.026958736 0.080569305 0.0522183 0.13184875 -0.1286367 0.0057029007
0.0991814 -0.03697056 -0.047402713 -0.06633372 -0.060017854 0.06308523 -0.015715973 -0.09312253
0.09462928 -0.035755742 -0.042541455 0.061171077 0.065829225 0.09706914 -0.09739991 -0.0063592074
-0.040527865 0.05377382 -0.08233043 -0.12450657 0.009716248 -0.0898644 0.009946858 0.071245365
-0.02619796 -0.09765611 0.040629517 -0.06446803 0.047524206 -0.115999974 -0.05330898 0.037282534
-0.083491996 0.13137352 0.122654445 -0.050477028 0.025897304 -0.10902333 0.02696103 0.010253994
-0.056919247 -0.010342502 -0.091705926 0.047493365 -0.005511913 0.009371323 -0.11806195 0.017383551
-0.084272504 -0.13540684 -0.03278802 -0.06128532 0.059732635 0.09674002 0.013231523 0.08289686
-0.06502051 0.05371436 0.13239941 0.049138755 0.08648736 0.11600948 -0.0003820208 0.0032788606

conv1.0.bias f4 [16]
00000000: 4d36 c1bb 6e1c 3cbd b384 6d3d d29b e0bd
00000010: 4c73 8c3d b1dd 283b 0de8 903d 40fb 1bbe
00000020: 43fa ec3c 07b4 853d bdfd 8a3d f977 2ebd
00000030: 404b 7fbd 273a 1fbd d9dd 123d 7f29 6dbd
-0.0058963657 -0.04592555 0.05798788 -0.1096722 0.06857929 0.0025766904 0.0707551 -0.15232563
0.028927928 0.06528478 0.06786678 -0.042594884 -0.062327623 -0.038873818 0.0358561 -0.057900902

conv2.0.weight f4 [32, 16, 5, 5]
00000000: 9f2d d5ba 4770 673d b582 9fbc 07f0 b93c
00000010: 6e08 753d fab8 b9ba 6abb ec3c 267e 8ebb
00000020: f829 62bd 1584 963d 5fd3 313d a9e1 0fbd
00000030: d1a6 7e3d 2f40 433d a349 0c3d f6c0 413d
00000040: 1951 4e3d 3a85 723c e703 0bbc 654d 9ebd
00000050: e4f1 71bd 7d25 893a 0e52 8dbc b7a8 b63d
00000060: a8ae 903c 3cca a5b9 1085 c2bc 499b 623d
00000070: 9aa5 83bd a0a3 02bd dd05 c1bc 7158 66bd
00000080: 1a1d d13b f8b1 9abd 7cf9 2ebc ec3b 1d3d
00000090: f25f 46bd 6985 58bb a3f0 1d3c f702 0bbd
000000a0: 0311 053d 5ced a53c 8513 cdbc 172a a1bb
000000b0: c4f7 dcbc 91b4 22bd 237c 123d 9169 cabb
000000c0: ba3e bc3c 7dd5 4cbd 956f 07bc 0937 62bc
000000d0: d685 56bb 7792 9fbc 8201 b03c 8465 0a3d
000000e0: 7700 083d cd54 26bd 23a7 bfbc b163 7f3d
000000f0: 2f09 30bc e8da 3ebd 43aa 20bd 7b8d 74bc
00000100: c9dc 413d 44c3 443d cb20 cabc ffd7 183d
00000110: b5ff 233a 04bd 063d 1cf3 e7ba 5626 813c
00000120: f5f1 20ba 855b b63d 16a8 22bd f6fc 7cbb
00000130: 789a ef3b b5e9 a73b d7c4 4bbd 6441 7cbd
00000140: bb1c 4ebd 68a4 41bc 796f 8dbd 1aff e6bc
00000150: 7672 f1bc 4fbb ca3c 77dd 9b3d fade 23bd
00000160: 225b 813c e1aa 983c ffc4 01bd 89f1 893a
00000170: caa7 38bc 341c 053d ff34 0dbc 4635 263b
00000180: ae70 193b b693 e1ba 50cd 82b9 7a61 6abd
00000190: e8c5 293d 24cf 51bd d139 ae3c 28c3 1cbd
000001a0: c953 073d 5999 d03c 2f54 253d 61ee 9abc
000001b0: d9ab cfbc acc6 7cbd 5f87 463d 7895 f7ba
000001c0: 7014 273d 493c 4d3d 91c4 cabc cc14 7f3d
000001d0: 370f 9abd e99e ce3c 434c 47bd 5443 753b
000001e0: 7913 0cbd 7a11 9c3d 3104 3ebd 0aca aabc
000001f0: c83b e8bb ff51 7cbd 39b2 99bc fc60 00bc
00000200: aa21 013d ac02 f63c f4ee 3f3d 6756 1bbd
00000210: 0c4e 843c 4c11 973c 5997 b83c 8e32 b5bc
00000220: e136 c4bc 6141 243d 935e 633d ffc3 d83c
00000230: 106d 183c 50bd 763c d6db 593d df88 013d
00000240: bb33 2dbd d1d5 15bd b033 a9bc 1d89 ae3d
00000250: 4ce4 473c 6839 0d3d 75f6 38b9 60b4 0b3d
00000260: 641f 593c 388c dc3c 4b35 09bd a355 84bc
00000270: 3264 5cbd 30b1 c7bc de4c e33b f141 20bd
00000280: 2d26 b239 4643 6b3c e31b e5bc 4fd3 f43c
00000290: 12b5 613d 62a4 0fbd ad90 07bd 9f23 cfbc
000002a0: 8468 35bc 1105 d63c a2e1 6fbd bfa3 54bc
000002b0: 1dbb 433c ad9c b2bc 784f 293d 6b4b b2bc
000002c0: d756 2e3b e844 8bbd ee46 20bd 4407 dfbd
000002d0: 107f a4bd 50aa 553c a57c 1ebd 259f ce3c
000002e0: 477f 2fbd 332b 02bd bc2a db3c 8720 263d
000002f0: 0ef7 123d c23d 5c3c 6164 983d 9d7f 373c
00000300: 721b 2fbc b4db 8b3b 781d 553d 6b10 5dba
00000310: 16d0 c4bc 665d f33b 9e47 903c 06ef f03c
00000320: ac4c 953b eb5f a2bc 8e54 163d db54 6fbd
00000330: 546e f8bc bdd5 19bd 7b14 e53c 3c54 11bd
00000340: 503a 24bd 9486 c6bd cd00 333d ddb1 ad3c
00000350: 2d85 663d ed6b 02bd 979f 313d 9bbd 81bc
00000360: 015f 2abd 721f 7cbd f573 01bd 3a76 5b3d
00000370: 2b8c 43bd 283e 8839 5c83 f83c b439 c53c
00000380: 2edd 543d 1541 07bd df6b 2fbd f6fe 273c
00000390: 9984 883c 2fa5 6ebd d279 2cbd 053f 7f3c
000003a0: cd95 dd3b c942 c1bd 1eeb c63c 3e15 adbd
000003b0: 3d75 b0bc d82e 8fbc 89b5 243d 894f 49bd
000003c0: ffa9 763d 9ccf 30bd 44e6 403d 1722 6c3d
000003d0: 7f7f 893b 9d67 003c 1456 1f3d 4ca3 e13c
000003e0: 5c59 0abd ca7e c13c 0147 9a3d 8d60 0a3d
000003f0: bfa3 783b 80fe 853d 11e7 8dbd 6f9a 9f3a
-0.0016264206 0.05650356 -0.019471506 0.022697462 0.059822492 -0.0014169507 0.02889796 -0.004348534
-0.055215806 0.073494114 0.04341447 -0.035127316 0.062170807 0.047668632 0.034249913 0.047303163
0.05037031 0.0148022715 -0.008484817 -0.077296056 -0.059068576 0.0010463443 -0.01725104 0.089188986
0.017661408 -0.0003162193 -0.02374509 0.055323873 -0.0642807 -0.031894326 -0.023562366 -0.056236688
0.006381643 -0.07553476 -0.010679599 0.038387224 -0.048431344 -0.0033038503 0.009639892 -0.033938374
0.032486927 0.020254783 -0.025033722 -0.0049183476 -0.026973613 -0.039722983 0.035762917 -0.0061771353
0.02297913 -0.050008286 -0.008266349 -0.013807067 -0.003273358 -0.01947902 0.021485094 0.03378822
0.03320357 -0.040608216 -0.023395127 0.062350933 -0.010744377 -0.046595484 -0.039224874 -0.01492631
0.047329698 0.048037782 -0.02467384 0.037315365 0.000625606 0.032895103 -0.0017696354 0.01576535
-0.000613957 0.08904175 -0.03971108 -0.0038602925 0.0073121153 0.0051242956 -0.049748268 -0.0615858
-0.05032037 -0.011818983 -0.06906027 -0.028197814 -0.029473525 0.024747519 0.076106004 -0.04000757
0.015790526 0.018636169 -0.03168201 0.0010524254 -0.011270473 0.0324976 -0.008618592 0.0025361343
0.002341311 -0.0017210159 -0.00024948502 -0.057221867 0.041448504 -0.051222935 0.021267803 -0.038272053
0.033038888 0.025463747 0.040363487 -0.018912496 -0.025350498 -0.061712906 0.048468944 -0.001888915
0.040790975 0.05010632 -0.024751933 0.062275693 -0.07522433 0.025222259 -0.048656713 0.0037424164
-0.034198258 0.07620521 -0.046390716 -0.020848293 -0.0070872046 -0.061601635 -0.018761741 -0.007835623
0.031526245 0.03003057 0.046858743 -0.037924197 0.016150497 0.018440865 0.022533106 -0.022118833
-0.02395195 0.040101413 0.055510115 0.026460646 0.009303346 0.015059784 0.053188168 0.03162467
-0.042285662 -0.036580864 -0.02065453 0.08522246 0.012200426 0.034478575 -0.0001763942 0.034107566
0.013252113 0.02692233 -0.03349809 -0.016154116 -0.05380649 -0.024376482 0.0069366535 -0.039125387
0.0003397925 0.014359301 -0.027967399 0.029885916 0.055104323 -0.035068877 -0.033096958 -0.02528554
-0.011072282 0.026125463 -0.05856479 -0.012978493 0.011946467 -0.021803224 0.041335553 -0.021764478
0.0026602054 -0.06800252 -0.039130144 -0.10890058 -0.08032048 0.013041094 -0.03869309 0.02522237
-0.04284599 -0.03177948 0.026753776 0.040558364 0.03588014 0.013442459 0.07441021 0.011199859
-0.010687696 0.004268134 0.052030057 -0.00084329274 -0.024025004 0.0074269054 0.017612275 0.02941085
0.004556259 -0.019821128 0.03670173 -0.058430534 -0.030326046 -0.037557352 0.027963867 -0.035480723
-0.040094674 -0.096936375 0.043701936 0.021202976 0.05627935 -0.031841207 0.043365087 -0.015837481
-0.04159451 -0.061553426 -0.031604726 0.053579547 -0.047741096 0.0002598625 0.030336075 0.024075367
0.051968746 -0.03302105 -0.042827483 0.0102536585 0.01666479 -0.058263 -0.042108364 0.01557899
0.0067622424 -0.094365664 0.024282034 -0.08451317 -0.021540279 -0.017478392 0.040212188 -0.049148116
0.060220715 -0.04316674 0.0470946 0.057649698 0.004196107 0.007837203 0.03890045 0.027543686
-0.033776626 0.023620028 0.07533074 0.033783484 0.0037939397 0.06542683 -0.06928838 0.0012176762

conv2.0.bias f4 [32]
00000000: aec7 e1bc 8a91 17bc 7d3f 3d3d ab21 2cbc
00000010: 00ac 69bd 5dbc 88bb 426a d8bc 9f89 093d
00000020: f56f 8c3a b79b 97bc 4053 c8bc d0c5 36bd
00000030: 9ee5 b0bc df8d 00bd 08f6 a43c dbf5 9dbc
00000040: 6fcd 95bd 22f0 a93b 6d1c e1bc 3bac aa3c
00000050: 96c6 01bd 390c c3bc 8f10 93bc 8135 b2bb
00000060: a437 ecbc 8c35 55bc b4df cebb 658b dfbc
00000070: 006e 55bc 32c9 b7bc a97f 92bc b2bb ec3c
-0.027561035 -0.009251008 0.046203125 -0.010506074 -0.057048798 -0.0041728453 -0.026417855 0.03357851
0.0010714518 -0.018506868 -0.02445376 -0.044622242 -0.021593865 -0.0313853 0.020136848 -0.019282272
-0.07314574 0.0051860968 -0.027479375 0.020834079 -0.031683527 -0.02380954 -0.017952232 -0.005438507
-0.028835125 -0.013013255 -0.0063132886 -0.027288148 -0.013026714 -0.022434805 -0.017883139 0.028898094

conv3.0.weight f4 [64, 32, 5, 5]
00000000: 8954 33bc 2238 6fbb d6b8 40bc 4539 233d
00000010: cb60 883c 7014 23bb 24cc d8bc 3cf7 5d3c
00000020: 9c3c e2b8 152f 963c 1818 fcbc 8b2e cd3c
00000030: 68ee 18bd cf48 1b3c ca83 33ba 5be0 a3bc
00000040: 2798 2dbc 8c6a 16bb ba59 72bc 52c9 033d
00000050: 9cf9 12bd d747 773c d8a4 853a 9a7b 763c
00000060: f23c cd3c ad68 5cbc 11dc acbc c564 63bc
00000070: 7650 37bd 894f 83bb dc75 b1bc fd64 2bbd
00000080: 22a8 a03c 667a 15bd 9680 07bd 5913 9cbc
00000090: 8cbe b43c 5253 e83c 61fd f6bc 21a1 4dbb
000000a0: d66a babb c2bd 50bc a54f b1bc 6533 f63b
000000b0: c8d9 adbc b11d 81bc fecc 823c 03e8 05bd
000000c0: 6071 0d3c b512 60bb fcfb b9bc 6553 883c
000000d0: 63d0 0dbd 5363 80bc 1636 0b3d 4681 103c
000000e0: 3df1 9e3b 73b0 bb3b 6699 f8bb e8e6 eb3c
000000f0: b60b 0d36 4496 68bc 2041 0fbd 6404 aabc
00000100: f7df aa3c 38b9 e53c 61aa b33b de38 f03c
00000110: 20a0 553c 1cb7 093d d9f5 5abc cb0d d5bc
00000120: 621e 113c 65d5 27bd 4bdd dcbc 7dd6 373c
00000130: 41a4 a3bc bfef fabc 19f9 fabc e3fe bc3c
00000140: a535 b8bc 82b6 fabc 6da8 2fbd bb50 25bd
00000150: 1403 54bc 024b 7abc 2c50 83bc befb 043c
00000160: 1929 fbbc 0bfe a23c 5fcc eb3c 89e1 16bd
00000170: 66fb 763c fbb7 4dbc 48df 98bc 30e3 e6bb
00000180: 9460 c73c ad76 37bc 9d7d 0cbd 2983 2abd
00000190: 8a62 16bb 1c15 b5bb 38ad 6b39 b306 e6bb
000001a0: e725 a93c ebd2 a33c 7986 073c 147f bcbc
000001b0: 9a4b 903c 19ee 483c 7e82 8cbc 365f e1bb
000001c0: fc58 5fbc 4728 f9bc 1359 57bc ea55 90bb
000001d0: 0b2d 8c3c f209 a03c eac4 6bbb bde0 60bc
000001e0: 1f0a 2539 eb69 38bc b182 88bc fea7 92bc
000001f0: 3401 28ba 1f55 6cbb 38e1 92bc f5f8 2c3c
00000200: c4c1 bfbc ae5c 923c 4d23 c8bc a56b f4bc
00000210: 3c06 e6bc 1f58 3b3c 89a8 c93c 0543 12bd
00000220: 9a4c dabc 9411 0b3d b813 f53b 03de 6bbc
00000230: e1c0 103d c249 cabb c86d a1bb ea41 b83c
00000240: 87d7 1bbd 1804 1e3c 078d b63b 7290 d93a
00000250: 209f d53c e95e 95bc dfb0 56bb fc9c 2cbd
00000260: 87b3 18bd 36b7 033c 2589 94bc d3f7 6aba
00000270: e0fe 7abc d333 04bd 365c 01bd 01e8 3cbc
00000280: 2349 8e3c c19d 99bb 4836 4bbc 477d 13bd
00000290: e484 313b 9ada 99bc 5eca 13bc c049 ec3b
000002a0: ad48 aabb 9e65 af3c f07d 2b3c 5914 8bbb
000002b0: b1a2 ffbc 881e 923b 6743 7b3c 9988 39ba
000002c0: 08e8 b5bc c1b7 963b 3f8e d9bc dd69 26bc
000002d0: 7f82 83bc a890 22bd af1d b83c 7952 ad3c
000002e0: 1fe3 c5bc 96d2 bf3c 0f1a 69bc 0ea8 c2bc
000002f0: e6fd 833c 458f 263b b135 ed3b 3c78 893c
00000300: 8283 e93a fd59 8c3b fb9e cf3c ebda afbc
00000310: 2d5d 23bd 657b 873c 39b0 493b 5399 973b
00000320: a474 24bc f80d 00bd 684f 97bb 6e61 b53c
00000330: 28f2 90bc 4d25 ce3c 4312 0ebc 1395 ffbb
00000340: ada2 dfbb 335c 04bd f868 35bd cb2b 7d3c
00000350: 3b66 dfbc 0ce8 c5bc 6cd7 e4bc 4e38 cebc
00000360: 8d78 f4bb 7231 8bbc 7962 da3c adec a4bc
00000370: 49ff 3f3c d893 34bc cbce ecbb 9021 4dbb
00000380: 6062 cb3c 884b 843c f060 23bd 3b83 adb9
00000390: 96ac 28bd 49dc 013d c84f 7dbb 83db 9cbb
000003a0: c60a cfbc a999 26bc 977c ae3c 282f 2abb
000003b0: c41f 643c 29bc a93c 2dcb 8dbc dc12 a1bc
000003c0: fd1c 3bba 84d4 b5bb 2622 8fbb 0bf6 9f3c
000003d0: 28cc 81bc 99ec db3c 6f52 b6bc 7e41 8cbc
000003e0: 1a0a 953c d11b adbc c3db 48bb 4d2c ccbc
000003f0: 6354 5aba 7a9d ddbc f23b febc b14e 8bbc
-0.010945448 -0.0036501964 -0.011762818 0.03984954 0.016647717 -0.0024884008 -0.02646453 0.013547715
-0.00010787809 0.018332997 -0.030773208 0.025046607 -0.037336737 0.009477808 -0.0006847946 -0.020004442
-0.010595358 -0.002295169 -0.0147919 0.032174416 -0.035882577 0.015092812 0.0010196222 0.015044117
0.025053475 -0.013452691 -0.02110103 -0.013879006 -0.044754468 -0.004007284 -0.021662645 -0.041844357
0.019611422 -0.03649368 -0.033081613 -0.019052194 0.022063516 0.028360043 -0.030150117 -0.0031376558
-0.0056890054 -0.012740554 -0.021644423 0.007513451 -0.02122201 -0.015761228 0.015966889 -0.032691967
0.008632988 -0.0034190838 -0.022703163 0.016641328 -0.03462256 -0.015672361 0.033987127 0.008819884
0.004850535 0.0057278215 -0.007586646 0.028796628 2.1017454e-06 -0.014195982 -0.034974217 -0.020754047
0.020858748 0.02804242 0.005482957 0.029323991 0.013038665 0.033621892 -0.013364279 -0.026007554
0.0088573415 -0.040974993 -0.02696099 0.011220572 -0.019975783 -0.030631898 -0.030636357 0.023070758
-0.022486517 -0.030604605 -0.042885233 -0.040360194 -0.012940187 -0.015276672 -0.01602944 0.008116661
-0.030659245 0.019896528 0.028783975 -0.03683618 0.0150745865 -0.012556071 -0.018661156 -0.007046126
0.024338044 -0.011197728 -0.03429948 -0.04162899 -0.0022946917 -0.005526198 0.00022475875 -0.0070198416
0.020647956 0.019998034 0.008271807 -0.023009814 0.017614175 0.012263798 -0.017152067 -0.006877805
-0.013632055 -0.030414714 -0.013143796 -0.004404773 0.017111322 0.019535992 -0.0035975524 -0.013725457
0.00015739397 -0.011255722 -0.016663881 -0.01790237 -0.00064088707 -0.0036061478 -0.017929658 0.010557403
-0.023407824 0.017866459 -0.024430895 -0.029836485 -0.028079145 0.011434584 0.024616497 -0.035708446
-0.026647855 0.03395231 0.0074791573 -0.014396193 0.035340194 -0.0061733434 -0.004926417 0.022492368
-0.03804734 0.009644531 0.005571011 0.0016598834 0.026076853 -0.018233733 -0.0032759232 -0.0421419
-0.037280586 0.008039286 -0.018131802 -0.000896332 -0.015319556 -0.032275986 -0.03158208 -0.011529923
0.017368859 -0.004687995 -0.012403078 -0.036008146 0.0027087266 -0.018780995 -0.009020416 0.00721094
-0.005196652 0.02141076 0.010467038 -0.004244369 -0.031205507 0.004459206 0.015335894 -0.00070775446
-0.022205368 0.004599542 -0.026557086 -0.010157076 -0.016053436 -0.039688736 0.022475092 0.02115749
-0.024156151 0.023415845 -0.014227404 -0.023761775 0.01611228 0.0025414985 0.0072390665 0.016780965
0.0017815682 0.0042831884 0.025344362 -0.021466693 -0.03988378 0.016538331 0.0030775203 0.004626432
-0.010037575 -0.03126332 -0.0046176203 0.022141185 -0.017693594 0.02516427 -0.008671346 -0.0077997535
-0.0068248124 -0.03231449 -0.04428956 0.015452336 -0.027270427 -0.0241585 -0.027934752 -0.025173333
-0.00746066 -0.01699135 0.026658284 -0.020132387 0.01171858 -0.011021577 -0.0072268 -0.0031300522
0.024827182 0.016149297 -0.03988737 -0.00033094906 -0.041180216 0.03170422 -0.003865229 -0.00478691
-0.025273692 -0.010168471 0.021299643 -0.0025968049 0.013923589 0.020719605 -0.017308796 -0.019662313
-0.00071378035 -0.0055490155 -0.0043680845 0.019526502 -0.01584442 0.026846217 -0.022256104 -0.017121073
0.018193293 -0.021131428 -0.0030648566 -0.024923468 -0.00083286146 -0.02705263 -0.031034444 -0.017005296

conv3.0.bias f4 [64]
00000000: 6a5e f5bc 3416 2d3c 39c7 a5bc 09d7 023d
00000010: 899e bd3c 4695 ba3c 1240 b7bc 968b 843b
00000020: 8918 84bc 50c4 173c d2dc 8bbc af8f 803c
00000030: 801a 1a3c 92ae 953c c348 c13a 525f 033d
00000040: 7afd 103c a5bb 1dbd ddbf e3bc 551b 0f3b
00000050: 6b80 95bc 447f 71bb 584a 35bb 6d83 383c
00000060: 6fe2 22bd ea23 7b3c c6ca 50bc ce7d abbc
00000070: b3fa 3bba 6296 64bc 2b95 c33c 34e5 adbc
00000080: 78fb e3bb a42c 893c d2d2 18bd b320 8a3b
00000090: 67de 66bb 7a7a e83c 6272 863c e9ec 843c
000000a0: 0996 bd3c 19b6 973c 2b48 8f3c d2bd e3bb
000000b0: 7304 ba3b bfa9 f6bc 9feb 08bd 2002 223d
000000c0: ba79 213c 104d fdbc 85f0 42bc 3ce4 c7bc
000000d0: 8eea 943c 5002 d6bc 1a22 ac3b 1b51 08bd
000000e0: 0e9a e13c ff99 aebb d0fd a43c ae7c 263d
000000f0: 5bb0 cc3b 270d cabc a079 ffbc fab7 8bbc
-0.029952247 0.010564376 -0.020236598 0.031943355 0.023146885 0.022776257 -0.022369418 0.0040449603
-0.01612498 0.009263113 -0.017073069 0.015693514 0.009405732 0.018271718 0.0014746416 0.032073326
0.008849496 -0.03850903 -0.027801448 0.002183636 -0.018249711 -0.0036849538 -0.002766272 0.011261803
-0.039766725 0.015328387 -0.012743657 -0.020934012 -0.0007170841 -0.01395187 0.02387484 -0.021227457
-0.0069574676 0.01674492 -0.03731043 0.004215324 -0.0035227777 0.028378714 0.016411964 0.016226249
0.023142831 0.018519448 0.017490467 -0.0069501186 0.0056768 -0.030110238 -0.03342783 0.039552808
0.009855682 -0.030920535 -0.011898165 -0.024400823 0.01817825 -0.02612415 0.0052530887 -0.033280473
0.02753928 -0.0053284164 0.020140558 0.040646248 0.006246609 -0.024664475 -0.031185925 -0.0170555

fc_out.0.weight f4 [1024, 64]
00000000: cc63 843d 486d afbd b93d f93c 6934 dc3c
00000010: ff79 59bc a37c efbd c90b 01b9 a3ad 243d
00000020: 3d65 cd3d d859 3fbd 4167 f43c 69e9 7bbd
00000030: b0c9 c03d ac82 7cbd 73b1 b1bb ac6c 87bd
00000040: 7028 263d 6efc 1dbd af38 903d 1a5d 8bbd
00000050: 96dc d2bd 70a7 ff3d 4739 743d d07f a1bd
00000060: aa6a 853d 5e83 2dbd 7070 72bd b56c a83d
00000070: cf08 cebd 2b4a de3d 620f 6a3d 0606 e5bd
00000080: cf8d ebbd 4cc4 9f3d 8a65 853c 546d c73d
00000090: 270c 80bd 3ed4 f53d 4494 4fbd d0e3 803d
000000a0: d5f8 83bd 3c78 81bd af0e 13bd b604 fbbd
000000b0: e2fa c13d 4b2e 9fbd d413 f9bd 4966 cdbd
000000c0: 2e96 ab3d bf53 b3b9 4e59 af3a ee60 1bbe
000000d0: 68e3 5e3d b3cc d2bd 1b52 b43d 22aa 0fbe
000000e0: f11f f03c aa58 54bd 3ed0 0cbe fd3e ccbd
000000f0: 6bcb 62bd ef2f 3e3d 2e89 ccbd e6e6 3dbd
00000100: 9e04 72bb 9650 fdb9 2b35 a6bd f765 ecbd
00000110: cebe fbbd 1e36 edbd 2802 5d3d 6755 41bd
00000120: 4769 b5bc 730f bfbd b487 b5bc efa8 d63d
00000130: a308 b33d ee68 823d 3d28 5bbd 7469 f33c
00000140: ea81 d83d c3d9 bf3d 33ed 423c b68b 773d
00000150: f53f 853d 2691 f0bd 50a3 6c3d 40b2 acbc
00000160: 74ad d03d 2e2e 2fbd 8c52 153d 7a5f dbbd
00000170: 8855 2e3d 2542 66bb fed2 ab3d 2539 e1bd
00000180: 40fe f7bb 6ce5 5cbd c16a d7bd 481d de3d
00000190: ec37 073d 9cf8 d2bd 0281 003e 9eab 203d
000001a0: bd1c cb3d 25bb ec3d 2c2b 403d bba1 b9bc
000001b0: 4b19 b83d ac32 ec3c f091 ff3d 9df6 4d3d
000001c0: 5208 3c3c 7db9 f2bd e155 fe3c 8028 4ebd
000001d0: 6814 06bd 5e34 7d3d d9db 8cbc a44c a0bd
000001e0: d210 f03c f5a5 9a3c 3827 d8bd 69a9 603d
000001f0: 87e1 373d 175b 0a3e 400a 5cbd f9ff 003b
00000200: ad7f 89bd dd21 efbd 1f98 05bd 4c83 93bb
00000210: f7a8 16bd 4ec2 bdbd cf30 4c3b 823f c1bd
00000220: f3fd c1bd 7aa6 abbd 7d9a 01be 8cb2 18be
00000230: 93e5 153e a7df 15bd c239 963d 9ceb a5bd
00000240: bf8d 9cbd 1f2a 853d bb1a 5dbd ad9c d33b
00000250: f519 dabc c71d 9a3d 20dc cb3d c915 07be
00000260: 5ddb fcbd 1a12 8cbc 86ba b4bd 1b74 fcbd
00000270: 7a99 843d 6f58 c93d 68a0 483c 16b3 e13b
00000280: b3cc 663c 8592 8dbd 99b9 a03c 963c 86bc
00000290: 4ee4 763d 9e78 9cbd 5cfa 05bd 2d31 1abd
000002a0: 0643 78bd cb0e 76bd 630d 0f3c 92e2 66bd
000002b0: d957 b0bd 4ee0 97bc dfc3 eabd 7d24 e83b
000002c0: 7350 29bd 561e f83d e7ad 32bc 2fd5 873d
000002d0: 65ec e8bd 8989 fa3c 0bc8 f43d e7f4 c03d
000002e0: 3de0 bebd bd01 8dbc eac1 4abd c07d 853d
000002f0: 266b d0bd 2724 1a3d 57c1 8f3d a288 d1bd
00000300: 086a ccbd f6f4 85bd 9b29 a43d bc52 9abd
00000310: c71c f5bd 8c54 49bd d29a bfbd dada e23c
00000320: 0b10 053d fc61 feba 3aed f0bd 168a fe3d
00000330: 2e81 a7bd 1958 b63d cb10 883d 84fe d33c
00000340: e2bc e3bd 57b3 6fbd 6c77 7f3c 5b5c ddbc
00000350: 1275 19bd 7d0b 913c 3071 103d a6b9 afbc
00000360: 1987 15bd 0778 27bd 96f1 d7bc 1e41 f1bd
00000370: 48cc 993c 7105 6fbb 8be3 963d 87fc 533d
00000380: 6da6 d8bd 2723 bfbd cc65 d63c b271 d9bd
00000390: 7405 a0bd 121b 4c3d 6c38 14be 26e2 953d
000003a0: 6f95 0f3d 3285 a9bc bdf3 533d bd30 77bd
000003b0: fc99 ed3c 8383 78bd 67c7 c7bd 3968 973d
000003c0: e13a 04be e657 283d 6446 2fbc 2521 00be
000003d0: 8465 a3bd 1982 ec3d 41f8 de3d 53d2 c23d
000003e0: 37b5 63bd a9fe 423d 25b6 00be 1a21 853d
000003f0: eb3d c03c bce5 ecbd 662d ca3c fb54 c23d
0.06464347 -0.085657656 0.03042494 0.02688046 -0.013273715 -0.116936944 -0.00012306789 0.040204655
0.10029075 -0.04671654 0.029834392 -0.061501894 0.09413469 -0.061648056 -0.005422765 -0.066125244
0.040565908 -0.038570814 0.070420615 -0.06804867 -0.1029598 0.12483108 0.059624936 -0.078857064
0.06514485 -0.04236161 -0.05918926 0.08223859 -0.10060274 0.1085399 0.057143576 -0.111827895
-0.11501657 0.078011125 0.01628377 0.097376496 -0.06252318 0.120033726 -0.050678506 0.06293452
-0.06443945 -0.06321761 -0.035902675 -0.12256758 0.0947168 -0.077725016 -0.12161985 -0.10029275
0.08378254 -0.00034203936 0.0013378055 -0.15173694 0.05441609 -0.102929495 0.08804723 -0.14029744
0.029312106 -0.05184237 -0.13751313 -0.099729516 -0.055369776 0.04643243 -0.099871024 -0.04636278
-0.0036929022 -0.00048315962 -0.0811561 -0.11542886 -0.122922525 -0.11582588 0.053957134 -0.047200587
-0.022144927 -0.093291186 -0.022159435 0.1048144 0.08741882 0.0636767 -0.05350517 0.02971337
0.10571654 0.093677066 0.011897373 0.060435973 0.065063395 -0.11746435 0.057772934 -0.02108109
0.101893336 -0.04276865 0.036455676 -0.1071157 0.042562038 -0.003513464 0.08389853 -0.109972276
-0.0075681508 -0.05392973 -0.105184086 0.10845429 0.033012316 -0.10301325 0.12549213 0.039226167
0.09917591 0.115591325 0.046916172 -0.022660127 0.08989199 0.028832756 0.12479007 0.050284017
0.011476593 -0.11851785 0.03104681 -0.050331593 -0.032734305 0.06181752 -0.017194675 -0.07827118
0.029304896 0.018877963 -0.105543554 0.054849062 0.044892814 0.1351131 -0.053720713 0.0019683822
-0.06713805 -0.11676381 -0.032615777 -0.004501736 -0.03678223 -0.09265576 0.0031157022 -0.09435941
-0.09472265 -0.08381362 -0.12656589 -0.1491186 0.14638357 -0.036590245 0.07335235 -0.081015795
-0.076442234 0.065021746 -0.05398057 0.006457886 -0.026623705 0.07525211 0.09954095 -0.13191904
-0.12346528 -0.017098475 -0.08824639 -0.12326833 0.06474586 0.098313205 0.012245275 0.006887804
0.01408689 -0.06912712 0.01961975 -0.016386312 0.060276322 -0.076401934 -0.032709464 -0.037644554
-0.060610794 -0.0600727 0.008731219 -0.056368418 -0.086105056 -0.018539574 -0.11463141 0.007084428
-0.041336488 0.12115161 -0.010905719 0.066324584 -0.11373214 0.03058316 0.11952218 0.094217114
-0.09320114 -0.017212743 -0.049501337 0.065181255 -0.10176687 0.037632134 0.070192985 -0.10231139
-0.09981161 -0.06540863 0.08015748 -0.075353116 -0.119683795 -0.049152896 -0.093557015 0.027692247
0.032486003 -0.0019407864 -0.117639974 0.124286816 -0.08178936 0.08903522 0.06643828 0.025878198
-0.11120011 -0.05852064 0.015592437 -0.027021578 -0.037465163 0.017705673 0.035264194 -0.021450829
-0.036505792 -0.04088595 -0.026360314 -0.11779998 0.018774167 -0.003647175 0.07367619 0.0517545
-0.10578618 -0.09332877 0.026171587 -0.10617389 -0.0781354 0.049830504 -0.14474648 0.07318525
0.03505462 -0.020693395 0.05174612 -0.060349215 0.02900409 -0.060672294 -0.0975483 0.07392926
-0.12913086 0.04109945 -0.010697935 -0.12512644 -0.07978347 0.11548252 0.108871944 0.095127724
-0.05559274 0.047606144 -0.12569483 0.06500454 0.023467025 -0.11567256 0.02467985 0.09488865

fc_out.0.bias f4 [1024]
00000000: a6a9 773d 0546 9fbd 079c fbbd dae1 03be
00000010: 6f60 de3d 6157 a63d 070e c5bc a5fe 7fbd
00000020: d8ae cebd 147d ab3d 9470 9b3d 2d4e 3abd
00000030: dcd9 bbbd cb95 ae3d e2ec 57bd 1f1a 9ebc
00000040: 9b3b a63c 6eee f3bc b154 6abd 4885 2b3d
00000050: ac37 d13d 6a0f da3d 0c4f 84bd 5469 29bd
00000060: bbda 083d 7580 003c 0561 a8bd e20d 903c
00000070: 44bc 193b fd73 103e bc3f 883d 216a f0bd
00000080: 615c 95bc fc3b f13d 1622 383e bfd6 91bd
00000090: 6494 753d 9137 043d 66b5 163d 952b b03d
000000a0: dad2 cfbd 4eb6 e33d 1179 11bc 912a c03d
000000b0: df5d 60bd f921 09bd 22ed 853d 6a3e c23d
000000c0: dc48 8bbd 20d8 863a 4622 593d 61b4 143c
000000d0: a09a 8b3d dec2 febc 2f11 2cbd a7e6 b83d
000000e0: 40bf 893d d18a 3bbd 049a babc 01fd f1bc
000000f0: 3a14 9b3d b4c0 853c e0e8 f2bd afb3 31bd
00000100: f3fb 5c3d e09a d5bd 2990 af3c 8ab1 8cbd
00000110: e0ec b9bd c324 96bd 254c 5f3d 7a26 09be
00000120: 7afc 073d a52b 6f3d e260 4ebd c06a 013e
00000130: dc1d 813d 71d1 f33d 30d4 203d ca5e 0a3e
00000140: b75c 2c3d fc56 de3c 33e8 f33d 8c30 d2bc
00000150: 0b65 71bd 427d 9a3b 11da db3d 580c dabd
00000160: 6124 1c3d 15e3 3cbd 6318 91bd 6b90 0ebd
00000170: 7e3b 16bd aac9 a0bd 8b0f eabd b785 ff3d
00000180: f246 ac3d 1a80 9d3d 83a8 fc3d bf55 c13d
00000190: 844c b13d 3da2 22bd a5b0 0ebd 8118 48bd
000001a0: 3ae7 973d 8c22 b73d 522c f03d 072f 05bd
000001b0: 82b3 853c 88e3 56bd 36a0 b13d a5d0 5339
000001c0: 34ca ddbd 4499 093e e1c9 8bbd 085f d4bd
000001d0: 3417 e53d 393f c53d 05a5 e8bd 38d2 97bd
000001e0: 942e 983d 17d9 883c 9a56 f1bc 54a4 b33d
000001f0: bc0a 873c ae30 4c3d 96d8 ad3d 030d a83d
00000200: d39a 39bd 8232 14be 604f a1ba b0e0 bb3d
00000210: 2571 fbbc 1a45 f83c 8288 48bd f9cc b8bd
00000220: 22fc e13d 3271 b33d c959 bebd d36c b8bb
00000230: 4c6e 6b3d f552 f43b b011 183e b09d 443d
00000240: aefb b0bd 342a 453d ebcd 093e e560 fd3c
00000250: a9b8 00bd 7b62 973d 9102 b13c 5a6a 06bd
00000260: fcac 11bb 3a9c 113c fc7a b9bd 86e3 153d
00000270: f934 89bd aabe 0abe 2d26 bd3d 6b02 b13d
00000280: aca6 52bd fb8f 62bd 4fbd 1a3d 52db 523b
00000290: 5c9d 87bd 8cf3 873d f7bb 803d f899 e5bd
000002a0: 7026 d43d 8842 e6bd 1453 c63d 2384 99bd
000002b0: 45ea 65bd f636 443d c176 453d 320f 863d
000002c0: 5cc1 8abd 3786 48bd 6f1e 8d3d f094 f13c
000002d0: 67fb 513d 87c7 613d 2245 bb3d 15ca eebc
000002e0: e189 7cbd 24d7 c63d e544 92bd f4cd 39bd
000002f0: 5d71 8c3d cd66 f2bd 0d64 833c f04b 243d
00000300: 7e48 ad3d dd66 7cbd ef09 aebd f32c 00be
00000310: 55d3 173d 5503 a23d 1936 c93c 078e ae3d
00000320: d805 96bd 2343 ae3d cb51 8f3b d586 c2bd
00000330: 6eed e1bd c461 7b3b 43e2 c7bd dd49 b7bd
00000340: 65b1 94bd 4829 3f3d 9c18 9f3c 6b22 d5bb
00000350: 3f04 f6bd aef0 f03d b9a6 2ebd ab7f e43d
00000360: 9d1d b3bc 9bbe d43d 15de 973c 2cb0 aa3b
00000370: 8cd4 0dbd d0e9 73bd 895a cbbd 5640 053a
00000380: f68a e2bd 9a41 983c 9e0d 8cbd 4c8b b7bc
00000390: 2b7c 833d 657d 5f3d c231 40bd f298 ec3d
000003a0: 99de 7c3d e182 6f3d b1ea 973d 894f 0ebd
000003b0: 6c2b db3c 2d24 cebd 85ec a6bd 57df 7cbd
000003c0: 5cba 5e3d 986e b9bd 2121 593d 6ba7 bfbd
000003d0: b1b3 0a3d 742d 443d e4f3 1fbb 695f aabd
000003e0: bb4a 86bd d8bf 48bd 6c5a d3bd 8c93 0d3e
000003f0: 5ca2 a3bd 7317 fc3c b4a2 273d bab0 b3bd
0.060464524 -0.07777027 -0.12285619 -0.12879124 0.10858237 0.08122135 -0.02405454 -0.062498707
-0.100919425 0.08373466 0.07589832 -0.04548471 -0.09172413 0.085246645 -0.052716143 -0.019299565
0.020292094 -0.029776778 -0.057209674 0.041875154 0.10215697 0.10647471 -0.064603895 -0.041360214
0.033411723 0.007843127 -0.0822163 0.017584745 0.0023458162 0.14106746 0.06652781 -0.117389925
-0.018232526 0.11779019 0.17981753 -0.07121038 0.05995597 0.032279555 0.03679409 0.086020626
-0.101476386 0.11118756 -0.008878962 0.09383119 -0.054777022 -0.033479664 0.0653937 0.09484561
-0.06801006 0.0010287799 0.0530112 0.009076209 0.06816602 -0.03109878 -0.042008575 0.090283684
0.06725931 -0.045786683 -0.022778518 -0.029539587 0.07572217 0.01632724 -0.11860824 -0.04338425
0.053951215 -0.10429931 0.021431046 -0.068698004 -0.090783834 -0.073312305 0.054515976 -0.13393584
0.033199765 0.058391232 -0.050385363 0.12638378 0.06304523 0.11905182 0.039264858 0.13512722
0.042080607 0.027141087 0.11909523 -0.025657915 -0.058934253 0.004714639 0.10734952 -0.10646886
0.03812063 -0.046115 -0.070847295 -0.034805696 -0.03667783 -0.07850964 -0.11428746 0.12476676
0.08411969 0.07690449 0.123368286 0.09440183 0.08657172 -0.039705504 -0.03483643 -0.048851494
0.0741715 0.08942136 0.117272034 -0.032515552 0.016320948 -0.052463084 0.08673136 0.00020200254
-0.10829583 0.13437372 -0.06825615 -0.10369688 0.11186066 0.096311994 -0.113596 -0.07413143
0.07430759 0.016705079 -0.02946024 0.087715775 0.01648461 0.049851112 0.08488576 0.08205607
-0.045313668 -0.14472392 -0.0012306981 0.09173715 -0.0306936 0.030306388 -0.04895831 -0.090234704
0.11034419 0.08761825 -0.09294469 -0.005628207 0.057478234 0.0074561783 0.14850497 0.048001945
-0.08641754 0.04813595 0.13457458 0.030929992 -0.031426106 0.073918305 0.02160767 -0.03281627
-0.002222835 0.008887345 -0.090566605 0.036593936 -0.06699557 -0.13549295 0.09235797 0.08643039
-0.051428482 -0.05531309 0.037778195 0.0032174182 -0.06621811 0.0663825 0.062858514 -0.11211008
0.10358894 -0.112431586 0.09683815 -0.07495906 -0.05613162 0.047903977 0.048208956 0.06545867
-0.067751616 -0.048956122 0.0689057 0.029489964 0.051265147 0.055121925 0.091440454 -0.029149095
-0.06165493 0.097090036 -0.07142047 -0.045362428 0.0685756 -0.11836014 0.016038919 0.040111482
0.084610924 -0.061621536 -0.084979884 -0.12517147 0.037066776 0.07910792 0.024561929 0.08523183
-0.07325333 0.08508899 0.004373764 -0.094983734 -0.11031614 0.0038357833 -0.09759953 -0.08949635
-0.07260398 0.04667023 0.019420914 -0.006504347 -0.12012529 0.11764656 -0.042639468 0.11157163
-0.021864707 0.103879176 0.018538514 0.0052089896 -0.03462653 -0.059549153 -0.099293776 0.0005083134
-0.11061661 0.018585969 -0.06838535 -0.02240529 0.064201675 0.054562945 -0.046922453 0.115526095
0.061735723 0.058474425 0.07417811 -0.03474382 0.026754104 -0.10065494 -0.08150581 -0.06173643
0.054376945 -0.09054297 0.05301011 -0.09358104 0.033862773 0.04789491 -0.0024406845 -0.08318979
-0.065572225 -0.04901108 -0.10319981 0.13825816 -0.07989952 0.0307729 0.04092665 -0.08773942

fc_out.3.weight f4 [10, 1024]
00000000: 6d54 fbbc bc57 443d 6e79 3bbd b13c b4bc
00000010: 126d f7bc 65f2 dcbc 2a8e 86bc 6fc2 a13b
00000020: e51b 4e3c ba35 d53c ee9a 25bd 98a8 443d
00000030: 9fe6 33bd 76c2 513c a546 cd3b 7194 db3c
00000040: df52 f5bc 7bc1 a4bc 49d5 2bbc bb2e a0bb
00000050: ba1d d339 dc6e dc3c b0cf 863b faa3 63bd
00000060: d06c b63c f623 77bc a0aa cf3c d6aa a5bc
00000070: 3f1b f5bc b669 7abc 5fb2 01bc 99a9 a23c
00000080: 886a e53b 9e7f b3bc 8cb2 82bd 5e7e 21bc
00000090: 07cd 8ebc 88ac 663d ae5f e5bc 2814 2ebd
000000a0: a193 4b3c 86b1 9dbc e12e 053c ba56 033d
000000b0: 4b6d 423c 0c36 99ba 3e4e 883c 3fbf 7bbd
000000c0: 55f6 22bc 748c 44bc 24d4 c03c 4cef aa3c
000000d0: 7926 d83b 3145 e2bc 3e57 7b3c 0769 0ebd
000000e0: ccec 113d d9ad c8bc 5ead d13c 2b45 443d
000000f0: 6f5f ea3b 2187 2d3d 39a7 10bc e35b 1dbd
00000100: 3a44 e5bb 190a 923c 1a18 24bd 4d06 60bd
00000110: c260 983b 1bcf 153d 3dd6 bebc 0471 6a3d
00000120: 9732 d13c e549 03bc 1059 9b3c d864 6abc
00000130: a88e 133c a694 09bb 43df 19bc 16a6 78bb
00000140: 9f18 8c3b 7d6c 603c ac7d 833d be03 963c
00000150: 26d9 ccb9 6486 69bd 9046 4cbd 5d80 cd3c
00000160: 0e04 4bbd 302d 1f3c 09df 553c d9ff 38bd
00000170: 3a4d 4bbb f2e3 0cbd f8b9 2cbc eb72 6abd
00000180: d507 43bc dc70 3a3c 015f b3bc 4126 0bbc
00000190: 3edc f9bb 7b80 81bc e3a1 e53c f5a8 58bc
000001a0: a9d4 d43c 8c6d f8bc 9230 7cbc 533c d83b
000001b0: 8880 d4bc 1839 533d e9ee bfbc bf9a 62bc
000001c0: b73d fd3a 485a 90bc 708c b63c ec73 a93c
000001d0: 7393 b1bc 9d70 e13c c2a6 c03b 5e30 f1bc
000001e0: 1177 003d 5b16 90bc 720a 96bc 4920 bb3c
000001f0: d0f4 fcbc cf9b fd3b e2a0 b73c 20ff b1bc
00000200: b248 6f3c d41c ecbc 138a 5cbc dea3 72bd
00000210: 9bb0 b2bc 15ec 063c c7d5 113b 275c e0bb
00000220: 25ea bcbc eaee ed3b c53e fcba 6bb5 183b
00000230: 5abf 9bbc ada5 08bc 58fc 45bd 9969 653c
00000240: 42f6 91bc b26e 23bc 4ca2 893c 39c6 5c3a
00000250: 0ad3 c1bd b286 63bd dbac 37bc 2e79 163b
00000260: b231 193c 9831 863c 1930 293d 71c0 9ebc
00000270: e4e7 babc 9dbc dd3b 1ef8 47bc eb26 3fbc
00000280: 50a1 583c 7a7c a13b 38fa c13b a0f3 133c
00000290: 3cd1 ecbc 0438 c23c 2083 40bd 6bcb b5bc
000002a0: 8414 693c 92ad 26bc 6d54 12bd 0b48 853c
000002b0: c083 25bd 9faf 00bd 4aea e2bc c706 2f3c
000002c0: 58d6 8d3c b36d 32bd fe13 2dbc 4c4b 1cbd
000002d0: 4d3c 46bd ee72 1cba f66a 8f3c 9f92 d83c
000002e0: 3a7e 65bc 3a6a f23c 0f42 093b 526a 28bc
000002f0: b4bb 12bc 4334 6f3c 3b4a f0bc d774 a8bb
00000300: 17fd 18bd 81d7 ebbc 2993 f6bc 5943 d03b
00000310: 996e 253d d460 d73c 1616 f1bc 6c70 18bd
00000320: 67c6 953b a703 24bd 9b35 1fbd c5ae 6bbc
00000330: eafb 98bc bb72 da3c c163 f93b f5d3 e9bc
00000340: 818c 803c 9541 43bd 4dae 293d 6a22 dbbc
00000350: d7c1 c738 abbc bbbc f2f8 cebc 9a7a dfbc
00000360: 539f 233d 1b36 dfbc 0f48 253c 7963 1c3c
00000370: c886 b13c 995d 42bc 0b25 0ebc efe4 d13c
00000380: d1b7 42bd 7a68 6a3c 22af 903c 015a 27bc
00000390: d519 843c b350 e63b 4972 afbb 2cc2 733c
000003a0: 67fa 60bc 6187 1e3d 2907 f93b 35e8 c3bc
000003b0: ae0d 943c 290e 333c 5b9a 273d c508 17bd
000003c0: 5394 e2bc cf21 083d 2d9b 8dbd 0012 673c
000003d0: e4b4 7ebc 806d 1fbb 1fa0 c0bc d03e 643c
000003e0: 3742 ea3b d3ec 94bc 90d3 af3c 2ad8 85bc
000003f0: ee58 553d 9597 c7bc 1485 b63b ad1e 183c
-0.030679906 0.047935233 -0.0457701 -0.022001596 -0.030203376 -0.026971051 -0.016425211 0.0049365084
0.012579893 0.026026595 -0.040430956 0.048012346 -0.04392111 0.012802711 0.006264525 0.02680418
-0.029946743 -0.02011179 -0.010487863 -0.004888383 0.00040267204 0.02690833 0.0041141137 -0.055576302
0.022268683 -0.015084257 0.025349915 -0.020223062 -0.029920219 -0.0152839925 -0.007916062 0.019856261
0.007001225 -0.021911439 -0.06381711 -0.009856788 -0.017431749 0.056316882 -0.027999725 -0.04249969
0.012425334 -0.019249689 0.008128853 0.03206513 0.011866878 -0.0011689081 0.016638871 -0.061461683
-0.009946425 -0.011996377 0.023538657 0.020866059 0.006596383 -0.027620884 0.015340624 -0.03476813
0.035626218 -0.02449696 0.025595363 0.047917526 0.00715249 0.042365197 -0.0088289315 -0.038417708
-0.0069966586 0.01782708 -0.040062048 -0.05469351 0.0046502063 0.036574464 -0.023295516 0.057236686
0.025536818 -0.008013223 0.018963367 -0.01430627 0.00900618 -0.0020993142 -0.009391609 -0.0037940792
0.004275396 0.013697741 0.064204544 0.018312331 -0.000390717 -0.05701293 -0.04987198 0.025085622
-0.049564414 0.009715363 0.013053664 -0.04516587 -0.0031021372 -0.034397073 -0.010542385 -0.0572385
-0.011903723 0.011379447 -0.021895887 -0.008493007 -0.007625132 -0.015808335 0.028031295 -0.013223876
0.02598031 -0.030325674 -0.015392439 0.006598988 -0.025940195 0.05156812 -0.02342935 -0.01383084
0.0019320761 -0.017621174 0.022283763 0.020685159 -0.021676755 0.027519519 0.005879254 -0.029442009
0.03136355 -0.017588785 -0.018315528 0.022842543 -0.030878454 0.007739521 0.022415582 -0.021728098
0.014604734 -0.02882234 -0.013460654 -0.059238307 -0.021812728 0.008234997 0.0022252665 -0.006846923
-0.023060868 0.007261147 -0.0019244781 0.0023301493 -0.019012142 -0.008340281 -0.048336357 0.014002227
-0.01781762 -0.009975122 0.016801022 0.00084218715 -0.09464081 -0.055548377 -0.011210646 0.0022960412
0.009350227 0.01638107 0.041305635 -0.019378873 -0.022815652 0.006766869 -0.012205152 -0.011666994
0.013222054 0.004928169 0.005919721 0.009030253 -0.028908364 0.023708351 -0.04700005 -0.022191724
0.014226083 -0.010173218 -0.035725046 0.016269704 -0.04040885 -0.031417485 -0.027699608 0.010682768
0.017314121 -0.04356165 -0.010563849 -0.038157746 -0.04839735 -0.00059680536 0.017507058 0.026437102
-0.014007146 0.029591668 0.0020943915 -0.010279255 -0.008955885 0.0145998625 -0.02933227 -0.0051408815
-0.03735074 -0.028789284 -0.030099468 0.0063556847 0.040388677 0.026291288 -0.029429477 -0.03721659
0.0045707705 -0.040042546 -0.03886948 -0.01438493 -0.01867481 0.026666036 0.0076107685 -0.028543452
0.015691997 -0.047669966 0.04142599 -0.026749808 9.525165e-05 -0.022917112 -0.02526519 -0.02728014
0.039946865 -0.02724748 0.010087981 0.0095452005 0.021670714 -0.011863136 -0.008675824 0.02562186
-0.047538582 0.014307136 0.017661635 -0.01021433 0.016125599 0.007028663 -0.0053542 0.014877837
-0.013731576 0.038703326 0.0075997305 -0.023914436 0.01807293 0.010928669 0.04091869 -0.036873598
-0.027658617 0.033235367 -0.06914363 0.014103413 -0.015546057 -0.0024326742 -0.023513852 0.013930991
0.0071490067 -0.018179333 0.021463186 -0.016338427 0.052086763 -0.024364272 0.0055700634 0.009284657

fc_out.3.bias f4 [10]
00000000: 0112 673b f485 283c 7d67 f23c 2c07 3d3d
00000010: 96af 3fbc a4f8 a5bc 55fa 1a3d 0fd2 dd3c
00000020: 7cf7 75bc 9c61 fa3b
0.0035258534 0.010285843 0.029590363 0.046149418 -0.011699578 -0.020260163 0.03783639 0.027077703
-0.015012618 0.0076410305
