checkpoints/plaid/2/last_model.pth (torch, 572139 bytes, 10 tensors)

conv1.0.weight f4 [16, 3, 5, 5]
000000 27 f6 8e bd ce 3f a1 bd 53 42 0c 3e a7 4a 00 3e
       -0.069805436 -0.07873498 0.13697176 0.12528478
000010 68 ad 80 bd 63 d0 9e 3d dc 39 99 bd 33 24 57 bd
       -0.062830746 0.0775459 -0.07481739 -0.052524757
000020 67 15 ef 3b 46 82 05 bc 7f c4 b3 3d b0 5b 38 bd
       0.0072962525 -0.008148735 0.08777713 -0.045009315
000030 cd dd 61 3d ef 7e 80 bd dc 58 03 be f3 fd 85 3d
       0.055143166 -0.06274211 -0.12826866 0.065425776
000040 79 d6 6f bd 32 8d 01 3e 36 4f c8 bd 51 e3 fc bd
       -0.058554146 0.12651518 -0.09780733 -0.12348045
000050 6d 35 45 3d 8b 5e 34 bc a2 12 55 3d 0e 1c 45 bd
       0.048146654 -0.011008869 0.052019723 -0.04812246
000060 49 59 87 bd 94 c4 ab 3d ad 94 8a 3d f0 2a db bc
       -0.06608827 0.08387104 0.06766639 -0.026753873
000070 45 52 01 3e f7 4a d8 3d 0b 86 71 bd 56 4a 05 3e
       0.1262904 0.105611734 -0.058965724 0.13016638
000080 1a 7c fd 3c af 92 a3 b9 ea 91 9d bc 0a 74 36 bd
       0.030942965 -0.0003119907 -0.019234616 -0.044544257
000090 e1 aa 86 bd 0a 78 5f 3d 08 41 f4 bd 6a 7a a8 bc
       -0.06575561 0.054557838 -0.11926466 -0.020566184
0000a0 b6 85 4e 3c 31 83 9c bd 3e 3c 78 bd af 92 d6 bd
       0.012605121 -0.0764221 -0.060604326 -0.104771964
0000b0 48 bd af bd 2a a1 08 be e8 df b2 3d 0c 47 48 3d
       -0.085810244 -0.13342729 0.08734113 0.04889588
0000c0 ba 07 96 bb c1 80 cc 3c f0 33 d0 3d 81 f0 a1 3d
       -0.004578558 0.024963738 0.10166156 0.079072006
0000d0 34 e9 2a 3d cf b5 bb bd ea 39 9f 3d 3f c7 d2 bd
       0.041726306 -0.091655366 0.07774718 -0.102919094
0000e0 e9 2a 1d bd b7 e8 1e 3d b0 2a b3 bd f9 7e a0 3c
       -0.038371 0.038796153 -0.08748376 0.019591795
0000f0 2d 80 65 bd f2 1e 9a bc a8 49 bf 3d d7 0b 2a be
       -0.05603044 -0.018813584 0.09340221 -0.16606079
000100 13 94 3c bd eb 60 9d bd 22 7d cb bd 8c a0 f3 bb
       -0.046039652 -0.07684501 -0.099359766 -0.00743491
000110 03 45 ea bc 0c 88 8e bd 73 1d ca 3c 7f 08 7d bd
       -0.02859736 -0.06959543 0.024672246 -0.06177568
000120 32 5f d7 bd 61 cd 82 3c c7 a9 69 bc 4b 5b 33 bd
       -0.10516204 0.015967073 -0.0142616695 -0.043788236
000130 1a 94 02 bd d8 10 cc bc 0b eb 87 3d e9 09 1c bb
       -0.031879522 -0.024910375 0.06636628 -0.0023809618
000140 58 b4 e4 3d b7 6b 8e bd 69 6f 09 3e 55 7e 25 3b
       0.1116721 -0.06954139 0.13421406 0.0025252302
000150 7f 24 cc bc d7 e7 9b bd cb e3 fc bc 69 ea d6 3d
       -0.024919746 -0.07612579 -0.030870339 0.10493929
000160 cc b1 9c 3c 55 a7 07 be 31 92 34 bd c5 f7 90 3d
       0.019127749 -0.13247426 -0.04408473 0.07078508
000170 bf 85 ad bd 9f c2 67 3c 73 3a 08 bd 3e a9 92 bd
       -0.08472776 0.014145522 -0.033258867 -0.07161187
000180 0a 06 10 3e ca fb 61 3c 2e 19 7c bd 7a a9 14 be
       0.14064804 0.013792941 -0.06154745 -0.14517775
000190 27 40 8c 3d 98 b9 de bc 3b 23 95 bd 5a eb b3 3d
       0.068481736 -0.027188107 -0.0728211 0.08785124
0001a0 14 c9 5e 3d d7 e9 f1 3c 56 c5 ef bd 59 97 9c bd
       0.05439098 0.029530449 -0.11707561 -0.07646055
0001b0 22 9a 03 3e e1 04 44 bd 4b 07 ca bd 70 f2 d2 3d
       0.12851766 -0.047856215 -0.09864672 0.103001475
0001c0 de db b9 3c d9 fe 19 3d bb 88 3d 3d eb 58 b3 3d
       0.022687849 0.037596557 0.046272974 0.08757194
0001d0 e4 d7 bf 3d 7c 53 c7 3b e5 3f 53 3d 02 11 1b be
       0.0936735 0.00608295 0.051574606 -0.15143207
0001e0 20 13 0e 3d d5 dc bf bc 71 e8 37 3d d4 6f 8e bd
       0.034686208 -0.02342073 0.044899408 -0.06954923
0001f0 75 f1 04 3d 63 b8 01 be eb a9 46 3c 0c 02 9f bd
       0.032456834 -0.12667994 0.012125473 -0.07764062
000200 17 70 a9 bd 17 2e ac bc 35 2e 39 3d a9 3b 9d bd
       -0.082733326 -0.021018071 0.045210082 -0.07677395
000210 8a 27 da 3d 4b f1 8a 3c 9b a5 c3 bd 17 09 a4 3d
       0.10652073 0.01696076 -0.09553071 0.08009546
000220 f0 f6 c8 3d f8 23 31 bd 68 b1 53 3d 28 b8 5c 3d
       0.098127246 -0.043247193 0.05168286 0.053886563
000230 9f 48 d4 3d 16 0b 00 3e b6 af 00 3e 9b be 60 bc
       0.10365414 0.12504229 0.12567028 -0.013717319
000240 98 e3 ba 3d 7c 06 6d bd 1a 59 65 bc 28 4b 21 3d
       0.09125441 -0.057867512 -0.013998294 0.039378315
000250 d8 31 66 3d d0 cb 12 3d 01 ec 00 be 43 42 da bc
       0.05619988 0.035838902 -0.12590028 -0.026642924
000260 2a b0 a5 3d 92 b9 ff bd ad 63 e8 bc c1 d6 e9 3d
       0.08090241 -0.124865666 -0.028367842 0.11417914
000270 ad 27 83 3d 7f b7 76 bd 6b fd bf bd fd d0 5c bd
       0.06404052 -0.06023359 -0.093745075 -0.053910244
000280 07 71 93 3d 72 d5 00 3d 74 61 80 bd 79 f9 b3 3d
       0.07199293 0.031453557 -0.06268588 0.087878175
000290 88 24 8e bd 10 04 3a bd 52 3c 7c 3d 89 5f db 3d
       -0.069405615 -0.04541403 0.061580963 0.10711581
0002a0 6f 3e d1 bd ae d7 9e bc b9 09 09 bd b1 de 93 bd
       -0.102169864 -0.019389953 -0.033456538 -0.072202094
0002b0 b3 8d b7 3c c6 da 3b bd af 16 10 be ac 9a a7 3c
       0.022406435 -0.045862935 -0.14071153 0.020459495
0002c0 be c9 6c 3c f8 8d b9 3c 54 fe aa bc f1 95 8a bd
       0.014452396 0.022650704 -0.020873226 -0.0676688
0002d0 fd ca e0 3d 9c 0f 7e bd 02 43 bd bd 20 0a 1e 3d
       0.10976217 -0.062026605 -0.09241296 0.038583875
0002e0 42 83 43 bd 0d a3 95 3c d1 93 10 bc c8 0c fa 3b
       -0.0477326 0.018266225 -0.008824305 0.007630918
0002f0 2a 98 8e bd 51 44 35 bd e7 9e 5a 3d 61 11 b2 bd
       -0.06962617 -0.044254605 0.053374197 -0.08694721
000300 4b 32 c1 3d a2 4b 11 3d df cd 64 bd ac 68 ba ba
       0.09433421 0.03547252 -0.055860396 -0.0014221868
000310 f2 cc ec bd 8c c0 b8 3d 23 70 6d 3d 7b d5 c4 bd
       -0.11562528 0.090211004 0.05796827 -0.09611031
000320 f4 1a 8c 3d 46 21 78 3c a3 95 10 3d ab d6 cd bb
       0.068410784 0.015144652 0.035298955 -0.006281694
000330 1c ca 00 be 87 1b e5 3d e5 5c 72 3d 8c a6 5e 3d
       -0.12577099 0.11186891 0.059170622 0.05435805
000340 84 ff 08 3e b1 f2 56 bd 9e 27 39 bc 8f 35 0c bd
       0.13378721 -0.052477542 -0.011300949 -0.034230765
000350 81 28 eb 3b 9f 6f 23 3c a4 e1 0b bd 39 0f b1 3d
       0.0071764593 0.009975343 -0.034150735 0.086454816
000360 23 46 13 3e ba 64 5e bd 5f e6 4d 3d 05 7e 14 3e
       0.14382224 -0.05429528 0.050268527 0.14501198
000370 bc 37 a6 3d 04 9e ec bd 9c f7 e8 3c 1c 76 4b 3d
       0.08116099 -0.115535766 0.028438382 0.049673185
000380 00 ae 7a 3d 57 3b b1 bd 3f b9 fc 3d b3 58 6e bd
       0.061201096 -0.08653896 0.123400204 -0.05819006
000390 4e 7a c0 bc c1 5a 93 3d 18 0e 7b 3d 81 fb fa 3d
       -0.02349582 0.07195044 0.061292738 0.12255002
0003a0 72 3b 4f 3d af be a2 bd 8f 75 e1 bd 6e eb 88 3d
       0.0505938 -0.07946526 -0.11008751 0.0668553
0003b0 c5 d1 66 3d d6 43 58 3d 80 ed 20 bd 34 70 a8 bd
       0.056352396 0.05279907 -0.039288998 -0.08224526
0003c0 3e ef 8d bd a1 4b 75 3d c9 8c 01 be 0a 40 ff 3c
       -0.069303975 0.05988658 -0.12651362 0.031158466
0003d0 01 52 72 3d 92 26 d3 bc ae af 24 3d d9 c0 0e bd
       0.059160236 -0.025775228 0.040206604 -0.034851883
0003e0 26 12 26 3c 97 aa a3 3b 1b b0 81 bd 6f fe 5f b9
       0.010136163 0.004994701 -0.063324176 -0.00021361721
0003f0 d4 36 c5 bb 0e a0 b8 3d 38 bf 14 bd c7 ee 66 bd
       -0.006018499 0.09014903 -0.036315173 -0.05638006

conv1.0.bias f4 [16]
000000 44 f7 a1 bd 02 26 89 3c a0 51 27 bd d1 38 0e be
       -0.0790849 0.016741756 -0.040849328 -0.13888861
000010 0f 35 c5 3c bb 87 8e bd 9a bc 8c bb 3d 5b fe bc
       0.024073152 -0.06959482 -0.004294944 -0.031049365
000020 ea c3 26 3c 8a 8b 84 bd 1d a4 4b bd 07 b5 c6 bb
       0.0101785455 -0.064719275 -0.049717057 -0.0060640606
000030 80 6d 32 3d b6 32 a9 3c 6d 21 cb bd 4a 16 d1 bc
       0.04356146 0.020654064 -0.09918485 -0.025523324

conv2.0.weight f4 [32, 16, 5, 5]
000000 3d b4 fe 3c 66 47 1f bd 3a 0e ca bc 6d 80 7f bd
       0.031091804 -0.03888645 -0.024664987 -0.062378336
000010 a2 ea e1 3c 7c 9d 53 3b ff b9 0f bd 1d 06 f0 bb
       0.027577702 0.0032289913 -0.03508949 -0.0073249475
000020 41 6d c2 bb 11 c0 d6 3c ad 50 49 3c 0c af f1 bb
       -0.0059334342 0.026214631 0.012287301 -0.0073756035
000030 d1 9f 42 3d e9 8b 4c 3c 9b 9b 4a 3d 0b ee 82 bd
       0.047515694 0.012484529 0.049464803 -0.06393059
000040 c7 1b da bc f9 a6 06 bd c6 e9 c5 bb 0d bb c1 3c
       -0.026624573 -0.03287408 -0.006039831 0.023648763
000050 26 3e ce 3b 93 f5 5f bd 25 f9 42 bd e0 40 54 3d
       0.0062940298 -0.054677557 -0.047600884 0.051819682
000060 cd bb 00 3d b7 86 e9 bc 89 d3 9f 3c e7 f8 92 bb
       0.0314291 -0.02850662 0.019510048 -0.004485238
000070 a8 c8 7a bb 49 50 19 bd 92 58 78 bd 0b f7 36 3c
       -0.0038266573 -0.03743008 -0.060631342 0.011167298
000080 1d f5 92 3d 25 1d 3d bc 58 d5 c8 3c c6 0e 9f 3c
       0.07175658 -0.011542593 0.024515793 0.019416224
000090 34 ff 4b bd 14 9d b2 3d 29 87 95 3b 44 3c e3 ba
       -0.049803928 0.087213665 0.0045632315 -0.0017336686
0000a0 2f fe 53 3d 45 33 05 bc 53 54 a6 bb f4 ea 1f 3d
       0.05175608 -0.008129899 -0.00507597 0.039042428
0000b0 ed d8 de bc e2 3d 95 bc 58 68 e4 3c ba 38 b1 bd
       -0.027203048 -0.018217985 0.027881786 -0.08653398
0000c0 30 22 43 3d e9 72 b9 3c e5 58 cb bb f3 9c 80 bc
       0.047640026 0.022637801 -0.0062056654 -0.01569984
0000d0 99 95 ca bc 31 ba 93 3c 1c 01 2f 3b b2 b5 ae 3c
       -0.024729537 0.018033119 0.0026703542 0.021326873
0000e0 0a d9 ff 3c 66 30 aa bd 84 eb 78 bc 1e 18 36 3d
       0.031231422 -0.083100125 -0.01519287 0.044456594
0000f0 ef 6e 4b 3d 11 9d 5f 3d d0 0d 81 3c 4a 06 f5 bc
       0.04966634 0.05459315 0.015753657 -0.029910225
000100 9e 6e 4b 3d 4d 2c ab bc cc 40 fd 3c e8 04 9d bd
       0.04966604 -0.020895148 0.030914687 -0.076669514
000110 a9 31 cd 38 3b 08 dc 3c 38 1e 54 bd ff 8b 33 bd
       9.784412e-05 0.026859393 -0.05178663 -0.043834683
000120 8f e0 82 bc 9f ed 89 3a b8 58 e4 bc 8d e1 c3 bb
       -0.015976219 0.0010523087 -0.027874336 -0.0059778155
000130 04 8e c7 3c c4 3d 41 bd 0c 71 69 bd fb 4c df bc
       0.02435971 -0.047178045 -0.056992576 -0.027258387
000140 d9 ea 5a bd 6f ff 62 bd 39 80 05 bd 82 75 de 3c
       -0.053446624 -0.05541938 -0.032592986 0.027155641
000150 a3 ba 22 3d 99 d2 4f 3c 02 89 34 3d 98 d9 73 bc
       0.039728772 0.012684488 0.044075973 -0.014883421
000160 f3 d6 47 bd 58 3a 63 3d a6 6d 41 3b 3b 8c b5 3c
       -0.048788976 0.055475563 0.0029514818 0.022161594
000170 9f 1c b7 3c 93 db 90 3c 2f 3e 09 3d ce 1c b6 3c
       0.022352515 0.017682826 0.03350657 0.022230532
000180 bb 17 7f 3c 08 b2 05 3d 16 18 83 bd 79 6e 37 3d
       0.015569623 0.032640487 -0.064010784 0.04478309
000190 ab 0e 4e 3c 37 e4 13 3c b8 35 87 3c 35 df 91 bc
       0.012576739 0.009026579 0.016505107 -0.017806629
0001a0 49 20 68 3d 61 5b 95 3c 7c 07 12 3c e7 8c a2 3d
       0.056671415 0.01823205 0.008912917 0.07937031
0001b0 1f f4 ff bb 50 fb 28 3c 3c df 08 3d 0c 77 83 3c
       -0.007811084 0.010313824 0.033416018 0.016047977
0001c0 71 b2 01 bc ef c6 8d 3b 6b 40 44 bd d3 45 b0 3c
       -0.007916079 0.0043266932 -0.047912996 0.02151767
0001d0 f6 bc 5f 3d 80 35 14 3d c0 bd 96 bc ef 66 2b 3c
       0.054623567 0.036183834 -0.018401027 0.010461553
0001e0 f3 7b 8c bd c1 53 81 bd 03 64 59 3c 3a cc 91 bd
       -0.06859579 -0.06314803 0.013268474 -0.07119031
0001f0 78 9d b8 3a d5 f6 25 bd a2 c5 89 bd 7c 32 1b bc
       0.0014085015 -0.0405186 -0.067271486 -0.009472486
000200 19 7a 42 3d 04 55 5a 3d 81 e3 76 3d 44 57 83 bd
       0.047479723 0.053303733 0.06027556 -0.06413129
000210 7c c0 cd bc 5e ea 79 3d b2 fc 4b 3d ff d7 15 3d
       -0.025116198 0.061014526 0.049801536 0.036582943
000220 8a f8 fc 3b aa 2a 0f bc 23 86 50 bc 38 32 db bc
       0.007720058 -0.008738199 -0.012727293 -0.026757345
000230 02 81 0f 3d b1 78 0b 3d 8d 7f 5e bd 79 9c 6f 3d
       0.03503514 0.034050647 -0.05432086 0.058498833
000240 33 3a 30 3c 00 11 45 bc ce 7b 46 bd 70 33 4b 3a
       0.010756063 -0.012027979 -0.048457913 0.00077515
000250 a9 2b ce bc 44 4f c2 3b f0 43 03 bd db 7e 01 bc
       -0.025167303 0.0059298594 -0.032047212 -0.00790378
000260 fb ce 67 bc 1d a6 50 bc 38 99 95 bc 36 f0 40 3b
       -0.014148469 -0.012734917 -0.018261537 0.0029440052
000270 1d 46 fa 3c 62 15 6d bd c0 d1 46 bc 95 0d 1e bd
       0.03055101 -0.05788172 -0.012134969 -0.03858717
000280 54 94 68 bd 95 7f cf bc 53 b4 bd 3d d3 32 ec 3c
       -0.05678208 -0.02532939 0.0926291 0.028832829
000290 8d b1 45 3d 17 29 ee bb dc c7 39 bc db b4 bc bd
       0.04826503 -0.007268082 -0.011339154 -0.09214183
0002a0 91 f2 61 bd 40 88 10 bd 91 6e 37 3c 1e ac 2f ba
       -0.05516297 -0.035286188 0.011195795 -0.00067013677
0002b0 06 21 be bc 5d a8 64 3b a9 ab bf 3c 09 20 09 bd
       -0.023209106 0.0034890391 0.023397284 -0.033477817
0002c0 d3 f0 11 bd 2a 23 72 3d a0 f9 fe bc 0f 7b f9 bc
       -0.03563006 0.059115566 -0.03112489 -0.030454187
0002d0 cc 49 c7 3c bc 10 6d 3c 1a 0d ea bc e6 96 b3 bc
       0.024327181 0.014469322 -0.0285707 -0.02192254
0002e0 0a 9e 90 3c 19 a4 0d 3d 6a 63 86 bc 3a dd 84 3d
       0.017653484 0.034580324 -0.016404826 0.06487508
0002f0 28 69 83 3b e8 ea ca bc 8b 03 81 3c f5 22 5a bc
       0.0040103383 -0.024770215 0.01574876 -0.0133139985
000300 aa f6 7c 3d 34 b3 12 3d bf 1e 91 bc a3 0d 92 3c
       0.061758675 0.035815433 -0.017714856 0.017828768
000310 70 de 20 3d 34 8e 8e bd 26 d3 4e bb 49 ba 22 3d
       0.039274633 -0.06960717 -0.003155896 0.039728437
000320 16 e0 12 3d 76 bc 57 3c f9 f1 9c 3d 52 4b 2a 3b
       0.035858236 0.013167491 0.0766334 0.0025984836
000330 02 89 ca 3c 19 bb 09 bd a5 77 6b bc 65 58 16 3d
       0.024723534 -0.033625696 -0.014371787 0.036705393
000340 4f ef 3e bd 37 9e 36 3d 19 a2 a5 bb dc 85 0d bd
       -0.04661494 0.04458448 -0.005054724 -0.034551486
000350 11 31 1b 3d 0a 75 ce 3d c3 98 85 3c 50 86 b0 3b
       0.03788859 0.10080917 0.016308194 0.005387105
000360 0f b4 23 bd 96 8a ea ba ed 1e 22 3d 0c 01 f2 bc
       -0.03996664 -0.0017894085 0.039580274 -0.029541515
000370 f8 55 ad bc 68 ad b9 bc e6 01 47 bd c6 0f 64 b8
       -0.021159157 -0.022665694 -0.048585795 -5.4374126e-05
000380 ce af 79 bc 98 51 65 3c 6c fc 58 3c 6a 09 45 bd
       -0.015239669 0.013996504 0.013243776 -0.04810468
000390 32 5b 32 bd b5 6d 3d 3d 74 ec 55 bd 24 30 26 3d
       -0.043544002 0.046247203 -0.052227452 0.040573254
0003a0 40 f4 1b bc 58 cd 0f 3d 88 93 c8 bb 98 b8 9e bb
       -0.009518683 0.03510794 -0.0061211027 -0.0048437826
0003b0 75 0c c2 3c 6a 6d 97 3c 9d 7b 25 3c bd 16 66 3d
       0.02368758 0.01848479 0.0101002725 0.05617403
0003c0 80 44 8c 3c cc d6 8d bd e0 a1 58 bb 38 12 a0 3d
       0.017122507 -0.06925735 -0.003305547 0.07815975
0003d0 08 4a 8e bc 2c 17 83 3c 15 ef 67 3d 5e ba 47 bd
       -0.017369285 0.01600226 0.05662449 -0.048761718
0003e0 35 ed f8 bc 0e c6 1d bd a0 fc d3 3a 1a 4e 2d bd
       -0.030386547 -0.038518958 0.001617331 -0.04231081
0003f0 ea 3d c7 bb a6 fe 90 bc 0c 64 5f 3c 8e f1 c0 3b
       -0.006080379 -0.01769955 0.013634693 0.0058881706

conv2.0.bias f4 [32]
000000 93 de bf bc 5d b7 86 bd e5 1e f4 bb fa 08 bb 3a
       -0.023421561 -0.065779425 -0.007449972 0.0014269643
000010 26 ce 70 bc 3c f8 3f bd e2 2a ad bc 2c 35 49 bb
       -0.014697587 -0.046867594 -0.021138612 -0.003070186
000020 c4 d9 df bb c3 fc 37 bd 49 ca 34 bc 70 85 2c bd
       -0.0068313796 -0.044918787 -0.011034557 -0.042119443
000030 bb 60 9e bd 96 c8 1e bd 3a 17 1a 3d f5 cd c3 bb
       -0.077332936 -0.038765512 0.037619807 -0.0059754797
000040 6b 63 c5 3c c1 33 d9 bc ac 2b 85 bd 3a cb 91 3b
       0.024095258 -0.026513936 -0.065024704 0.0044492753
000050 f0 93 d0 bb e0 3e e9 bc b8 0e 27 3d e5 e6 9f bc
       -0.006365292 -0.028472364 0.04078552 -0.019519279
000060 d4 5f 41 bd 9b 74 8b 3c 76 ef 8d bc d3 43 16 3d
       -0.04721053 0.017023375 -0.017326098 0.036685776
000070 0f 7c 4d 3c 9e 9a 1e 3c b8 6a e4 bc 30 1a 18 bd
       0.012541785 0.009680418 -0.027882919 -0.03713435

conv3.0.weight f4 [64, 32, 5, 5]
000000 d9 08 a5 3c 92 4e 8f 3b e0 3a a4 bb 36 70 48 3d
       0.02014582 0.00437338 -0.0050119013 0.048935138
000010 69 5e b9 bc ce b9 94 bc 28 f9 15 bd 72 97 c0 bc
       -0.022628026 -0.018155005 -0.036614567 -0.023509715
000020 14 5b 42 bb ad 7e 1f 3d f1 c8 aa bc 65 1d 39 3b
       -0.0029656338 0.038939167 -0.02084777 0.002824628
000030 5d 09 d5 3c a6 f7 bb 3c fa c0 bc bc d0 01 a8 38
       0.026005441 0.022945236 -0.023041237 8.011202e-05
000040 d1 87 82 bc 04 70 ee bc 2a 3d 1e bc 49 e0 ea bc
       -0.015933903 -0.029106148 -0.009658137 -0.0286714
000050 88 6b ba 3b 82 0b 3e 3b 57 cc b5 3c 17 17 92 3c
       0.0056890883 0.0028998558 0.022192163 0.017833276
000060 0e 34 f9 bb ab 20 b9 bc c1 80 66 bc 3c 5f 38 bd
       -0.0076050824 -0.022598585 -0.014068783 -0.045012698
000070 00 a5 69 bb d0 a2 99 bc 09 7a 65 3b 9f be 47 3d
       -0.0035651326 -0.018754393 0.0035015366 0.048765775
000080 0e 2d 1f bd 64 e4 e2 3c e5 28 ab bb 1e 1e 95 3c
       -0.038861327 0.027696796 -0.005223381 0.018202838
000090 e2 a8 50 3c ce 16 b1 3c d6 28 02 bc 2b 86 0b bb
       0.012735577 0.02161732 -0.007944306 -0.0021289687
0000a0 12 7f b5 bc cd 62 9d 3b c5 0a 31 bc a2 77 21 bd
       -0.022155318 0.0048030377 -0.01080579 -0.03942073
0000b0 9f fc 40 3d e3 13 aa bc cc 86 b2 3c f2 0d c1 3c
       0.04711592 -0.020761436 0.021792792 0.02356622
0000c0 e3 0c 05 3c b9 8d 23 bd 65 ec b4 3c cc 9b a1 bc
       0.008120748 -0.03993008 0.022085378 -0.01972761
0000d0 e3 6c 02 bc de 35 59 3d cc da 88 3d 90 c7 76 bc
       -0.007960531 0.053029887 0.06682357 -0.015062228
0000e0 45 25 90 3b 96 23 04 bd 30 bc 29 3d 13 07 f3 bb
       0.004398974 -0.0322605 0.041439235 -0.007416615
0000f0 68 e4 54 3d 9a 52 89 3c bc cc c9 3c 00 79 83 bc
       0.051975638 0.01676302 0.024633758 -0.016048908
000100 83 89 b8 3c 55 2f b5 bc 1f e2 ab bc 8a f6 20 3d
       0.022526508 -0.022117296 -0.020981846 0.039297618
000110 1d 98 a7 ba cc b0 d3 bc c2 fd 21 3d 7a 59 ec bc
       -0.0012786422 -0.02584114 0.039548643 -0.02885126
000120 34 4c e4 bc 65 35 1d bc b5 08 ed bc 28 64 ca 3b
       -0.027868368 -0.00959525 -0.028934816 0.0061764903
000130 79 ae 2f 3d 05 c5 5b 3d 38 f7 9f 39 8e f8 51 bc
       0.042891 0.05365469 0.00030511036 -0.012815608
000140 b3 ae d3 3c f0 85 3d 3d 1f 67 5b bc 1a b1 00 3d
       0.025840139 0.04627031 -0.013391285 0.031418897
000150 bd ce b6 bb dc cf c9 bc 81 ae 36 3d d5 6c 93 bc
       -0.0055788443 -0.024635248 0.044600014 -0.017996231
000160 9f 8f b9 bc 9b 53 51 3d be ed a3 bc bd 99 55 3c
       -0.022651492 0.051105123 -0.020010825 0.013037142
000170 4e 74 89 3c 77 0c 16 3d be fa f2 3c 48 1d 42 bb
       0.016779091 0.03663298 0.029660579 -0.0029619504
000180 e4 aa 98 bc 47 68 1b bd 92 24 df bc 47 4b 67 bc
       -0.018636174 -0.037941243 -0.027239118 -0.014117069
000190 4d 0b 36 bd 0f 07 80 3c dd 2e c1 3b 8d b9 37 bd
       -0.04444437 0.015628366 0.005895479 -0.04485469
0001a0 3f 81 5a bd 47 ec b3 3b ce e6 7b 3c 33 ac 24 bd
       -0.053345915 0.005490813 0.015374852 -0.040203284
0001b0 84 23 9e bb f9 7c 2b bd 63 3c 3f bc c1 67 fc 3c
       -0.004826011 -0.04186723 -0.011672112 0.030811192
0001c0 ba 23 c8 3b 2e 6f dd 3c 6c f2 48 bc 53 8e f3 bc
       0.0061077746 0.027030554 -0.012264829 -0.029730951
0001d0 0c f6 ff bc c6 3c 11 bd b8 56 90 bc f5 1e 7a 3d
       -0.031245254 -0.03545835 -0.017619476 0.06106468
0001e0 65 c6 6a 3c ae a9 5d 3c 8c 38 06 bd 3b 8a 2a bd
       0.0143295275 0.013529224 -0.03276877 -0.041635733
0001f0 d0 4f 39 bc 99 ea 0b 3d 00 95 d3 bc 09 f0 bc bc
       -0.011310533 0.034159277 -0.025827885 -0.023063676
000200 74 85 00 3d 3a 6b 37 3c 44 23 05 3d 51 7b 60 3c
       0.03137727 0.011194998 0.032504335 0.013701276
000210 84 b9 a4 3c e1 f4 cb 3c 0a 37 20 3b 83 82 45 3c
       0.020107992 0.02489704 0.0024446868 0.012055042
000220 be 79 f4 bc cd fb a6 3c 0d 14 e1 3c e5 3f 5b 3c
       -0.029843207 0.02038374 0.027475381 0.013381933
000230 fd 98 9b 3c f6 e8 bf 3a 8d 12 4f 3c f0 9a b0 ba
       0.018993849 0.0014641571 0.0126387 -0.0013473909
000240 55 32 64 bc bf 57 d2 3b ae a8 36 3c 12 db 91 bc
       -0.013928016 0.0064191516 0.011148615 -0.017804656
000250 7c 89 b0 3b 90 3b f5 bc 90 5c 24 bd 90 10 51 bb
       0.005387483 -0.029935628 -0.040127337 -0.003190074
000260 29 4c 94 3d 19 2f 05 3d 95 f6 f5 bc 5e 3b 26 3d
       0.07241089 0.03251562 -0.030024806 0.04058396
000270 1a 01 2b 3d 8e 3f a0 3b 85 fe 37 3d 0c 45 05 bc
       0.041749097 0.004890389 0.044920463 -0.008134138
000280 0d 11 cc 3c 46 37 59 3c c7 c0 97 bc 36 ae ed bc
       0.024910474 0.013257807 -0.01852454 -0.029013734
000290 c3 8c a2 bb 93 49 53 bd fe 01 58 3c 53 80 23 ba
       -0.0049606278 -0.051583838 0.013184069 -0.00062370783
0002a0 d8 e4 9e 3c 9e 43 2a 3d 1d d2 f4 bc fa 3b f1 3c
       0.01939623 0.04156839 -0.029885346 0.029447544
0002b0 f9 a0 5e 3c a0 cf 3e 3c 0f cf 36 bb a8 81 93 3c
       0.013588184 0.011646181 -0.0027894413 0.01800616
0002c0 9f 2d 83 3c 78 4f 9e 3c 75 e1 90 bd 19 92 22 3d
       0.016012965 0.019325003 -0.070742525 0.03969011
0002d0 d0 ef 93 3c 5b cb c6 3c fe 20 dd 3b c9 3c 01 bd
       0.018058687 0.02426689 0.0067483177 -0.03155211
0002e0 4f 9b 2d bc cd b2 c6 bc a8 20 aa 3c 56 64 30 3d
       -0.0105961105 -0.02425518 0.020767525 0.043064438
0002f0 f4 01 ef 3b 20 26 c7 bc b1 f3 3c 3c e5 47 fb 3c
       0.007293934 -0.024310172 0.01153271 0.03067393
000300 38 95 df bb 0c 7d 23 3d 62 ca 63 bb d4 43 ed bc
       -0.006823208 0.039914176 -0.003475808 -0.028963007
000310 1f bc 56 bd 22 98 c7 bc 34 66 58 bc 16 4f 0f bd
       -0.0524255 -0.024364535 -0.013207961 -0.03498753
000320 3c da 16 bd e7 5d ae ba de e1 68 bc 34 67 18 bd
       -0.03682922 -0.0013303132 -0.014214007 -0.037207797
000330 97 73 d2 3c 41 cd e4 bb 59 fa 0f 3d 9f 39 86 3c
       0.025689883 -0.006982476 0.03515086 0.016384898
000340 5a 59 78 bc 47 ee 41 3c 83 7b bb 3c 73 bd a2 bc
       -0.015158022 0.011836595 0.022886043 -0.019865727
000350 49 54 ad 3c 39 d4 34 3c 1f 08 c2 3c 00 89 90 3c
       0.021158354 0.011036926 0.023685513 0.017643452
000360 c2 61 96 3c 32 ef be 3c 02 a8 14 3c 69 94 08 3b
       0.018357161 0.023307417 0.009073259 0.0020840412
000370 40 e9 3f bd bc 73 4c 3c 40 d6 cc bc a2 cc f6 bc
       -0.046853304 0.012478765 -0.025004506 -0.030126873
000380 70 0f ef bc 38 20 96 3c 27 78 25 3d a0 b6 53 bb
       -0.029182166 0.01832591 0.04039779 -0.0032304898
000390 00 69 71 3c 88 35 a7 3b 1c 07 36 bd 18 11 a3 bc
       0.014734507 0.005102817 -0.044440374 -0.019905612
0003a0 56 13 fe bc 9c bc bd 3c f8 41 00 3d c1 65 09 3c
       -0.03101508 0.023161225 0.031312913 0.008386076
0003b0 3e 32 88 bc 26 61 94 bc 3f ba 09 3d b4 99 82 bc
       -0.01662552 -0.01811273 0.033624884 -0.015942432
0003c0 78 64 14 3c 92 b2 5e 3b 4d ba 27 bd 92 96 a3 bb
       0.009057157 0.0033980948 -0.040949155 -0.0049923146
0003d0 ff 4c 68 bc c4 66 2c bd e3 54 f6 bc 2a 55 c4 3b
       -0.014178514 -0.042090192 -0.030069774 0.0059915977
0003e0 1f 0a 90 bd 6a 46 26 bc 30 38 37 bc 3d 6d 9f bc
       -0.070331804 -0.010148624 -0.01118283 -0.019461269
0003f0 fc 00 de 3c 6c aa 46 3a 14 99 19 bd e2 cf 84 3d
       0.027100079 0.00075784954 -0.037499502 0.06484963

conv3.0.bias f4 [64]
000000 36 96 b1 3c c7 c2 d7 3c 68 54 78 bd cd 47 3f 3c
       0.021678071 0.026337994 -0.06062737 0.0116748335
000010 99 23 0a bd 22 26 9c bc 1a 83 bb 3b a9 f4 ec 3c
       -0.033725355 -0.019061152 0.0057224156 0.028925257
000020 49 50 cd 3c 02 9c b4 bc 5a cb 81 bc 2a a2 29 3b
       0.025062697 -0.022047047 -0.015844036 0.002588401
000030 75 24 13 3d 99 49 53 bc 05 6b 5c bc e5 6a cd 3c
       0.03592344 -0.012895965 -0.01345325 0.025075385
000040 e2 4c 10 bc 2e e4 b4 bc 77 23 e7 3c b5 05 8d bb
       -0.008807393 -0.02208146 0.028215153 -0.004303659
000050 f3 99 9b 3b 1b ac 52 bd a9 97 31 bc 85 b8 a9 bb
       0.004748577 -0.051433664 -0.010839381 -0.005179467
000060 bb 36 c6 3c 97 cc 79 3c 21 0e 51 bb 04 24 40 3a
       0.02419602 0.015246532 -0.003189929 0.00073295855
000070 09 5d 90 bc 50 e7 55 bc f5 0e 8d 3c 18 72 ea 3b
       -0.017622488 -0.0130556375 0.017219046 0.0071547143
000080 63 b8 42 bc 56 84 24 3b d8 70 ba bc 2c 27 30 3d
       -0.0118847815 0.0025103292 -0.022758886 0.043006107
000090 61 d6 a0 bb 3e 01 d7 bb f0 15 8b ba 2f 5a f0 bc
       -0.0049083685 -0.0065614274 -0.0010611396 -0.029339878
0000a0 d4 d6 ab bc ad 21 c8 3b b9 4d 51 bc 4c 64 f9 bb
       -0.020976461 0.00610753 -0.012774878 -0.0076108333
0000b0 17 0c 89 3c f7 ff 1e 3d d2 3a 1b 3d 56 74 73 bc
       0.016729398 0.038818326 0.037897892 -0.01485928
0000c0 33 67 0b 3d f6 ac c6 3c 1e d0 1b bd e8 df 14 bd
       0.034033965 0.024252396 -0.038040273 -0.036346346
0000d0 4c c5 ce bc 73 70 31 bd 22 47 63 3b 8b 76 cf bc
       -0.025240563 -0.04332013 0.003467985 -0.02532508
0000e0 aa 81 5b bc c9 84 63 bb 8e 3e 9b 3c 2e f1 5b 3c
       -0.013397614 -0.0034716597 0.018950727 0.013424201
0000f0 bf fd 1f bd e9 e2 42 bd eb 1d b6 3c 3c 6a 8c 3b
       -0.03906035 -0.04757968 0.022231063 0.004285125

fc_out.0.weight f4 [1024, 64]
000000 b5 6f 92 bc 84 a8 3c bc 4b 3f f1 3c a2 aa fd bd
       -0.017875532 -0.011514787 0.029449126 -0.12386061
000010 cb ec 7e 3c d4 71 09 3e 5b 1b a9 3d fa f8 84 3d
       0.0155593855 0.13422328 0.08257171 0.06492801
000020 af 82 a1 3b 1d 5b 3f 3d 85 13 f7 3d 6d 94 1b bd
       0.004928909 0.04671775 0.1206427 -0.037983347
000030 75 d6 c2 bc 81 38 04 be c8 d3 48 bd 40 48 88 3d
       -0.023783902 -0.1291218 -0.049030095 0.066544056
000040 1f 7a f6 3c fa fb e1 bd ef f3 ba 3d 07 32 7a 3d
       0.030087529 -0.11034389 0.09128558 0.061082866
000050 ff 49 0a 3d 5f f7 b2 bd 32 fc 0d 3d fd d0 4e bd
       0.033761974 -0.087385885 0.03466434 -0.050492276
000060 e9 a1 d5 bd 01 d2 3d bc cc 38 14 3d a7 db 5f bd
       -0.104312725 -0.011585713 0.03618698 -0.054652836
000070 60 4b 91 bd 8a a3 5b bd f0 ab 17 3c 29 68 9a 3d
       -0.07094455 -0.05362276 0.009257302 0.07539398
000080 00 fb 82 bb 21 b1 c1 bd 9a 75 c0 bd c3 67 9d 3d
       -0.0039972067 -0.09457613 -0.09397431 0.076858066
000090 ad 51 3b bd d7 15 0d 3c ac e7 16 3d b4 02 91 3d
       -0.04573219 0.008611164 0.036842033 0.07080594
0000a0 d2 ae 60 3d 52 38 6b bd 0a ce 74 3d c7 2c aa bd
       0.05485422 -0.057426758 0.059766807 -0.08309322
0000b0 62 42 ee 3c e9 87 28 be e6 a7 fb 3c b6 57 82 3c
       0.029084388 -0.16458096 0.030719709 0.015910964
0000c0 66 72 e3 bd ef 1c 21 be 65 36 fb 3d a4 40 95 bd
       -0.11105804 -0.15733694 0.12266234 -0.0728772
0000d0 8e e1 24 bc c1 51 e7 3d 65 7b 2b bd 74 62 37 3d
       -0.010063542 0.1129489 -0.041865725 0.044771627
0000e0 8a 9c 12 bd 95 17 0c 3d 43 19 9e 3d 4e ff be bd
       -0.03579382 0.034202177 0.07719662 -0.09326039
0000f0 bc 52 d0 3d 5e f8 05 3d 3b 58 55 3d 78 89 a8 bd
       0.1017203 0.032707565 0.052086096 -0.08229345
000100 ce e5 95 3d 3e 66 5b 3d 80 b9 ce 3b cf 39 c8 bc
       0.073192224 0.053564303 0.0063087344 -0.024441628
000110 7b 9c b6 bd 7c 15 2f bc fe 30 8d bc 5a 68 bd 3d
       -0.08916565 -0.010686275 -0.017235275 0.09248419
000120 f2 63 26 3d 0f ca 81 3d b4 74 0b 3d ba a1 2b 3d
       0.04062266 0.06337368 0.034046844 0.04190228
000130 df 0f 23 3e 8a d2 89 3d 37 2e 7f bd 72 66 ec bd
       0.15924023 0.0672961 -0.062299933 -0.115429774
000140 a6 57 45 bd 21 6e 90 3d d0 52 1c bd c4 21 95 bd
       -0.04817929 0.070522554 -0.038164914 -0.07281831
000150 db d1 c2 3a 0b bb 6a 3d ea dc ca bd 8e 1c 50 bd
       0.0014863567 0.057307284 -0.09905417 -0.050808482
000160 71 9f c3 bd c5 85 87 3d 82 11 fa 3c 21 75 8f bd
       -0.095518954 0.066173114 0.030525927 -0.070047624
000170 2f 77 b8 bc a7 aa ac 3d 7f b2 31 3c b8 9d c5 bd
       -0.022517769 0.08430987 0.010845779 -0.09649223
000180 fb 5e 04 3e 4e 5a 70 3d 6e 53 0a 3d 5b c9 ee 3d
       0.12926857 0.05867987 0.03377097 0.11659499
000190 78 a1 19 3d cc 03 cb bd fe c1 18 bc 04 ce 31 bd
       0.037507504 -0.099128336 -0.009323595 -0.043409362
0001a0 c9 ba 6c bd ac e7 6c 3d e9 4c 46 3d e5 78 65 bd
       -0.05779532 0.057838127 0.04841319 -0.056023497
0001b0 b1 50 5a bd a4 db f7 bb 99 7e 96 bd 40 c5 c5 bc
       -0.05329961 -0.007564025 -0.07348365 -0.024141908
0001c0 b0 79 08 be 63 47 da bd a5 ea fa bc f1 50 0c 3e
       -0.1332767 -0.10658147 -0.030629465 0.13702752
0001d0 0c 45 08 be d9 9e 4c bd 77 03 00 bd fe 00 96 bd
       -0.1330759 -0.049956176 -0.031253304 -0.07324408
0001e0 07 e8 00 3d 1d 29 0e 3c f1 39 8d 3d 2d 75 34 bc
       0.03147128 0.008676794 0.06895817 -0.011014265
0001f0 e2 67 da 3d fb 10 a5 bd 42 a2 75 bd 3b d0 a7 3d
       0.10664345 -0.080598794 -0.059969194 0.08194014
000200 dc 5b bf 3d 14 cd ab 3d 9f 72 01 3e c6 28 dd bd
       0.09343693 0.08388725 0.1264138 -0.107987925
000210 74 d4 2f bd 04 88 c5 bc ad a4 57 3d 7c c7 9e bd
       -0.04292722 -0.024112709 0.05264728 -0.077528924
000220 47 34 da 3d 06 81 6d bd ef 87 18 3d 9f fb a8 3c
       0.10654502 -0.057984374 0.03723901 0.020627795
000230 97 2a 0f be ee e4 a9 bb 24 eb 88 bd a3 3e 7b bd
       -0.1398109 -0.0051847612 -0.066854745 -0.061339032
000240 83 e8 b4 bd 7d 82 54 3c cb 9d e2 bd f3 e9 a3 bc
       -0.088334106 0.012970564 -0.11065253 -0.020009017
000250 f2 59 01 be da db eb 3c ec fc b2 3d 45 23 07 be
       -0.12631968 0.028791357 0.08739647 -0.13197048
000260 b6 c8 fa 3d a1 4d dc 3d e7 28 e8 3d 2a c0 11 be
       0.12245314 0.10756994 0.113359265 -0.14233461
000270 a2 2c c6 3c 08 60 05 be b4 96 f8 3d b3 64 8d 3d
       0.024191204 -0.13024914 0.12138119 0.069039725
000280 b5 27 9e bd 7e e6 34 bd be c8 82 3d 54 30 a4 3c
       -0.07722417 -0.044165127 0.06385945 0.020042576
000290 2b 62 e0 3c 6f b8 69 3c 1b 58 e6 bd 06 57 fd bd
       0.02739056 0.014265164 -0.112472735 -0.12370114
0002a0 58 77 af 3c eb a4 46 3d 14 ef dc 3c 09 70 4c bc
       0.021419212 0.04849712 0.02696947 -0.012477883
0002b0 73 65 03 3d b0 5b b4 bd 0e cc a4 bc 4d 35 ba 3d
       0.03207917 -0.088065505 -0.020116832 0.090921976
0002c0 eb 67 b9 3c 4b de ad 3d b2 9c 2e bd 79 79 ce bd
       0.02263256 0.08489665 -0.042629905 -0.10081763
0002d0 93 ea 03 be fc a6 03 3e 49 9e ac bd ae c4 a8 3d
       -0.12882452 0.12856668 -0.08428628 0.08240639
0002e0 69 0b af bd c0 bb 6f bd 2a 57 6e 3c af 32 4e 3c
       -0.08547098 -0.05852866 0.014547149 0.012585326
0002f0 fa aa 7c 3d 84 f9 08 be 8b 23 e1 3d e8 96 f2 3d
       0.061686493 -0.13376433 0.109931074 0.11845189
000300 51 08 c8 3c 9f 32 e4 3d 30 0a 59 bd 18 d3 a6 3d
       0.024418028 0.11142468 -0.05298823 0.08145732
000310 08 2d da bd b1 89 e0 bd 44 22 cb 3d 6f 6f 05 bd
       -0.1065312 -0.109637626 0.09918645 -0.032576974
000320 9f d4 88 3d 8d 5f e7 3d ee b8 5d bd c1 76 01 3e
       0.06681179 0.11297522 -0.05413144 0.12642957
000330 97 d3 a2 bc 6b 2b f5 3d 15 fe b1 3d 92 d3 11 3d
       -0.019876285 0.11971172 0.086910404 0.03560216
000340 fd c3 b2 3d ba 95 e9 bd 8f 2e a9 3c 9c 3b 97 bd
       0.08728788 -0.11405511 0.020652084 -0.073844165
000350 04 92 82 3d 6b 01 c8 bd 8f d6 c1 bd fa 9a 32 3b
       0.063755065 -0.097658955 -0.09464752 0.0027253018
000360 dd 0c b5 bc cc 08 a6 3d 43 d1 81 bd ff d0 25 3d
       -0.02210086 0.081071466 -0.06338742 0.040482517
000370 e1 86 0f be 63 2e c8 3d f5 44 f0 3d 53 b4 95 bc
       -0.14016296 0.097744726 0.117319025 -0.018274462
000380 50 11 df 3d 22 0a 38 3d 3b 8c f2 3b 00 00 de bd
       0.10891974 0.04493154 0.0074019707 -0.10839844
000390 26 50 4f 3c 06 22 82 3d 6c 62 12 bd 4a 42 07 be
       0.012653386 0.06354146 -0.035738394 -0.13208881
0003a0 b2 66 67 bd 81 77 75 3d 08 4f c8 3c c9 f7 5f 3d
       -0.056494422 0.05992842 0.024451748 0.054679666
0003b0 17 a8 01 3e bf a6 c9 bd 81 65 29 3b b1 5b e8 3c
       0.12661777 -0.098462574 0.0025847855 0.028364034
0003c0 77 40 88 3d 04 08 be 3d a9 ac 2d bd 95 1b d1 bd
       0.06652921 0.092788726 -0.04240099 -0.10210339
0003d0 db ef 1f bc 21 5e f0 3d 41 68 1e 3d f1 37 d1 3d
       -0.009761776 0.11736704 0.038673643 0.10215748
0003e0 8a 8b 55 3d 49 66 e4 bd 59 0c c1 3d 1a 9e cc bd
       0.052135028 -0.11152322 0.09426183 -0.09991093
0003f0 86 3d 2c 3d 29 68 2e bd 00 f9 1e 3d 6a fe be 3d
       0.04205086 -0.042579804 0.038811684 0.093258694

fc_out.0.bias f4 [1024]
000000 0b 79 0d 3d 3d c6 e7 3d 1d 84 9f 3d bc 87 41 3c
       0.034539264 0.11317108 0.077888705 0.011812147
000010 dd 4a 68 bc 65 54 d4 bb fd d8 22 bd 75 5b e7 bd
       -0.014178005 -0.006479787 -0.039757717 -0.11296741
000020 2d 93 ca bc e6 ad 89 3d 20 1c 00 3d 2e a3 92 3d
       -0.024728382 0.067226216 0.031276822 0.0716003
000030 90 71 d0 bb 14 09 9d 3d 75 97 ba bd db 12 6f 3d
       -0.006361194 0.07667747 -0.091109194 0.05836759
000040 d8 a2 7f bc c4 9f 86 bd 79 46 31 bc 00 cb f7 3d
       -0.01560279 -0.065734416 -0.010820025 0.12099266
000050 85 89 29 3d a8 8e 8f 3d 07 d8 11 3e 9f ae 40 3d
       0.041390914 0.070096314 0.14242564 0.04704153
000060 82 55 11 bc 76 27 b9 bd 18 33 66 3d 64 40 2d bd
       -0.008870484 -0.0904073 0.05620107 -0.042297736
000070 53 8f ee bd f2 d5 07 be 66 a1 aa 3d b6 fb b2 3c
       -0.11648431 -0.13265207 0.083315656 0.02184854
000080 73 01 47 3d 17 45 d6 3b 30 61 94 3d 2b fa 8c bd
       0.048585366 0.006538998 0.072450995 -0.06883653
000090 82 1d 98 3d d5 fd 8c bd 3e f5 a2 bc 21 ea e4 bd
       0.07427503 -0.06884352 -0.019892331 -0.11177469
0000a0 64 1d 10 3d ce ae ed 3d 1f 86 a9 3d 77 49 03 3d
       0.03518428 0.11605607 0.08277535 0.032052483
0000b0 dd d9 bf 3c 7a 3a 21 3d d5 68 ab 3d 7a d4 05 be
       0.023419315 0.03936241 0.083696045 -0.13069335
0000c0 3a 71 70 3d 7f 25 bc 3d 3f ca 58 3d 9c ab 9d bd
       0.05870173 0.09186839 0.052927252 -0.076987475
0000d0 e9 8f 28 bd ab fa be bd f4 53 99 bc 1d f6 ef 3c
       -0.04115287 -0.09325155 -0.01871679 0.02929216
0000e0 f6 f5 ae bd 38 7a 93 3b 09 eb b0 3d f2 28 a3 bd
       -0.08543007 0.0045006536 0.086385794 -0.07966794
0000f0 75 5e ff bc 6e d4 a4 3b 9e 4b 9c bd 21 68 94 3c
       -0.03117297 0.0050302064 -0.0763161 0.018116059
000100 68 cf c4 3c 0d 49 42 bd e8 4b fc 3d 47 3b be 3c
       0.02402468 -0.047432948 0.123191655 0.023221625
000110 44 e0 b9 bd 9a 6b 99 3a 28 4f ff bd 07 e2 42 3c
       -0.090759784 0.0011705041 -0.1246627 0.011894709
000120 9b 79 85 bd 72 b2 15 3d 27 11 a6 3d 00 5f 0d bc
       -0.06517335 0.03654713 0.0810874 -0.008628607
000130 89 72 a1 3d b0 08 ce 3d 33 d5 02 be 9a 04 10 bd
       0.07883174 0.10060251 -0.12776642 -0.03516064
000140 fd eb f0 3c 97 07 b4 bc dd 20 b9 bd e6 89 7d 3d
       0.029409403 -0.021976275 -0.09039471 0.06189909
000150 02 fa bf bd ff 0d 6c 3d 40 52 9b bd a1 59 4b bd
       -0.09373857 0.057630535 -0.07584047 -0.049646024
000160 7f 1b 65 3d 88 9f 48 bd 99 56 b6 bd ae b4 d2 bd
       0.055934425 -0.048980266 -0.08903236 -0.10288368
000170 96 79 1c 3d f7 2e b1 bd 7e b5 36 3c 32 80 94 3d
       0.03820189 -0.08651536 0.01115167 0.07251014
000180 c5 f7 e2 3d 24 21 49 3d 4d 6c d9 3d 46 d1 50 3d
       0.110824145 0.04910387 0.1061636 0.05098083
000190 c5 c6 da 3c b6 4c f5 3d 9b 16 14 3d 95 a2 a2 3c
       0.026706109 0.11977522 0.03615437 0.019852916
0001a0 4c 5f 25 3d 83 f9 84 bd 26 62 f1 3c 25 bd 3c bd
       0.040374085 -0.06492903 0.029465746 -0.04607882
0001b0 63 eb a4 3d ba 3f f0 3d 2f 08 df 3d 64 29 b3 3d
       0.08052709 0.11730905 0.10890233 0.08748129
0001c0 05 49 c7 3d 4b 1d bd bc d8 18 47 3d bc 9f c8 3c
       0.09730724 -0.023085257 0.048607677 0.02449023
0001d0 ae 46 c0 3a 18 0c 98 3d a8 0b e1 bd a3 25 06 3e
       0.0014669502 0.07424182 -0.109885514 0.13100295
0001e0 9f a4 0b bd 76 da e2 bc 61 dc 03 3e f6 31 8b 3d
       -0.03409254 -0.02769206 0.12877037 0.06796639
0001f0 b6 bd 81 3d c0 8e 33 3d c8 d3 26 bb 85 85 da bd
       0.063350126 0.04383731 -0.0025455821 -0.10669998
000200 d6 b3 ef 3d 69 a4 15 3e bc 93 ab bd 06 60 52 3d
       0.11704223 0.14613499 -0.083777875 0.051361106
000210 e7 fd 1b be ba 1c fe 3d 55 cd dd 3d d5 d0 ef bd
       -0.15233575 0.12407823 0.108301796 -0.117097534
000220 c3 b0 7a 3d 80 4f e9 bd 09 fc 83 bd 46 b0 bf 3b
       0.06120373 -0.113921165 -0.06444556 0.005849871
000230 2f e9 a3 bd 8f ce df 3d a0 f8 0d bd 3f a1 36 bd
       -0.080034606 0.1092807 -0.034660935 -0.04458737
000240 c0 38 67 3d 1b c1 20 bd 56 d5 15 3d ea a2 df bd
       0.056450605 -0.03924666 0.036580406 -0.10919745
000250 21 ad 1b 3d 39 3a 7f bc 55 78 51 3d 75 de 59 3d
       0.038006905 -0.015577846 0.05114015 0.053190667
000260 cf 7f c8 3c 9f 41 17 bc 3b 23 59 bd aa 43 95 3d
       0.024475006 -0.009231954 -0.053012114 0.072882965
000270 3a 9a 27 3d b2 6f 24 bc 6f 78 0c 3d f9 d9 f5 3c
       0.040918566 -0.010036396 0.034294542 0.030011164
000280 95 c8 b8 3d 3d 33 dc bd 2b 1c ba bd 16 73 ed bd
       0.09022633 -0.107519604 -0.09087404 -0.115942165
000290 76 68 ae bd c0 92 0a 3d 51 61 03 3e e4 bf 56 bc
       -0.08516018 0.033831358 0.12830092 -0.013107274
0002a0 79 c5 cf 3b 2c 7a 97 3d 21 0f 23 bb 9b 99 19 3d
       0.0063406792 0.07396349 -0.0024880844 0.037500005
0002b0 e7 26 8a 3c a2 09 cc bd 5a aa 72 3d 58 be c9 bd
       0.016864253 -0.09962775 0.05924449 -0.09850758
0002c0 91 d5 d5 3d d7 8d ac bd 3f 82 dd bd 13 f7 85 bd
       0.10441125 -0.08425491 -0.10815858 -0.06541266
0002d0 64 b4 3c bd d5 6b 85 3d 7d b4 f9 3c 52 d2 eb 3d
       -0.04607047 0.06514708 0.030481571 0.11514725
0002e0 e9 03 d7 3d 25 f4 05 be 1d da 99 3d 64 9e 9f 3c
       0.10498793 -0.13081415 0.07512305 0.019484706
0002f0 44 28 ce bd eb 9b 8c bd 9c d2 95 3c 2b df 04 3e
       -0.10066274 -0.068656765 0.018288903 0.12975757
000300 51 31 d0 3d 0b 46 46 3d 5b 3e 28 3d f3 d5 e0 3d
       0.10165656 0.048406642 0.04107509 0.109783076
000310 6d f1 ea 3c 2b 4f 0d be ed 8c 54 3d e7 e4 0a 3d
       0.028679574 -0.13799731 0.05189221 0.033909705
000320 a6 6d 46 bd 0b 12 0d be aa 27 95 3d aa 38 f6 bd
       -0.048444413 -0.13776414 0.07282956 -0.120225266
000330 8b 82 00 3d 96 e2 0c 3d 05 de 92 3d cb 47 c4 bd
       0.031374495 0.034395777 0.07171253 -0.09584006
000340 b3 db 0b be db 71 f9 bd b6 23 9d bd e6 74 c8 3c
       -0.13658027 -0.12179919 -0.07672827 0.024469804
000350 25 9b b8 bd 25 08 ef bd f8 34 93 bd a4 f3 b9 bd
       -0.090139665 -0.11671475 -0.07187837 -0.09079674
000360 f8 5d ca bd 1a 0d 35 bd 22 e0 6c 3d 11 97 03 3d
       -0.09881204 -0.044201948 0.057830937 0.03212649
000370 ed 14 98 bd fb 95 b2 bd d4 16 bf 3c 13 0b a9 3c
       -0.07425866 -0.08720013 0.023326315 0.020635163
000380 45 0b 0f bd a7 7f 70 bd fd b5 41 3d fd 67 b2 3d
       -0.034922857 -0.05871549 0.0472927 0.087112404
000390 5b d2 0d bc e8 70 94 bd 1e 5e 8b bd 57 cf ba 3d
       -0.00865611 -0.07248098 -0.06805061 0.09121578
0003a0 41 09 f9 bc 2a 6f 39 bc 33 0a 95 bc 3e 00 e7 3d
       -0.03039992 -0.0113180075 -0.01819334 0.11279343
0003b0 e6 98 d0 bd 8a 95 99 bb 96 88 ac bd 5f a6 3b 3d
       -0.10185413 -0.004687016 -0.08424489 0.04581296
0003c0 c3 66 e6 bd 40 be 0c 3e 09 67 41 bd 45 6b b0 bd
       -0.11250069 0.1374445 -0.047217403 -0.0861421
0003d0 f8 90 9f bc b2 ae 81 3b 13 72 a9 bd 5d b6 58 bc
       -0.019478306 0.003957593 -0.08273711 -0.013227073
0003e0 ff ff bf bd 2e ba 45 bd 26 f6 94 bc 22 7a bc bc
       -0.09374999 -0.048273258 -0.018183779 -0.023007456
0003f0 e9 95 e5 bd 89 a9 e6 3c ad 59 8d bd f1 4b 08 3b
       -0.11210234 0.028157013 -0.0690187 0.0020797218

fc_out.3.weight f4 [10, 1024]
000000 26 20 88 bc 81 a4 40 bd 89 bf 8d bb 93 4b c8 bb
       -0.016616892 -0.047031883 -0.0043258113 -0.006112525
000010 3b 58 f9 3c 99 30 01 bd 1f e5 68 bc c4 ce 02 bd
       0.03043758 -0.031540487 -0.014214783 -0.03193547
000020 7c 2c 7f bd 45 f7 a8 bb 3a 6b 90 bd 72 f5 4e bb
       -0.062298283 -0.00515643 -0.07051702 -0.0031579402
000030 c4 4f 07 bd cf 56 3a ba b3 c7 18 bc 21 c6 78 3c
       -0.033035055 -0.00071082724 -0.009324956 0.015183956
000040 79 77 41 3c 15 aa 02 bd 57 5a 7c 3c 26 f4 c7 bb
       0.01180827 -0.031900484 0.015402398 -0.006102103
000050 78 68 3d bc fd 98 8a bc 88 3f 0c bd 2d 6f e1 bb
       -0.011560552 -0.016918654 -0.034240276 -0.0068797083
000060 a9 ff 7b bd 4a 17 f8 bb 92 9e 8c ba 47 c8 4c bb
       -0.061523113 -0.0075711356 -0.001072841 -0.0031247304
000070 5f 3a 59 39 91 7b f3 bc a4 a7 24 bd 3e 20 2b bd
       0.00020716478 -0.029722007 -0.040198937 -0.041778795
000080 f2 15 63 bd 03 2d ac bc b9 30 6e 3b 74 89 73 bc
       -0.05544085 -0.021017557 0.003634496 -0.014864314
000090 44 2d 08 3d ad ab a2 bc dc f1 0a 3d df 5e db bc
       0.033246294 -0.019857252 0.03392206 -0.026778637
0000a0 bf b9 32 bd 00 b6 da 3c c2 d0 ba bc 63 d1 23 bc
       -0.043634173 0.026698112 -0.022804622 -0.009998652
0000b0 fb d0 bb ba 65 08 46 3c dc 0b 80 3c 30 b7 dc 3c
       -0.0014329249 0.012086962 0.015630655 0.02694282
0000c0 c1 73 ed bc fa b7 62 bc 8e a0 cb bc 97 1b de 3b
       -0.02898586 -0.013837809 -0.024856832 0.0067781913
0000d0 14 fa e0 3b 35 77 4b 3c 1f f2 f2 bb 33 6f 49 3d
       0.006865749 0.012418558 -0.007414117 0.049178313
0000e0 dd 51 40 bc 31 dd 1b 3c d0 c3 f1 3c 69 a2 b9 bc
       -0.011738268 0.009513185 0.029512316 -0.022660451
0000f0 b8 f2 32 bd 3a c2 df bc 2a 71 ae bc ed b8 b4 bc
       -0.043688506 -0.027314294 -0.021294195 -0.022060836
000100 9c 63 db 3c 4d 09 78 3c d7 79 fd bb 09 7d 0e 3d
       0.026780896 0.015138936 -0.0077354717 0.03478721
000110 a8 05 82 bc 4e ba d5 3c a3 f9 cd bb c8 19 32 3c
       -0.015871838 0.026089814 -0.0062858625 0.010870405
000120 d7 73 fe bc aa a5 35 bc d0 58 cb 3c 04 e0 85 3d
       -0.031061096 -0.011086861 0.024822623 0.06536868
000130 1b c9 e1 bc 75 38 4b bc 30 56 f3 b8 51 fe c8 bc
       -0.027561715 -0.012403597 -0.000116031966 -0.02453533
000140 f7 87 7e 3d 55 39 ea 3c 96 17 6e 3b 64 e3 54 bd
       0.062141385 0.028591791 0.0036329976 -0.05197467
000150 cd 09 f3 3b 06 b3 dc bb 86 92 ee bc 51 e7 97 3c
       0.00741694 -0.0067352084 -0.029122602 0.018542917
000160 58 26 25 bc fc 1c 30 bd ef 5a 9e 3c e7 5e 79 bc
       -0.010079943 -0.04299639 0.01933047 -0.01522038
000170 92 99 a2 bc 7c ac 5d bc 97 61 4d 3c a9 05 ad bc
       -0.019848619 -0.013529893 0.012535474 -0.021120863
000180 19 a6 d4 3c c7 96 7d bb 89 99 5b 3c 3c b5 8b 3b
       0.025958108 -0.0038694607 0.013403305 0.004263548
000190 62 ad 10 bd b6 eb 71 bd fc 9e d1 bc 85 28 a8 3c
       -0.0353216 -0.059062682 -0.025588505 0.020527134
0001a0 9f 06 5f bd ff 47 fd 3b c5 c7 10 bb 52 bb 09 bc
       -0.054449674 0.00772953 -0.0022091728 -0.008406477
0001b0 48 bd 3c 3c aa a1 ae 3c 2f f9 99 3c 39 0f 4c 3c
       0.011519738 0.021317322 0.018795578 0.012454801
0001c0 4b 48 4b bd 0b 77 fb 3c bb a8 c5 3c 36 6e fe 3c
       -0.04962949 0.030696413 0.024128309 0.031058412
0001d0 c1 06 3a 3c 4d 7c 01 3d ad 00 34 3d 58 cb 80 bb
       0.011354149 0.031612683 0.043945957 -0.0039304905
0001e0 02 4c 21 bd 66 6d 8c 3c 25 22 07 3d a9 ed cf 3b
       -0.039379127 0.017142009 0.032991547 0.00634547
0001f0 33 51 0d 3c 42 51 40 bc e8 82 1c 3d e9 eb 10 bd
       0.008625316 -0.011738123 0.03821078 -0.03538123
000200 d0 21 f2 bb 95 15 fc bb 3b 82 04 bd c8 f5 11 3d
       -0.0073892847 -0.0076930025 -0.03235076 0.035634786
000210 3b 46 c0 bc df 11 b9 3c 22 d7 1e bd fd 5c f1 3b
       -0.023470988 0.02259153 -0.038779385 0.0073658214
000220 24 e6 2d bd 2f a6 51 bd 17 a8 7b bd 2a 0b 1f 3c
       -0.042455807 -0.051183876 -0.0614396 0.009707252
000230 b7 c2 cb 3b e1 8c 0a bd 5d 60 b9 bc 70 2c 4e bc
       0.00621828 -0.03382576 -0.022628957 -0.012583837
000240 1b c7 c2 3b c2 40 f1 bc e1 6b 1f bc 00 03 de bc
       0.0059441454 -0.029449824 -0.00973031 -0.02710104
000250 f4 03 5a bd 39 eb 0f bd ed 78 fe 3a 08 31 da ba
       -0.053226426 -0.035136435 0.0019414701 -0.0016646693
000260 d0 c4 12 bb 8d 14 29 bd 19 0c 10 bc c1 9e 26 bc
       -0.0022395141 -0.041279364 -0.008791947 -0.010169686
000270 f7 c8 6c bc f4 08 14 3d 30 01 04 3d 3a 0b d9 3c
       -0.014452211 0.03614135 0.032227695 0.026494611
000280 28 f4 8d bc 20 42 21 bd 3c 66 2d 3d dd db 05 bc
       -0.017328337 -0.039369702 0.042333826 -0.008170095
000290 fe 89 66 bc 72 81 1c 3c be 24 0d bd a5 73 19 3d
       -0.014070986 0.009552347 -0.03445887 0.037463803
0002a0 f8 ac b6 3c 00 9a fb bb 2c ee 5f bd 10 c4 75 bc
       0.022299275 -0.0076782703 -0.054670498 -0.015000358
0002b0 69 06 e5 bc 36 ce 2b 3c 11 13 81 3d c8 3a 7b 3c
       -0.027957158 0.010486176 0.06302465 0.015333839
0002c0 1c 1d ad bc ba b0 26 bc 36 65 8d 3c 7c 11 6a 3b
       -0.021132044 -0.010173971 0.017260175 0.0035715988
0002d0 66 2a 56 bd 63 98 25 3c b3 76 7a bb 63 e0 2d 3d
       -0.052286528 0.010107133 -0.0038217723 0.04245032
0002e0 37 78 11 3c 49 b6 5d 3c 93 c1 35 3a 6f d5 a9 bb
       0.008878759 0.01353223 0.0006933447 -0.005182914
0002f0 c1 59 2d 3b b7 17 f8 3c bb d9 54 3c 5a 83 1b bd
       0.0026451203 0.030284746 0.012991364 -0.037967063
000300 74 1e 0c 3d 68 4b 33 bd af 4a a3 3b c4 38 ee 3c
       0.03420873 -0.043773085 0.004983268 0.029079802
000310 4f 47 e3 3c c1 f3 2b 3c d3 b9 36 bd f9 2a e6 bb
       0.027743964 0.010495127 -0.04461081 -0.0070241657
000320 5b ba a5 bc 07 c8 a4 3c 4f ed dc bb 55 97 91 bc
       -0.020230463 0.020114912 -0.0067421566 -0.017772356
000330 e4 3e 12 bd c1 37 be bc bb a2 59 bc 50 4e 5a bc
       -0.03570451 -0.023219945 -0.013283427 -0.013324335
000340 60 5e da 3a b1 ea 82 bd 76 61 13 bc 04 fd b7 bc
       0.0016660206 -0.0639242 -0.0089954045 -0.022459514
000350 b4 e9 ed bc 3c 94 f9 ba 2c ee 26 bd d3 d0 5a 3c
       -0.029042102 -0.001904137 -0.040754482 0.013355452
000360 15 1b 86 bc eb 83 1c bd be 5a f1 3c 2f ce 25 bc
       -0.016370336 -0.038211744 0.029462215 -0.010119959
000370 02 ab 0a bc 2b 1f 73 3b 0a aa dd bc 48 fc 06 bd
       -0.008463623 0.0037097435 -0.02705862 -0.032955438
000380 2b 94 90 3b f8 ac 26 bd cb c0 13 bc 28 bd 87 bc
       0.0044121942 -0.0406923 -0.009018133 -0.016569689
000390 33 a8 3e bc fb ea e1 bc 82 38 36 3d 4e 5d 04 3c
       -0.0116367815 -0.027577868 0.044487484 0.008078886
0003a0 b1 0b 18 bc 20 09 22 bc 19 fc fb bc ac 85 b7 3c
       -0.009280131 -0.009889871 -0.030759858 0.022402607
0003b0 c8 e9 94 3c 34 17 98 bc f4 0d e0 3c cd 8c c2 3c
       0.018177882 -0.018565752 0.027350403 0.02374878
0003c0 b8 fb b5 bc 02 63 03 3d 7e c5 a3 bc 58 af a7 bc
       -0.022214755 0.032076843 -0.019991633 -0.020469353
0003d0 76 a7 24 3d e9 8b 2b bd 52 e0 e0 bc 01 71 1d bd
       0.040198766 -0.041881476 -0.027450714 -0.038437847
0003e0 67 23 49 bd 2d 3d cd 3c ba 76 49 3d 5b e6 10 bc
       -0.049106028 0.025053585 0.049185492 -0.0088439835
0003f0 27 1e 81 bc 1b 93 16 bb 47 83 ff bb da c4 63 bd
       -0.015761448 -0.0022975865 -0.007797632 -0.055607654

fc_out.3.bias f4 [10]
000000 31 33 a3 bb 8f fc 47 bd c6 27 4b bc fa df 81 bc
       -0.0049804677 -0.048824843 -0.012399619 -0.01585387
000010 d8 fb a1 bb f7 d2 11 bd 23 ce 43 3d fe b7 2b 3d
       -0.004943352 -0.035601582 0.04780401 0.041923515
000020 11 08 14 bd 87 d5 e9 3c
       -0.036140505 0.0285442
