checkpoints/cooll/6/last_model.pth (torch, 576235 bytes, 10 tensors)

conv1.0.weight f4 [16, 3, 5, 5]
0.0039569326 -0.12922414 -0.012113614 0.08638402 0.035987273 -0.114239134 -0.07536555 0.028761534
0.07073013 -0.037393104 -0.03938043 0.087805465 0.04520817 0.05658418 -0.0019491914 0.028083809
0.07037472 -0.023990484 -0.056809355 0.049941663 0.09939595 -0.0762625 0.062021796 -0.1367801
0.028655753 0.039433733 0.04950681 -0.010125179 0.0080550155 0.060236987 0.066306226 -0.08934025
0.088615924 0.0050388966 -0.019114431 0.10907172 0.11112924 0.04693298 0.0017140197 -0.054428395
-0.05177685 0.012798499 -0.034124445 0.04777756 -0.044255953 0.11181117 -0.07009714 -0.05870144
-0.041533772 -0.109830976 -0.007880633 -0.08703267 0.103649326 -0.0057502333 0.05489877 -0.015393431
0.020942766 0.030644862 -0.08256812 0.015043717 -0.081361234 -0.061643764 0.08936063 0.040382188
0.0613919 -0.08243001 0.045310292 0.048650697 -0.014579391 -0.10438425 -0.08449346 -0.1052898
-0.04540371 0.001360678 0.06035078 0.014994482 -0.118010804 -0.026170773 -0.090124264 0.066518046
0.012351772 -0.04305629 0.0038019423 -0.027100196 0.021994492 0.06944684 0.023435704 -0.011778947
-0.09825962 -0.025160298 -0.067647815 0.013968952 -0.018090442 -0.10363885 0.034906946 0.06886434
0.11015903 -0.05679707 0.056270212 -0.021887986 0.052736625 0.026425742 -0.10104189 -0.07107962
-0.035983875 -0.07245508 -0.14897051 -0.002066002 -0.043655466 -0.09165625 -0.05645587 0.051694527
-0.09698751 -0.0948817 -0.06470896 -0.032048102 -0.059122875 0.004601368 0.052764267 0.06896617
-0.10556618 -0.040505115 -0.098244056 -0.04425028 0.083977856 0.0065274327 -0.13246687 -0.03055353
0.027239703 -0.12975585 0.007959146 -0.036995478 0.008677659 -0.017950345 -0.095445685 -0.11750455
0.08927127 -0.09592568 -0.09401561 0.07575285 0.03349117 0.03551094 -0.040642004 -0.10097134
-0.06476749 -0.08703459 0.05842789 -0.13207997 -0.08094395 -0.09421648 -0.059623532 -0.106165975
-0.09114146 -0.07558752 -0.13653195 0.11301937 -0.07139575 -0.1368693 -0.041308787 0.12030518
0.057473645 -0.08070695 -0.012426838 -0.05335381 0.028069573 0.007346218 0.05944087 -0.05907252
-0.11120967 0.036491927 -0.06562363 0.046014957 -0.020832272 -0.05821546 -0.08219791 0.0015911461
-0.0631074 -0.042124502 -0.016353657 -0.15129308 0.106399834 0.013199131 0.06531934 -0.038560513
0.06545304 0.1318931 0.08131202 0.12708208 0.02475787 -0.035085503 0.14475697 0.06880246
-0.08386735 0.05845099 0.093845226 -0.053158242 -0.066157684 0.105493635 -0.054771904 -0.12036454
0.09573776 0.014291883 0.061139278 -0.07668255 0.0997829 0.037117932 -0.0016985923 0.043694302
0.085563056 -0.13786504 0.03700493 -0.11034443 0.008409188 0.047984086 -0.0819087 -0.08490929
-0.037834812 0.09670901 -0.13672133 -0.036387347 -0.09289534 0.037526347 0.09245832 -0.117704764
-0.086446166 0.002681369 0.09747398 -0.020068878 -0.040258504 -0.10753434 0.08642311 -0.11040788
-0.03970077 -0.042911947 0.083070934 0.060493495 0.10531007 -0.0056413407 0.032699987 -0.035500716
0.05589709 -0.03434259 -0.091003284 -0.01702826 -0.09148156 -0.07426572 0.028189074 -0.01664045
0.014548409 0.064125635 0.019842627 0.0016401432 0.0021877526 -0.09267065 0.049734373 0.082583085
00000000: 28a9 813b 5553 04be 2e78 46bc 1bea b03d
00000010: 6467 133d 35f6 e9bd 4159 9abd 4f9d eb3c
00000020: f5da 903d 8329 19bd 604d 21bd 5ad3 b33d
00000030: 342c 393d d0c4 673d 037c ffba 0410 e63c
00000040: 9f20 903d b187 c4bc edb0 68bd a18f 4c3d
00000050: 1b90 cb3d 832f 9cbd 910a 7e3d 1510 0cbe
00000060: 78bf ea3c 4485 213d a7c7 4a3d 14e4 25bc
00000070: 2ff9 033c 0fbb 763d 8fcb 873d 05f8 b6bd
00000080: 447c b53d 541d a53b de95 9cbc fe60 df3d
00000090: ba97 e33d cc3c 403d f5a8 e03a 4ff0 5ebd
000000a0: f613 54bd ccb0 513c 13c6 0bbd 67b2 433d
000000b0: bb45 35bd 41fd e43d 178f 8fbd ec70 70bd
000000c0: 511f 2abd 10ef e0bd c51d 01bc 2f3e b2bd
000000d0: 1946 d43d 746c bcbb 88dd 603d bb34 7cbc
000000e0: 2a90 ab3c ef0a fb3c 7919 a9bd ec79 763c
000000f0: b8a0 a6bd 2c7e 7cbd b502 b73d cb67 253d
00000100: 1376 7b3d 11d1 a8bd 4997 393d f445 473d
00000110: 66de 6ebc 69c7 d5bd e80a adbd 2ea2 d7bd
00000120: 3ef9 39bd c758 b23a 6132 773d 6aab 753c
00000130: a6af f1bd 1764 d6bc 1293 b8bd 9d3a 883d
00000140: 165f 4a3c cb5b 30bd 022a 793b 3b01 debc
00000150: cb2d b43c 253a 8e3d 3cfc bf3c 7cfc 40bc
00000160: 573c c9bd f81c cebc f08a 8abd 08de 643c
00000170: 6832 94bc 9b40 d4bd 96fa 0e3d bf08 8d3d
00000180: 0f9b e13d 0ba4 68bd 987b 663d 6f4e b3bc
00000190: 5c02 583d cc7a d83c 0def cebd 3192 91bd
000001a0: d463 13bd 5463 94bd ba8b 18be c365 07bb
000001b0: 13d0 32bd 46b6 bbbd 453e 67bd a4bd 533d
000001c0: 63a1 c6bd 5651 c2bd 2286 84bd df44 03bd
000001d0: d42a 72bd 13c7 963b 581f 583d 233e 8d3d
000001e0: 1533 d8bd b1e8 25bd 2e34 c9bd c83f 35bd
000001f0: 95fc ab3d 13e4 d53b 65a5 07be 664b fabc
00000200: cc25 df3c b8de 04be 1467 023c 9288 17bd
00000210: bd2c 0e3c 9a0c 93bc 0779 c3bd 3aa6 f0bd
00000220: dbd3 b63d af74 c4bd 428b c0bd 4f24 9b3d
00000230: 092e 093d eb73 113d 3b78 26bd 10ca cebd
00000240: d1a4 84bd 313f b2bd 1552 6f3d f93f 07be
00000250: f1c5 a5bd 92f4 c0bd ce37 74bd 8c6d d9bd
00000260: 60a8 babd a1cd 9abd 08cf 0bbe b376 e73d
00000270: ef37 92bd 7727 0cbe 6733 29bd 9062 f63d
00000280: 7c69 6b3d af49 a5bd f099 4bbc 8689 5abd
00000290: 29f2 e53c 8bb8 f03b 4578 733d 07f6 71bd
000002a0: e5c1 e3bd 8f78 153d af65 86bd 2e7a 3c3d
000002b0: 71a8 aabc 5673 6ebd 6157 a8bd 018e d03a
000002c0: 743e 81bd be8a 2cbd 1bf8 85bc 93ec 1abe
000002d0: 28e8 d93d 2b41 583c 25c6 853d a1f1 1dbd
000002e0: 3e0c 863d fc0e 073e eb86 a63d ce21 023e
000002f0: 04d1 ca3c d1b5 0fbd 2c3b 143e 4ee8 8c3d
00000300: a5c2 abbd 4e6a 6f3d ed31 c03d 75bc 59bd
00000310: ae7d 87bd 0c0d d83d 8158 60bd af81 f6bd
00000320: 2912 c43d 8128 6a3c 2e6d 7a3d be0b 9dbd
00000330: fa5a cc3d f908 183d 4da3 deba ccf8 323d
00000340: af3b af3d 7e2c 0dbe 7b92 173d 43fc e1bd
00000350: b1c6 093c f68a 443d c0bf a7bd ece4 adbd
00000360: adf8 1abd 600f c63d ad00 0cbe e60a 15bd
00000370: e93f bebd 3ab5 193d ca5a bd3d 320f f1bd
00000380: b00a b1bd e8b9 2f3b 70a0 c73d 7d67 a4bc
00000390: 1ae6 24bd f73a dcbd 99fe b03d 871d e2bd
000003a0: 469d 22bd 70c4 2fbd 1821 aa3d 07c8 773d
000003b0: ceac d73d ffda b8bb 6cf0 053d 3369 11bd
000003c0: 59f4 643d d1aa 0cbd ee5f babd d97e 8bbc
000003d0: af5a bbbd a018 98bd c6ec e63c 8e51 88bc
000003e0: 735c 6e3c 4d54 833d 018d a23c 13fa d63a
000003f0: 6660 0f3b 1cca bdbd 45b6 4b3d 5221 a93d

conv1.0.bias f4 [16]
0.12711331 0.0014891329 0.11624412 0.07888647 -0.12277546 -0.07667741 0.028870817 -0.05879511
-0.13217612 0.028856032 -0.008478827 0.070454165 -0.10441479 0.052205697 -0.003936072 0.055835515
00000000: fe29 023e 022f c33a 6611 ee3d 3b8f a13d
00000010: b371 fbbd 0c09 9dbd 7e82 ec3c 24d3 70bd
00000020: 2d59 07be 7c63 ec3c c7ea 0abc 464a 903d
00000030: 6cd7 d5bd a4d5 553d 2afa 80bb c8b3 643d

conv2.0.weight f4 [32, 16, 5, 5]
-0.07779776 -0.031893767 0.003368964 0.027057102 -0.022447325 0.0025683974 -0.0833935 0.023336671
0.010108876 0.036077704 0.008518702 0.037533715 0.023576524 -0.0392075 -0.036239892 0.052552402
0.07041338 0.04292557 -0.0064174742 0.034867164 -0.04156539 0.03503995 0.0030961551 0.045985837
-0.044510726 -0.006808267 0.013057386 -0.05864043 0.017370049 -0.07760375 0.030602155 -0.03258007
0.046710752 0.017714016 0.033371918 -0.013737803 -0.06953031 -0.0041316724 -0.028159788 0.038133245
0.04742003 0.008837072 0.044879925 -0.025924394 -0.01735727 0.010602374 -0.012654768 -0.003945363
0.022122778 -0.021193653 -0.059929885 0.028212387 -0.009090037 -0.024666538 -0.049560014 0.024801815
-0.069235004 0.062624075 0.076385014 0.02355942 0.02649206 0.026445473 -0.039416764 -0.027333941
-0.020522343 0.061854206 0.008200221 0.006355723 -0.007122886 0.010815853 -0.014486637 -0.07434061
-0.011798014 -0.006043195 -0.05134277 0.03526447 -0.03634718 -0.048792273 -0.03250714 -0.031145021
-0.023796981 -0.027054084 0.04736769 0.048499767 0.03752858 0.047362145 0.0022678627 0.017548932
-0.011051865 0.02355337 0.03475802 -0.000867935 0.010933591 -0.03797512 0.024774691 0.0017630154
-0.06449675 -0.04698471 -0.0372314 0.014202585 -0.05136735 -0.0065487283 -0.05382575 0.038244873
-0.027023166 0.0031859472 -0.048323907 -0.042682115 -0.0026469836 -0.010916528 0.0068493197 -0.017439917
0.00045726154 0.033287298 0.024515947 0.044990916 0.03543778 0.017824989 -0.033358183 -0.0027553581
-0.031644907 0.0071169203 0.036720138 -0.04296536 -0.010149857 -0.057901148 0.044878602 0.0036807035
0.060046297 -0.019106261 -0.0092201885 -0.035975337 0.008087619 0.020254508 0.022195203 0.035190538
0.07118175 -0.051120657 0.024783853 0.048878882 -0.029842915 -0.0064636436 -0.011478011 0.031429466
-0.030428547 -0.032101866 0.06301717 -0.0039160894 -0.03141473 0.005241858 -0.052084286 0.050857335
0.04967596 0.03703036 0.0559216 -0.028504292 -0.017952831 -0.033624522 -0.022116994 -0.02486371
-0.056597486 -0.013533758 0.017380983 0.011090741 -0.006161308 -0.01348691 0.021912405 -0.01248473
-0.0021760943 0.009074784 -0.01613413 -0.055904895 0.022398526 0.026380103 0.010066051 -0.0649032
0.0028969187 0.042178713 -0.046233397 0.027374938 0.01531647 -0.0038206638 -0.008966746 0.012141715
-0.013066419 0.025767077 -0.076261014 0.07007778 0.0017908938 0.0073545505 0.014133099 -0.042490665
0.022166245 -0.046196565 -0.015216273 0.000579102 -0.014593713 0.03268601 0.05199366 -0.019756936
-0.017319951 0.019963497 -0.061659113 -0.01322744 -0.021825459 -0.05257837 0.0020954495 -0.027362674
-0.016319057 0.030143002 0.013749338 -0.02714259 0.036422487 -0.04861062 0.01610468 -0.04318204
-0.0008931802 -0.043608047 0.048109155 0.033496626 0.0010772969 -0.024576478 0.011636598 0.018500118
-0.025391238 -0.029855251 -0.025627948 -0.041858915 0.035613492 0.04209884 -0.019124594 -0.023791315
0.011659829 0.026922444 -0.025225516 -0.03878898 0.047403216 0.03308044 -0.023676237 0.032822967
-0.034528915 -0.03784396 0.034297753 0.013389139 0.026605273 0.092400216 0.032646284 -0.029497257
-0.023420336 0.008932704 -0.05603138 0.0559246 -0.0038477683 0.06659544 -0.008724533 0.018805647
00000000: 6f54 9fbd 0aa3 02bd d6c9 5c3b dba6 dd3c
00000010: 74e3 b7bc 8f52 283b 36ca aabd 8c2c bf3c
00000020: b39f 253c 37c6 133d 0792 0b3c f4bc 193d
00000030: 8e23 c13c 0b98 20bd 4870 14bd 3041 573d
00000040: e434 903d b9d2 2f3d ad49 d2bb dfd0 0e3d
00000050: 7840 2abd 0d86 0f3d dde8 4a3b a55b 3c3d
00000060: e150 36bd e217 dfbb a5ee 553c f330 70bd
00000070: a24b 8e3c b7ee 9ebd 5fb1 fa3c ae72 05bd
00000080: c653 3f3d fc1c 913c feb0 083d 8614 61bc
00000090: e865 8ebd fb62 87bb 5baf e6bc 9b31 1c3d
000000a0: 813b 423d 5ec9 103c 03d4 373d 655f d4bc
000000b0: d530 8ebc 94b5 2d3c f255 4fbc 1b48 81bb
000000c0: d43a b53c 509e adbc 0a79 75bd aa1d e73c
000000d0: 61ee 14bc 7b11 cabc 71ff 4abd 2d2d cb3c
000000e0: 15cb 8dbd 0d41 803d bf6f 9c3d afff c03c
000000f0: e005 d93c 2da4 d83c 7973 21bd 6eeb dfbc
00000100: 791e a8bc d65a 7d3d 385a 063c ab43 d03b
00000110: 1967 e9bb fa34 313c 5c59 6dbc e43f 98bd
00000120: 754c 41bc fe05 c6bb cc4c 52bd 7a71 103d
00000130: c8e0 14bd 68da 47bd 3526 05bd d823 ffbc
00000140: e3f1 c2bc 87a0 ddbc 9f04 423d b1a7 463d
00000150: 91b7 193d cffe 413d 6ca0 143b c7c2 8f3c
00000160: e212 35bc fff2 c03c 6d5e 0e3d 2286 63ba
00000170: ce22 333c cd8b 1bbd 4bf4 ca3c fb14 e73a
00000180: df16 84bd 0a73 40bd f47f 18bd f6b1 683c
00000190: 9266 52bd b796 d6bb 6478 5cbd a8a6 1c3d
000001a0: b05f ddbc 53cb 503b 4aef 45bd 71d3 2ebd
000001b0: 0479 2dbb 3ddb 32bc 4270 e03b 28de 8ebc
000001c0: 9bbc ef39 4358 083d abd5 c83c 6548 383d
000001d0: 3527 113d b605 923c 97a2 08bd 3d93 34bb
000001e0: 179e 01bd 0e35 e93b db67 163d 72fc 2fbd
000001f0: 964b 26bc c129 6dbd a0d2 373d f537 713b
00000200: 1bf3 753d bc84 9cbc 4610 17bc e05a 13bd
00000210: ef81 043c c8ec a53c b7d2 b53c f423 103d
00000220: bdc7 913d e563 51bd 8207 cb3c 3935 483d
00000230: 2179 f4bc f9cc d3bb 440e 3cbc 2fbc 003d
00000240: 4a45 f9bc 3f7d 03bd 250f 813d 8a52 80bb
00000250: bbac 00bd e4c3 ab3b 5556 55bd c84f 503d
00000260: 0579 4b3d 26ad 173d 0c0e 653d d581 e9bc
00000270: d111 93bc deb9 09bd b32e b5bc fbae cbbc
00000280: c4d2 67bd b2bc 5dbc 9062 8e3c f0b5 353c
00000290: cce4 c9bb 33f8 5cbc a581 b33c c18c 4cbc
000002a0: ce9c 0ebb 67ae 143c b92b 84bc 88fc 64bd
000002b0: 1d7d b73c 161b d83c 14ec 243c f8eb 84bd
000002c0: 3bda 3d3b 96c3 2c3d 3b5f 3dbd 6841 e03c
000002d0: eef1 7a3c 1a64 7abb 42e9 12bc 0bee 463c
000002e0: 8914 56bc 7a15 d33c bc2e 9cbd f084 8f3d
000002f0: 6dbc ea3a 71fe f03b 838e 673c b10a 2ebd
00000300: fc95 b53c 9c38 3dbd ad4d 79bc e1ce 173a
00000310: 781a 6fbc c4e1 053d 4ef7 543d 4cd9 a1bc
00000320: 92e2 8dbc 7d8a a33c 448e 7cbd e8b7 58bc
00000330: 4ecb b2bc 6b5c 57bd cf53 093b b027 e0bc
00000340: 8baf 85bc 75ee f63c e744 613c 235a debc
00000350: bf2f 153d ee1b 47bd f6ed 833c a7df 30bd
00000360: 4f24 6aba 5a9e 32bd 1b0e 453d c233 093d
00000370: 1634 8d3a 9c54 c9bc 6ea7 3e3c 8f8d 973c
00000380: 4901 d0bc 0093 f4bc b4f1 d1bc 4174 2bbd
00000390: 74df 113d d56f 2c3d 2eab 9cbc 01e6 c2bc
000003a0: de08 3f3c 758c dc3c bea5 cebc 32e1 1ebd
000003b0: e029 423d 5b7f 073d abf4 c1bc 6071 063d
000003c0: 316e 0dbd 4502 1bbd cd7b 0c3d 1f5e 5b3c
000003d0: 4df3 d93c 533c bd3d 1cb8 053d 3ba4 f1bc
000003e0: 01dc bfbc 7a5a 123c 2981 65bd 3211 653d
000003f0: d72a 7cbb 3163 883d 58f1 0ebc 4d0e 9a3c

conv2.0.bias f4 [32]
0.0047374316 0.021531982 0.028230432 0.044170655 0.02103822 0.01035865 0.0004384167 -0.040014368
0.009899391 -0.05037586 -0.022847796 0.015866043 -0.006450129 0.046151824 0.039904296 -0.050877158
0.037967116 0.029516082 -0.019931328 0.014785882 0.024022589 -0.00038617014 -0.00015819943 -0.0071618357
0.014754165 -0.01688712 -0.019274237 0.007274151 0.051165305 -0.02010138 -0.047667544 0.02721149
00000000: 753c 9b3b d763 b03c 8243 e73c 4aec 343d
00000010: 5858 ac3c 54b7 293c 4bdb e539 1be6 23bd
00000020: 0e31 223c eb56 4ebd 4d2b bbbc 81f9 813c
00000030: 9b5b d3bb b209 3d3d b072 233d 9164 50bd
00000040: 6883 1b3d b6cb f13c 0647 a3bc 7c40 723c
00000050: 05cb c43c e176 cab9 56e2 25b9 d5ad eabb
00000060: 74bb 713c dc56 8abc 01e5 9dbc 005c ee3b
00000070: b692 513d a6ab a4bc 0b3f 43bd a1ea de3c

conv3.0.weight f4 [64, 32, 5, 5]
-0.03839173 -0.03302225 0.028091663 0.0069964114 -0.03804661 -0.03760657 -0.019273868 -0.0043954332
-0.0335501 0.02060628 -0.0177355 -0.01962653 -0.010386844 -0.03718812 0.0097095715 0.02654072
-0.03537591 -0.022321975 -0.031222777 -0.04139978 0.023334546 -6.39644e-05 -0.027747426 -0.0048605595
0.030557428 0.0004884208 0.0034846552 -0.004382501 0.007903159 0.011149988 0.032226782 -0.030799989
-0.0064015086 0.0030391733 -0.035581905 0.017194271 -0.022095446 0.0245284 -0.009049151 -0.02966616
-0.028596397 -0.011355832 -9.365288e-06 0.0025846402 0.021605901 0.02061141 0.0016668095 0.015495885
-0.004725452 -0.00437556 -0.01912231 0.007656243 0.0010699648 -0.020333184 -0.038873505 -0.015256201
-0.0001990954 0.028905243 -0.027585428 0.015033588 -0.029267851 0.01669056 -0.041728526 -0.017631724
0.0016199029 -0.028791793 -0.026341181 0.010121127 -0.022506751 -0.04007954 -0.020191696 0.011259617
-0.014372016 -0.03235954 -0.0009970209 0.013763032 0.018161085 0.016355043 0.028737677 0.021376276
0.004854841 -0.0028251314 0.008639988 -0.011813659 0.009202908 0.008686039 0.022410547 -0.00038946315
-0.029571084 -0.026949566 -0.0027007256 -0.021987932 -0.032123268 -0.023310227 0.021727933 -0.016744819
-0.000354857 -0.037115965 0.018804748 -0.019168364 0.0217259 -0.0069577876 0.027264196 -0.010985669
0.027727464 -0.027448265 0.008515173 0.023557855 0.019487958 -0.010952339 -0.030077484 0.01769975
0.00566649 -0.02413399 -0.02398816 0.008618058 -0.008437526 -0.0013752107 0.015830688 0.010903157
-0.002599878 -0.024000702 0.0034986432 -0.015994502 -0.03597038 -0.0053164596 0.0073072836 0.010610705
-0.013288442 0.012168509 0.020381806 -0.0042812265 -0.014468002 0.022738839 0.014962756 0.012959437
-0.016638895 -0.0071655116 -0.042908307 -0.038332146 -0.00792195 0.016365616 0.027102388 -0.043795917
-0.039808862 -0.010844312 -0.033279564 -0.03274166 -0.035258647 -0.009079956 -0.0005817339 -0.019424604
0.021291345 -0.0218802 0.015353354 0.002413106 -0.0070490725 -0.04104022 -0.012564388 -0.0030813743
-0.026392952 0.007632408 0.011216043 -0.020236976 0.015234016 0.006692284 0.026007168 0.025698878
-0.015060132 0.0030312843 0.02011703 -0.032355905 -0.0008544883 -0.028303184 -0.024971206 0.016050184
-0.041448522 0.011107945 0.019110173 -0.020102194 -0.038430884 0.0032124904 -0.029674612 0.0016810177
-0.022977125 -0.011685053 -0.028960755 0.013638353 0.013850671 0.02217087 0.0052616145 -0.021107018
-0.039893426 -0.0031045245 0.018238202 -0.033328254 0.02542464 -0.006834945 -0.03379395 0.0031406304
0.007004928 -0.023243802 -0.017807275 -0.015974408 0.00087184954 -0.00947192 0.025456516 0.027254088
-0.016636206 -0.03152826 0.0044751363 0.018700805 -0.018493036 0.0249459 -0.023624504 0.005290448
-0.009991997 0.012397917 0.026305487 0.01016116 -0.037935 0.01857286 -0.041175604 -0.02571698
0.0074708057 -0.010148088 -0.041107547 -0.043286078 0.0024883472 -0.016238494 -0.01549001 -0.037189893
-0.024457088 -0.014368211 -0.040268 0.021041026 -0.03312793 -0.025377853 -0.0003155558 -0.00942643
-0.036136303 -0.008121063 -0.018547343 0.009453791 -0.017781628 0.0037829743 -0.015379197 0.0060498896
-0.011809159 0.018338779 -0.03340136 0.022468016 0.021681303 0.020460896 -0.019135015 -0.0128357485
00000000: a640 1dbd 5742 07bd 7d20 e63c 2742 e53b
00000010: c3d6 1bbd 5909 1abd 3be4 9dbc 9107 90bb
00000020: d46b 09bd 80ce a83c 0a4a 91bc d1c7 a0bc
00000030: 952d 2abc 9252 18bd e514 1f3c ed6b d93c
00000040: 55e6 10bd 93dc b6bc e9c6 ffbc d192 29bd
00000050: 1728 bf3c a024 86b8 924e e3bc 5445 9fbb
00000060: 9253 fa3c 5d09 003a d05e 643b 159b 8fbb
00000070: 407c 013c 70ae 363c 3b00 043d 4250 fcbc
00000080: bfc3 d1bb de2c 473b 55be 11bd 00db 8c3c
00000090: 8201 b5bc c8ef c83c e442 14bc 7206 f3bc
000000a0: fe42 eabc d00d 3abc 9b1f 1db7 1163 293b
000000b0: dcfe b03c 42d9 a83c d978 da3a 74e2 7d3c
000000c0: f7d7 9abb dc60 8fbb 64a6 9cbc 39e1 fa3b
000000d0: 103e 8c3a c791 a6bc d339 1fbd 25f5 79bc
000000e0: 44c4 50b9 b0ca ec3c d6fa e1bc 704f 763c
000000f0: 22c3 efbc a4ba 883c 88eb 2abd 6870 90bc
00000100: ec52 d43a c4dc ebbc 76c9 d7bc 15d3 253c
00000110: 1460 b8bc 722a 24bd 0e69 a5bc 427a 383c
00000120: 9b78 6bbc 708b 04bd 78ae 82ba 577e 613c
00000130: 8ec6 943c 03fb 853c 476b eb3c 4d1d af3c
00000140: 5c15 9f3b d725 39bb bc8e 0d3c 148e 41bc
00000150: cbc7 163c e34f 0e3c 5396 b73c dc30 ccb9
00000160: 0f3f f2bc 56c5 dcbc a8fe 30bb 0920 b4bc
00000170: b093 03bd 17f5 bebc c7fe b13c 6e2c 89bc
00000180: 1a0c bab9 e906 18bd 6a0c 9a3c f906 9dbc
00000190: 84fa b13c 27fe e3bb 2a59 df3c 3cfd 33bc
000001a0: b524 e33c 2fdb e0bc 3983 0b3c 67fc c03c
000001b0: 36a5 9f3c 7071 33bc 0e65 f6bc 11ff 903c
000001c0: f7ad b93b a5b4 c5bc d182 c4bc c132 0d3c
000001d0: 8d3d 0abc 6a40 b4ba 5caf 813c 28a3 323c
000001e0: b762 2abb 1f9d c4bc 7e49 653b e706 83bc
000001f0: ad55 13bd b235 aebb f071 ef3b 86d8 2d3c
00000200: c4b7 59bc 6d5e 473c bff7 a63c 8849 8cbb
00000210: 330b 6dbc cd46 ba3c 5926 753c d253 543c
00000220: 4b4e 88bc abcc eabb 9fc0 2fbd 2b02 1dbd
00000230: 11cb 01bc 2f11 863c d405 de3c 5963 33bd
00000240: 9e0e 23bd 57ac 31bc 2750 08bd 1e1c 06bd
00000250: 5f6b 10bd 19c4 14bc 807f 18ba 5920 9fbc
00000260: 306b ae3c 1b3e b3bc a28c 7b3c 3325 1e3b
00000270: e8fb e6bb ca19 28bd ddda 4dbc e2f0 49bb
00000280: 0836 d8bc 4719 fa3b 7ec3 373c 04c8 a5bc
00000290: 1898 793c f24a db3b fc0c d53c 7486 d23c
000002a0: c6be 76bc 83a8 463b 78cc a43c a087 04bd
000002b0: bdff 5fba 14dc e7bc 6a90 ccbc ad7b 833c
000002c0: edc5 29bd 19fe 353c f08c 9c3c 5bad a4bc
000002d0: b469 1dbd a588 523b 2c18 f3bc 9855 dc3a
000002e0: 863a bcbc aa72 3fbc 1b3f edbc 6673 5f3c
000002f0: eded 623c af9f b53c 9f69 ac3b a0e8 acbc
00000300: 4a67 23bd 4775 4bbb 4868 953c 3583 08bd
00000310: 5647 d03c adf7 dfbb 866b 0abd 09d3 4d3b
00000320: 9889 e53b c969 bebc 90e0 91bc c3dc 82bc
00000330: d58c 643a 1d30 1bbc 2f8a d03c f743 df3c
00000340: a748 88bc c723 01bd 2aa4 923b 6e32 993c
00000350: b57e 97bc 585b cc3c 2d88 c1bc 7f5b ad3b
00000360: 79b5 23bc a220 4b3c 9b7e d73c fe7a 263c
00000370: bb61 1bbd 1c26 983c c0a7 28bd 6bac d2bc
00000380: a9cd f43b 2b44 26bc 6360 28bd be4c 31bd
00000390: 8a13 233b 9706 85bc d0c9 7dbc 6e54 18bd
000003a0: 3b5a c8bc a568 6bbc 0ff0 24bd 3b5e ac3c
000003b0: 27b1 07bd 37e5 cfbc 2f71 a5b9 5071 1abc
000003c0: a903 14bd 350e 05bc 99f0 97bc 13e4 1a3c
000003d0: c7aa 91bc c7eb 773b 07f9 7bbc 273e c63b
000003e0: 347b 41bc 353b 963c ddcf 08bd d80e b83c
000003f0: fd9c b13c 9c9d a73c 09c1 9cbc 084d 52bc

conv3.0.bias f4 [64]
0.0057651997 0.007477907 -0.01592834 -0.0050101494 -0.0065227207 -0.021367172 -0.0040138415 -0.02876514
-0.015286042 -0.01899688 0.028501635 0.004542135 -0.02959664 -0.024294565 0.02592947 -0.032045458
-0.030569486 0.013990486 0.01984976 -0.03194068 -0.00038006814 -0.021083292 0.009289922 -0.0014573782
0.025800396 -0.026437677 0.013515215 0.013246122 -0.027637703 -0.017428981 -0.012338316 0.013029692
0.009626484 -0.015203887 -0.02506297 -0.004180795 0.013097705 -0.0011786903 0.021840665 -0.03234309
-0.0025803582 -0.013305464 -0.026218798 0.02709142 0.02337743 -0.0063870093 -0.01944906 -0.02802337
-0.014534087 -0.023638777 0.021761078 0.010345918 -0.017307585 -0.013867874 -0.027021833 -0.0054567303
0.01075533 0.03377695 0.030240975 -0.017132066 -0.039965723 0.024123162 0.0036464643 -0.040257074
00000000: 00ea bc3b 3b09 f53b 267c 82bc 2e2c a4bb
00000010: 8cbc d5bb 350a afbc 8b86 83bb dfa4 ebbc
00000020: 4f72 7abc 589f 9bbc 437c e93c 31d6 943b
00000030: a774 f2bc 6505 c7bc 0a6a d43c 1942 03bd
00000040: dc6c fabc 5a38 653c f79b a23c 3bd4 02bd
00000050: e243 c7b9 deb6 acbc c234 183c 7f05 bfba
00000060: 5a5b d33c d493 d8bc ec6e 5d3c 4306 593c
00000070: 7768 e2bc 39c7 8ebc a626 4abc 7d7a 553c
00000080: 66b8 1d3c b919 79bc dc50 cdbc 0dff 88bb
00000090: c297 563c 497e 9aba 32eb b23c 307a 04bd
000000a0: 3a1b 29bb 29ff 59bc cec8 d6bc d3ee dd3c
000000b0: 0682 bf3c 1e4a d1bb a353 9fbc 4491 e5bc
000000c0: 6120 6ebc 1ca6 c1bc 4a44 b23c ed81 293c
000000d0: a3c8 8dbc 1436 63bc e45c ddbc 5fce b2bb
000000e0: 2037 303c b359 0a3d ecbb f73c 8c58 8cbc
000000f0: 19b3 23bd f09d c53c 85f9 6e3b 9ae4 24bd

fc_out.0.weight f4 [1024, 64]
-0.07550699 -0.029147059 -0.032183036 0.117151 -0.0008245252 0.00014967198 0.040459853 -0.105525784
0.03434887 -0.028838845 -0.11358563 -0.09816922 -0.08913532 -0.062299553 -0.09563558 0.097895145
0.04988663 0.11362461 0.12428947 0.088116184 0.004897521 -0.07453093 -0.014200653 -0.07105084
-0.06415738 0.004174238 0.10524691 -0.10987621 0.09189029 0.069179475 -0.012474902 0.120379664
-0.012028736 0.014477718 0.14077885 0.028810272 -0.014909206 -0.13753147 0.05441036 -0.015571332
0.038048193 0.029277286 0.10639126 0.017344188 0.051244307 0.03431195 0.07700709 -0.0029228274
0.12644707 0.013305756 -0.076844506 -0.09064016 -0.097784504 -0.011237462 -0.020771815 -0.029211912
0.015832186 -0.04591183 -0.055374023 0.024828922 -0.0840351 0.05973089 -0.02660472 0.06457282
0.05061988 -0.1160375 0.09047441 -0.0691943 0.11374791 -0.027787192 0.08596154 -0.0533331
-0.09690457 -0.014123702 0.06431062 0.02584056 -0.055986375 -0.043988418 -0.008467031 0.11553096
0.08728224 0.13529684 0.10727245 -0.085670695 0.07180247 -0.09951554 0.069534436 0.11533342
0.014597249 0.101629384 -0.0739915 -0.10349307 -0.13023315 0.028683847 -0.029805219 -0.01226451
-0.014946936 0.06727942 -0.0030258358 -0.03853463 -0.1387093 0.12941514 0.036334973 0.014790184
-0.08675255 -0.057069823 0.018161714 0.09655335 0.029565852 -0.0044911546 -0.024379842 0.062077016
-0.10024255 -0.087282166 -0.087067366 -0.09564628 0.10744251 0.07917097 -0.009217769 0.050654277
0.09450579 -0.03623906 0.0650758 0.01899485 -0.022281755 0.06808694 0.04961577 -0.10023401
-0.07760671 -0.1224186 0.0059484756 -0.063061155 0.09188314 0.04081748 -0.1134117 0.1174317
-0.04640441 -0.08662378 -0.08645601 0.09288715 0.12707911 -0.038348176 -0.03006529 0.012274665
-0.02220063 0.047163885 -0.09210803 -0.007828412 0.025300913 -0.09095651 0.12748474 -0.0654762
-0.044720307 0.01589482 -0.026002858 -0.028858488 -0.076839685 -0.0052057747 -0.083428375 -0.0042949934
-0.12608448 -0.025563492 -0.06547978 0.11556126 -0.078763306 0.011020666 -0.04553258 -0.04238571
0.06903179 0.0520238 0.02497158 -0.02157234 -0.09707266 0.08639167 0.008100394 0.008534052
0.09962328 -0.058033418 -0.033579454 0.079986736 0.025508855 -0.005426941 0.05997236 0.10399516
-0.12404814 0.040970325 -0.108835615 -0.047512632 0.043214906 -0.09173177 0.034119584 -0.0962704
-0.09488509 0.0732444 0.05616229 0.0015985764 0.10629941 0.04837891 -0.0140579725 -0.042265493
0.05629554 0.09996005 -0.0717833 -0.051280268 -0.014766566 -0.08655232 0.023428956 -0.0037547045
0.00858964 0.05267656 -0.10846156 0.036715273 0.022312308 0.048619006 0.026292002 0.029497715
0.08240508 -0.08423434 -0.112862594 0.11803178 -0.10028075 -0.039860196 -0.044311486 -0.104911864
0.084984414 0.051779024 0.07774899 -0.033913385 0.020521048 -0.0051916707 0.06673552 -0.03558027
-0.109006636 -0.026847411 0.003399332 0.07892714 0.13735497 0.028801603 -0.098883525 0.06532084
0.04897605 -0.059513163 -0.086887024 0.103111304 0.10186022 -0.112126835 -0.12529455 -0.09899379
0.0427322 0.06419265 -0.09317797 0.012251099 -0.07963148 -0.027071035 0.0034559479 0.06693373
00000000: 69a3 9abd d0c5 eebc 5cd2 03bd ddec ef3d
00000010: f324 58ba 44f1 1c39 3bb9 253d e71d d8bd
00000020: 67b1 0c3d 713f ecbc 959f e8bd f20c c9bd
00000030: 948c b6bd d12d 7fbd 96dc c3bd 407d c83d
00000040: ec55 4c3d 05b4 e83d 7a8b fe3d 4276 b43d
00000050: 627b a03b aca3 98bd dba9 68bc 1a83 91bd
00000060: f264 83bd 0cc8 883b b18b d73d c706 e1bd
00000070: fa30 bc3d f8ad 8d3d 8863 4cbc 9d89 f63d
00000080: 2d14 45bc f333 6d3c 5528 103e 8503 ec3c
00000090: be45 74bc 0dd5 0cbe 66dd 5e3d e61e 7fbc
000000a0: 6cd8 1b3d ebd6 ef3c a9e3 d93d 6615 8e3c
000000b0: 8de5 513d b08a 0c3d e5b5 9d3d e88c 3fbb
000000c0: 577b 013e 6300 5a3c a760 9dbd 8ca1 b9bd
000000d0: 3e43 c8bd 551d 38bc a729 aabc d24d efbc
000000e0: 80b2 813c 0b0e 3cbd dfcf 62bd 0666 cb3c
000000f0: 981a acbd 61a8 743d 24f2 d9bc c13e 843d
00000100: cb56 4f3d 12a5 edbd a64a b93d beb5 8dbd
00000110: aaf4 e83d f7a1 e3bc 9b0c b03d cf73 5abd
00000120: e775 c6bd 1a67 67bc 49b5 833d 95af d33c
00000130: f851 65bd 332d 34bd 4db9 0abc 7f9b ec3d
00000140: 08c1 b23d 418b 0a3e a9b1 db3d 1e74 afbd
00000150: 2c0d 933d cece cbbd 1268 8e3d ee33 ec3d
00000160: 4d29 6f3c 1123 d03d db88 97bd 2df4 d3bd
00000170: d75b 05be 63fa ea3c 132a f4bc 15f1 48bc
00000180: fee3 74bc cbc9 893d 1a4d 46bb 7dd6 1dbd
00000190: d009 0ebe 6785 043e fbd3 143d 8752 723c
000001a0: 52ab b1bd 0cc2 69bd e0c7 943c c3bd c53d
000001b0: 1634 f23c 892a 93bb 3cb8 c7bc 7844 7e3d
000001c0: f74b cdbd fec0 b2bd 6050 b2bd 32e2 c3bd
000001d0: d20a dc3d 6424 a23d 2006 17bc dc7a 4f3d
000001e0: 408c c13d 696f 14bd 7646 853d 169b 9b3c
000001f0: 3a88 b6bc 2a71 8b3d e839 4b3d 7d47 cdbd
00000200: 44f0 9ebd 9ab6 fabd 6eeb c23b 3526 81bd
00000210: 3a2d bc3d 3b30 273d 6544 e8bd 0880 f03d
00000220: 8d12 3ebd cf67 b1bd d90f b1bd 9e3b be3d
00000230: 0721 023e fa12 1dbd 7c4b f6bc ad1b 493c
00000240: 18de b5bc eb2e 413d 23a3 bcbd bd42 00bc
00000250: dc43 cf3c 6847 babd 5c8b 023e 6318 86bd
00000260: a42c 37bd db35 823c f203 d5bc a368 ecbc
00000270: 205e 9dbd 3495 aabb 7fdc aabd 04bd 8cbb
00000280: 4a1c 01be 876a d1bc 431a 86bd 62ab ec3d
00000290: a84e a1bd 0690 343c 5f80 3abd a39c 2dbd
000002a0: 8a60 8d3d e816 553d 3391 cc3c 7ab8 b0bc
000002b0: 08ce c6bd 1eee b03d 84b7 043c 69d2 0b3c
000002c0: 4a07 cc3d 73b4 6dbd 9c8a 09bd 16d0 a33d
000002d0: f2f7 d03c 7bd4 b1bb 94a5 753d 6afb d43d
000002e0: f40c febd 80d0 273d 35e5 debd 9b9c 42bd
000002f0: 1d02 313d dedd bbbd fac0 0b3d 6a29 c5bd
00000300: 1d53 c2bd 2901 963d 6e0a 663d 5387 d13a
00000310: 81b3 d93d f728 463d 6953 66bc 951e 2dbd
00000320: 2796 663d dbb7 cc3d 1f03 93bd 420b 52bd
00000330: 78ef 71bc 5842 b1bd 15ee bf3c 7d11 76bb
00000340: 90bb 0c3c 60c3 573d 1821 debd c162 163d
00000350: 4dc8 b63c b924 473d 5362 d73c 31a5 f13c
00000360: ffc3 a83d 0e83 acbd 8124 e7bd a5ba f13d
00000370: fe5f cdbd 7244 23bd f67f 35bd 08dc d6bd
00000380: 4f0c ae3d 3e16 543d dd3a 9f3d c3e8 0abd
00000390: c21b a83c e41e aabb a2ac 883d 9ebc 11bd
000003a0: df3e dfbd 1aef dbbc 54c7 5e3b 8da4 a13d
000003b0: c8a6 0c3e 57f1 eb3c 7283 cabd efc6 853d
000003c0: 1c9b 483d 13c4 73bd d3f1 b1bd 052c d33d
000003d0: 179c d03d c1a2 e5bd 374d 00be 42bd cabd
000003e0: f607 2f3d 7077 833d 17d4 bebd d5b8 483c
000003f0: d415 a3bd 13c4 ddbc 2f7d 623b 8d14 893d

fc_out.0.bias f4 [1024]
0.00018610389 -0.10156014 -0.009652028 -0.03610749 0.026567347 0.07645421 -0.06347041 0.10211438
-0.10061369 -0.021101609 -0.12599657 -0.0072841737 0.03847921 0.040189188 -0.073287435 0.018175608
0.041947026 0.057206795 -0.05038167 -0.011432389 -0.007094552 0.13857299 -0.07588055 0.09511683
-0.064161226 0.024842197 -0.06386417 -0.09662573 -0.014196201 -0.12581024 0.07299142 -0.06776997
-0.098590516 -0.078501925 0.015064173 0.06758441 -0.059871934 0.116240375 0.08152856 0.028664004
-0.10076281 0.028277395 0.04831767 0.08426466 -0.09928627 -0.06915303 0.012062566 -0.11839263
0.027116422 0.0008475257 -0.10692704 -0.006077989 0.050757013 -0.003978802 -0.0067003276 0.0691276
0.011826683 -0.08367599 0.083269805 -0.01414871 -0.07364683 -0.02712355 -0.030291382 0.081452854
-0.05054566 -0.02046551 0.09094676 -0.094133936 0.12660094 0.057557356 0.010801914 -0.11016203
-0.03742583 0.057710018 -0.10115026 -0.07887806 0.024845727 0.10016133 -0.032564856 -0.092213705
0.098132566 0.08407026 -0.08548578 -0.12673673 0.058698308 -0.035181336 0.07273493 0.06884832
-0.08627774 0.059138052 -0.03140949 -0.086040005 0.021473888 -0.035394877 0.040872775 0.09047336
-0.06933555 -0.023260208 0.023832273 0.05447307 -0.1212814 -0.13127305 -0.11030017 0.009244878
0.034322225 0.041968837 -0.04112519 0.026223592 0.078016244 -0.039756767 -0.086305305 0.027431428
-0.11558686 -0.057093114 -0.049024284 -0.0012540513 0.06055896 0.108551875 0.11087717 0.010097448
0.09991919 -0.061791766 0.089701764 0.11078612 0.13416399 0.026436618 0.10530457 0.04221537
0.098791175 0.010833819 -0.058140054 -0.06660878 0.044700686 0.12026732 0.09214768 -0.069971316
-0.03028448 0.054130476 0.037486408 -0.07820992 -0.09427138 -0.021504108 -0.08779651 -0.13600752
0.05709072 0.06936168 0.092428885 0.012715143 0.054919768 -0.025818482 -0.0052356427 0.07563285
0.09721519 0.06597862 0.02728893 -0.12784001 -0.047954094 0.07948068 0.101714596 -0.09281216
-0.11713462 0.034160007 -0.025526786 -0.09698296 0.049588196 -0.09881396 0.066600375 -0.086951114
0.10692629 -0.030818753 -0.013313827 0.016938964 -0.09355792 0.096629776 -0.045699418 -0.085977845
-0.05242557 -0.107739575 -0.1083729 0.045918923 -0.05783464 -0.011790352 -0.049133666 0.048131764
-0.05563323 0.0017294273 -0.11814702 -0.07699323 0.022859285 0.10579828 0.02524418 -0.08420285
-0.02991948 0.14801812 0.01890282 -0.06171954 0.10851694 0.09458227 -0.05270286 -0.07357677
-0.09204727 -0.11186162 0.038090054 -0.020889187 -0.106696986 -0.078784645 0.11878582 0.04203946
0.076127246 -0.07834063 -0.09822954 -0.10177001 0.025969975 0.018482352 0.07460155 0.036168605
-0.07893975 -0.07197193 -0.05732732 -0.05393118 -0.083044924 0.07960608 0.057908475 0.03822078
0.020645846 -0.05383915 0.0688146 0.11592935 -0.08135654 -0.027720284 -0.053318243 0.08167037
-0.05925937 -0.01058336 0.026189283 0.026998373 0.01229703 0.07896893 0.026063127 -0.020263242
-0.05984004 -0.11457341 0.13025613 -0.07802626 0.018804574 0.04589947 0.089207225 0.027014554
-0.008088373 -0.05402888 -0.01472935 0.023442218 -0.045151327 0.12850228 -0.09316381 -0.030211382
00000000: e224 4339 c3fe cfbd 8a23 1ebc 73e5 13bd
00000010: c4a3 d93c 0694 9c3d c6fc 81bd 5821 d13d
00000020: 8d0e cebd 48dd acbc 3f05 01be 14b0 eebb
00000030: 609c 1d3d 6b9d 243d b917 96bd 03e5 943c
00000040: a5d0 2b3d ac51 6a3d 035d 4ebd ea4e 3bbc
00000050: 6a79 e8bb 14e6 0d3e 4367 9bbd 9dcc c23d
00000060: f666 83bd dd81 cb3c 38cb 82bd b6e3 c5bd
00000070: 2f97 68bc 66d4 00be 877c 953d fbca 8abd
00000080: d3e9 c9bd 9ec5 a0bd b9cf 763c b269 8a3d
00000090: 463c 75bd 6f0f ee3d 72f8 a63d c6d0 ea3c
000000a0: bb5c cebd ffa5 e73c c0e8 453d f392 ac3d
000000b0: 9a56 cbbd 1ba0 8dbd 12a2 453c d677 f2bd
000000c0: 4223 de3c 7d2c 5e3a 90fc dabd de29 c7bb
000000d0: 96e6 4f3d 9c60 82bb 6c8e dbbb c592 8d3d
000000e0: b4c4 413c 515e abbd 5c89 aa3d fecf 67bc
000000f0: 26d4 96bd 3532 debc a225 f8bc c1d0 a63d
00000100: f708 4fbd 49a7 a7bc 4b42 ba3d 4bc9 c0bd
00000110: ada3 013e 43c1 6b3d 83fa 303c a19c e1bd
00000120: d44b 19bd 5761 6c3d de27 cfbd d28a a1bd
00000130: 4489 cb3c 6221 cd3d ba62 05bd 8ada bcbd
00000140: baf9 c83d 072d ac3d 2b13 afbd 46c7 01be
00000150: a36d 703d 4e1a 10bd 0df6 943d 5900 8d3d
00000160: 62b2 b0bd be3a 723d 3da7 00bd be35 b0bd
00000170: 02ea af3c 38fa 10bd 366a 273d 194a b93d
00000180: ccff 8dbd 318c bebc e63b c33c 271f 5f3d
00000190: 6262 f8bd 716c 06be 0ee5 e1bd d477 173c
000001a0: 7695 0c3d 84e7 2b3d e372 28bd dcd2 d63c
000001b0: fbc6 9f3d fed7 22bd d6c0 b0bd e0b7 e03c
000001c0: ceb8 ecbd 78da 69bd b0cd 48bd fb5e a4ba
000001d0: ac0c 783d 7250 de3d 9213 e33d c46f 253c
000001e0: 6fa2 cc3d 5d19 7dbd 8fb5 b73d d5e3 e23d
000001f0: 4962 093e 9b91 d83c eca9 d73d 06ea 2c3d
00000200: 0753 ca3d 5580 313c 4424 6ebd 2f6a 88bd
00000210: 1118 373d b64e f63d ecb7 bc3d 1f4d 8fbd
00000220: 2817 f8bc ebb7 5d3d 598b 193d 862c a0bd
00000230: 5a11 c1bd 6229 b0bc a8ce b3bd 8e45 0bbe
00000240: f5d7 693d 7f0d 8e3d 5b4b bd3d 2d53 503c
00000250: 8df3 603d 4881 d3bc c18f abbb 65e5 9a3d
00000260: c218 c73d cc1f 873d 098d df3c 7ee8 02be
00000270: 836b 44bd c4c6 a23d be4f d03d 4d14 bebd
00000280: 47e4 efbd 5deb 0b3d 8d1d d1bc 019f c6bd
00000290: fe1c 4b3d f95e cabd c765 883d 6d13 b2bd
000002a0: 2cfc da3d 9c77 fcbc 3d22 5abc 95c3 8a3c
000002b0: 4b9b bfbd d5e5 c53d 502f 3bbd 2715 b0bd
000002c0: 32bc 56bd 91a6 dcbd 9cf2 ddbd 7b15 3c3d
000002d0: 04e4 6cbd 522c 41bc 6240 49bd d025 453d
000002e0: abdf 63bd f3ad e23a 11f7 f1bd a0ae 9dbd
000002f0: 6543 bb3c c5ac d83d e2cc ce3c 8b72 acbd
00000300: b319 f5bc 1092 173e 16da 9a3c a1cd 7cbd
00000310: 213e de3d 59b4 c13d f4de 57bd 6baf 96bd
00000320: 4783 bcbd b417 e5bd 5104 1c3d cd1f abbc
00000330: f383 dabd d859 a1bd fb45 f33d 9231 2c3d
00000340: 9ae8 9b3d 0d71 a0bd 922c c9bd cc6c d0bd
00000350: fcbe d43c 4d68 973c b3c8 983d 8825 143d
00000360: 2aab a1bd 0566 93bd 0dd0 6abd f1e6 5cbd
00000370: 7513 aabd 8308 a33d 7031 6d3d 658d 1c3d
00000380: 7a21 a93c 7186 5cbd abee 8c3d 5e6c ed3d
00000390: 429e a6bd a615 e3bc 3b64 5abd cc42 a73d
000003a0: f4b9 72bd d465 2dbc e88a d63c b12b dd3c
000003b0: 7b79 493c 76ba a13d 5782 d53c 19ff a5bc
000003c0: d41a 75bd 77a5 eabd dd61 053e 3bcc 9fbd
000003d0: 0d0c 9a3c 1501 3c3d 47b2 b63d a04d dd3c
000003e0: 1885 04bc 634d 5dbd 5f53 71bc e509 c03c
000003f0: 99f0 38bd 1a96 033e abcc bebd dc7d f7bc

fc_out.3.weight f4 [11, 1024]
-0.024749044 -0.007911554 -0.029126693 0.005298584 -0.029029071 -0.021393683 -0.0010008948 -0.031512823
-0.03560157 0.03180238 -0.025107967 0.002931638 0.039170425 -0.023222014 -0.0060231895 -0.018443527
-0.0042416872 -0.025829662 -0.00636676 -0.02444742 -0.012841532 0.009831554 -0.025789743 0.03263087
-0.03784843 -0.022432659 -0.015229569 0.012875797 -0.01771874 0.023972703 0.022768304 -0.0038642827
0.007500571 -0.033053685 -0.008729568 0.012338954 0.01184511 0.03806651 -0.010185278 -0.0059050885
0.025753343 0.007095313 -0.022039093 0.037738442 0.019773781 -0.013434086 -0.001365342 -0.0043575764
-0.0026763855 -0.031377196 -0.031754006 0.01663497 0.0038286098 -0.010927332 -0.02167316 -0.017232427
-0.024118025 -0.022653718 -0.010133718 -0.02935615 -0.026017351 -0.021157723 0.0022649677 -0.011231198
0.0012399085 -0.0010433268 0.032515664 0.010853137 -0.00057163124 0.01221273 -0.0075906557 0.010591359
-0.008671854 -0.01830641 -0.013328174 -0.04436204 0.0012686923 0.04395525 -0.023354989 0.01346763
0.011467702 0.02327396 0.009329112 0.011417762 0.015431845 -0.0063494467 0.016405981 0.01847127
-0.021474091 -0.036094528 -0.011573605 -0.011786003 0.0069902726 -0.018343115 -0.018669669 -0.016334075
0.02181728 -0.03503749 -0.01476941 -0.00474839 -0.017703405 -0.0044046156 -0.00854443 -0.022139002
0.020545635 -0.07175238 -0.006369373 -0.03280748 0.019780098 -0.036600832 -0.036853407 0.02206777
-0.035198774 0.0033501366 0.020351978 0.035334174 -0.06683964 -0.011516214 -0.0008855832 0.015109596
-0.046721525 -0.054789715 -0.02970823 -0.023797175 0.0073036635 0.013084873 -0.021283697 -0.01911684
0.011362805 0.016087301 -0.019892313 -0.044592425 0.019486219 0.00037568554 0.005952284 0.03758495
-0.037339576 0.022530291 0.0009588353 -0.0012720078 0.00025415706 0.02274552 -0.0244684 -0.024402324
0.016478684 0.008063024 -0.016418904 -0.028011763 0.0007571208 -0.027001573 -0.014748903 0.012083281
-0.005503341 -0.015623487 -0.009717924 0.014964488 0.010087168 -0.02600088 0.012605652 0.004643981
-0.02756964 -0.0487461 0.025546566 0.013100727 0.032420598 -0.029756159 0.035200123 0.020084029
-0.021462845 0.002126697 -0.029071536 -0.043824885 0.023045482 0.010800129 0.015037687 -0.020106344
-0.0112524675 -0.022903018 -0.04595645 -0.002604989 -0.019224772 -0.017877355 0.041267663 0.014023568
0.01876667 0.044848792 -0.024981681 -0.024986371 0.033404462 0.017947063 -0.010730705 0.027401067
0.032293443 -0.03131736 0.030923331 0.03592109 0.010771134 0.011284558 -0.008473704 -0.044012077
-0.0012091595 -0.004289246 0.0087813875 0.0017923467 -0.0043086195 -0.04534739 -0.023891525 0.0077473638
0.02609115 -0.054851525 0.02031317 0.037333693 -0.020091997 -0.004264213 0.03960175 -0.010796808
0.009670747 -0.020191003 -0.009762011 -0.0078400085 0.029142598 -0.010872569 0.016009027 0.012820649
0.016957926 0.014397899 -0.013582218 0.016922789 -0.03179294 -0.015907668 0.027955689 -0.017389936
0.018857274 -0.043771185 -0.029150799 0.016423514 -0.009078224 -0.016465243 0.0025158986 -0.020388035
-0.00043685295 -0.025693443 0.027746536 0.0028597543 0.003240323 -0.0015658857 -0.012067944 0.044267368
0.032446146 0.021018099 -0.0037118234 0.01822408 0.009631414 -0.012830105 -0.024913747 0.0252082
00000000: 82be cabc 769f 01bc 1a9b eebc be9f ad3b
00000010: 60ce edbc ce41 afbc 7530 83ba 9713 01bd
00000020: f4d2 11bd 3643 023d 39af cdbc b920 403b
00000030: 2b71 203d 183c bebc 2d5e c5bb e116 97bc
00000040: dafd 8abb ba98 d3bc 41a0 d0bb f545 c8bc
00000050: 4a65 52bc 8714 213c 0345 d3bc f2a7 053d
00000060: f506 1bbd b2c4 b7bc 7185 79bc 02f5 523c
00000070: e426 91bc 6762 c43c 9884 ba3c e83f 7dbb
00000080: 5ac7 f53b 4d63 07bd 7606 0fbc 5329 4a3c
00000090: fe11 423c a1eb 1b3d 27e0 26bc 797f c1bb
000000a0: adf8 d23c cd7f e83b 548b b4bc a093 1a3d
000000b0: a0fc a13c a41a 5cbc 46f5 b2ba 00ca 8ebb
000000c0: 4c66 2fbb 6085 00bd 7d10 02bd 1046 883c
000000d0: 6ae9 7a3b 8d08 33bc e98b b1bc 052b 8dbc
000000e0: 2a93 c5bc 4a94 b9bc e507 26bc 4f7c f0bc
000000f0: 5722 d5bc f652 adbc da6f 143b 0f03 38bc
00000100: 6d84 a23a 3dc0 88ba 252f 053d 5bd1 313c
00000110: 86d9 15ba e717 483c 09bb f8bb 6187 2d3c
00000120: 6414 0ebc 53f7 95bc 6a5e 5abc f8b4 35bd
00000130: 404a a63a 6c0a 343d f652 bfbc 56a7 5c3c
00000140: 07e3 3b3c 08a9 be3c 22d9 183c 9111 3b3c
00000150: d9d5 7c3c 050f d0bb d665 863c 1051 973c
00000160: 6fea afbc dbd7 13bd 389f 3dbc 141a 41bc
00000170: a80e e53b 4d44 96bc 22f1 98bc 0acf 85bc
00000180: 27ba b23c 7983 0fbd 65fb 71bc 6298 9bbb
00000190: bb06 91bc 9854 90bb f0fd 0bbc da5c b5bc
000001a0: 524f a83c e9f2 92bd 2cb6 d0bb 2361 06bd
000001b0: df09 a23c c1ea 15bd 99f3 16bd 78c7 b43c
000001c0: 972c 10bd f78d 5b3b 31b9 a63c 91ba 103d
000001d0: 39e3 88bd 81ae 3cbc 7c26 68ba 3d8e 773c
000001e0: 125f 3fbd 2e6b 60bd ad5e f3bc 4bf2 c2bc
000001f0: 9253 ef3b ef61 563c 265b aebc eb9a 9cbc
00000200: 0f2b 3a3c 84c9 833c 34f5 a2bc 8ca6 36bd
00000210: 90a1 9f3c a9f7 c439 610b c33b adf2 193d
00000220: 62f1 18bd 7291 b83c 595a 7b3a 80b9 a6ba
00000230: 6240 8539 d054 ba3c f471 c8bc 62e7 c7bc
00000240: 4efe 863c c61a 043c f080 86bc ed78 e5bc
00000250: 8479 463a 6732 ddbc 62a5 71bc f4f8 453c
00000260: 5f55 b4bb a7f9 7fbc ed37 1fbc 9d2d 753c
00000270: a644 253c ccff d4bc f087 4e3c 892c 983b
00000280: bad9 e1bc fea9 47bd 0847 d13c 6fa4 563c
00000290: 76cb 043d 30c3 f3bc 012e 103d 4387 a43c
000002a0: d9d2 afbc 0e60 0b3b 6e27 eebc b981 33bd
000002b0: e1c9 bc3c 06f3 303c a160 763c 0fb6 a4bc
000002c0: 455c 38bc 1c9f bbbc d53c 3cbd 77b8 2abb
000002d0: 457d 9dbc 8873 92bc 4808 293d 1bc3 653c
000002e0: 8fbc 993c 5eb3 373d 62a6 ccbc 38b0 ccbc
000002f0: 1ed3 083d b805 933c d7cf 2fbc 3478 e03c
00000300: 2146 043d a246 00bd ed52 fd3c fe21 133d
00000310: 6979 303c dee2 383c 4ad5 0abc 0246 34bd
00000320: a97c 9eba ce8c 8cbb cfdf 0f3c 2ded ea3a
00000330: 522f 8dbb 2fbe 39bd 29b8 c3bc 99dd fd3b
00000340: 1bbd d53c feab 60bd ce67 a63c 37eb 183d
00000350: f997 a4bc d0ba 8bbb 7235 223d 18e5 30bc
00000360: 0e72 1e3c 9a67 a5bc d7f0 1fbc 6173 00bc
00000370: 75bc ee3c dc22 32bc 5d25 833c b30d 523c
00000380: 59eb 8a3c 2ae5 6b3c f487 5ebc a9a1 8a3c
00000390: 5039 02bd cc50 82bc 5403 e53c 5775 8ebc
000003a0: 927a 9a3c 6a49 33bd a8cd eebc 9b8a 863c
000003b0: d5bc 14bc 1ee2 86bc c6e1 243b cf04 a7bc
000003c0: 6909 e5b9 0e7b d2bc b44c e33c b76a 3b3b
000003d0: 995b 543b 683e cdba a0b8 45bc b351 353d
000003e0: 40e6 043d 262e ac3c 1042 73bb aa4a 953c
000003f0: 14cd 1d3c 5c35 52bc ea17 ccbc 6d81 ce3c

fc_out.3.bias f4 [11]
-0.0072072386 0.025802625 0.012073891 -0.0069833132 -0.004890675 0.019068342 0.014753795 -0.010993729
-0.007998779 0.009886581 0.014554387
00000000: b32a ecbb 0760 d33c 92d1 453c 47d4 e4bb
00000010: f541 a0bb 3635 9c3c e7b9 713c 0b1f 34bc
00000020: 500d 03bc 54fb 213c 8675 6e3c
